weight_checkpoint_2022-4-5_9-22-55_w1P3GoJn4ITfBdzyQILA.pt (torch, 125375 bytes, 15 tensors)

phi.0.weight f4 [32, 25]
0	0x3dd03f37	0.10168307
1	0x3e032969	0.12808765
2	0x3da6b3da	0.08139773
3	0xbd331d31	-0.04372901
4	0x3e2cc323	0.16871314
5	0x3e36b6b1	0.17843129
6	0xbc022602	-0.007943632
7	0xbccbf452	-0.024896774
8	0xbe40824a	-0.18799701
9	0xbe1c0303	-0.15235524
10	0xbc81d4f2	-0.01584861
11	0x3e029ea6	0.12755832
12	0x3d4d372d	0.050101448
13	0xbdb36df8	-0.08761209
14	0xbe2f3412	-0.17109707
15	0xbd9fcdeb	-0.078029476
16	0xbd34e763	-0.04416598
17	0x3da10366	0.07861976
18	0x3bcde7d3	0.006283739
19	0xbe29f5d2	-0.1659768
20	0x3ddc3525	0.10752324
21	0xbcbc92bc	-0.023019187
22	0xbda19ffa	-0.07891841
23	0xbe325dce	-0.17418596
24	0x3e4481ab	0.1919009
25	0x3c182b6d	0.009287697
26	0x3dd6d66f	0.10490119
27	0x3d5d19b0	0.053979576
28	0xbe34ffe9	-0.17675747
29	0xbb8c7727	-0.004286665
30	0x3e347322	0.17622045
31	0xbdd1051a	-0.10206051
32	0xbd967f2b	-0.07348474
33	0xbdb1d03e	-0.08682297
34	0xbd852499	-0.06501121
35	0xbe529d15	-0.20567735
36	0x3c99c103	0.018768793
37	0x3c3411cb	0.01099057
38	0x3e1e5e86	0.15465745
39	0xbe30b480	-0.17256355
40	0xbe56fcac	-0.20994824
41	0x3cc704f0	0.024294347
42	0xbe25df4e	-0.16198465
43	0x3d60439d	0.05475198
44	0xbe17dc53	-0.14830141
45	0xbe585d8e	-0.21129438
46	0x3ddc8b47	0.107687525
47	0xbe338c7e	-0.17534062
48	0x3e44168d	0.19149227
49	0x3dc0d6ec	0.09415993
50	0xbdf95142	-0.12173702
51	0xbe3c154b	-0.18367498
52	0xbd77f5a8	-0.06053701
53	0x3dfd1a20	0.123584986
54	0x3e11658e	0.14198896
55	0xbd0c03ee	-0.034183435
56	0x3d5ec562	0.054387458
57	0x3e3b3d89	0.18285193
58	0x3c7e64af	0.0155269345
59	0x3b37be04	0.0028036842
60	0x3d2b0a0b	0.041757625
61	0x3c0fcaed	0.008776409
62	0x3dd2de14	0.10296264
63	0x3ddd5b2e	0.10808407
64	0xbdbf0fb2	-0.093291655
65	0x3ca364e0	0.019945562
66	0x3e2c947f	0.16853522
67	0x3d73dc09	0.059536014
68	0xbda1581d	-0.078781344
69	0xbd9a9429	-0.075477906
70	0xbba47f43	-0.0050200536
71	0xbe5d3598	-0.21602476
72	0xbdc52f78	-0.096281946
73	0xbe3b35eb	-0.18282287
74	0xbd64579f	-0.055747624
75	0x3c51294e	0.012766195
76	0xbd100fa3	-0.035171162
77	0xbdd4e23d	-0.10394714
78	0xbe14e9dd	-0.14542337
79	0x3e32c67f	0.17458533
80	0xbd27bcfb	-0.04095171
81	0xbdf89567	-0.12137871
82	0x3dd705bc	0.104991406
83	0x3d0b12f1	0.03395361
84	0x3e12d7e1	0.14340164
85	0xbd5f30cb	-0.054489892
86	0xbce5a459	-0.028032469
87	0x3d3009df	0.042978164
88	0xbd928a25	-0.07155255
89	0x3dcf9ecb	0.10137709
90	0xbd173fd3	-0.036926102
91	0x3dcf9420	0.101356745
92	0x3e016297	0.12635265
93	0xbe08a43c	-0.133439
94	0xbd110429	-0.035404358
95	0x3d36b9d5	0.044610817
96	0x3cfde73c	0.03099405
97	0x3dc17e52	0.09447922
98	0x3dfd9acc	0.12383041
99	0x3d38f714	0.045157507
100	0xbdb32397	-0.087470226
101	0xbe1900d2	-0.14941719
102	0xbe0da9ac	-0.13834256
103	0xbd8c267c	-0.06843278
104	0xbdfc3392	-0.12314524
105	0x3d01d3f7	0.031696286
106	0xbd9d9a69	-0.07695467
107	0x3d81c2e3	0.06336
108	0xbd410e0e	-0.047132544
109	0xbe245233	-0.16046982
110	0x3cf60124	0.03002984
111	0xbd9ab9c0	-0.0755496
112	0x3cf1708d	0.029472614
113	0xbbb076d2	-0.0053852582
114	0xbe1b3649	-0.15157427
115	0xbe063222	-0.13105062
116	0xbe42471e	-0.18972442
117	0xbda50b61	-0.08058811
118	0xbe255a50	-0.16147733
119	0x3d91c5cd	0.07117806
120	0x3e2a7957	0.1664785
121	0xbe5b6629	-0.2142569
122	0xbd6e7e06	-0.058225654
123	0x3de1a828	0.110184014
124	0x3e13cac8	0.14432824
125	0xbe03a44a	-0.1285564
126	0x3df90f00	0.12161064
127	0x3ceca397	0.0288866
128	0x3d162598	0.036656946
129	0x3d78e40d	0.06076436
130	0x3e3a04a2	0.1816583
131	0xbb026fda	-0.0019903095
132	0x3e09a9e3	0.13443713
133	0xbca90d85	-0.02063633
134	0x3e006932	0.12540129
135	0x3d2022ab	0.039095562
136	0xbe24efd2	-0.16107109
137	0xbddfaf83	-0.10922148
138	0x3e27d0a9	0.16388191
139	0x3e45685f	0.19278096
140	0xbdf51f10	-0.11968815
141	0xbdd57b12	-0.104238644
142	0xbdac2fab	-0.084075294
143	0xbe2a5194	-0.16632682
144	0x3d91150e	0.07084094
145	0x3e00e03c	0.12585539
146	0x3e061bdf	0.1309657
147	0x3cec3d63	0.028837865
148	0xbd2eafcc	-0.04264812
149	0xbd096414	-0.033542708
150	0x3e19eeb2	0.15032461
151	0x3d15a81d	0.03653728
152	0x3da1ca69	0.07899935
153	0xbda0a148	-0.07843262
154	0xbca3a8d3	-0.019977963
155	0xbd876b9a	-0.0661232
156	0x3e39ce89	0.18145193
157	0xbde139d2	-0.109973565
158	0xbe3114f0	-0.17293143
159	0xbe1ab1c1	-0.1510687
160	0xbd29ee33	-0.04148693
161	0x3e22fc79	0.15916623
162	0x3d5d60e5	0.054047484
163	0xbd494229	-0.04913536
164	0xbe4bfc46	-0.19920453
165	0x3dffe480	0.12494755
166	0xbdfa2d17	-0.122156315
167	0xbe422f13	-0.1896327
168	0x3e2d780f	0.1694033
169	0xbe01d92b	-0.126805
170	0xbe3c5ba9	-0.1839434
171	0x3dc87e9c	0.09789774
172	0xbd83dc01	-0.06438447
173	0x3e3bbdab	0.18334071
174	0x398b2c50	0.0002654516
175	0xba6b3b71	-0.0008973396
176	0x3d143022	0.036178716
177	0xbdf99ec5	-0.12188486
178	0xbe135e71	-0.14391495
179	0xbc0d0776	-0.008607736
180	0x3dc8d119	0.09805507
181	0xbd7e4acb	-0.062083047
182	0xbd840d2a	-0.06447823
183	0xbda77304	-0.08176234
184	0xbb94e72b	-0.004544159
185	0x3d8b4bde	0.0680158
186	0xbe23e492	-0.16005161
187	0x3e0055cf	0.12532733
188	0x3caf3b32	0.021390531
189	0xbd9666ef	-0.07343852
190	0x3e46fa30	0.19431376
191	0x3e45ea2d	0.19327612
192	0xbcd609bf	-0.026127694
193	0x3e3e0e96	0.18560252
194	0xbc695743	-0.014241996
195	0x3e289866	0.16464385
196	0xbd791d06	-0.060818695
197	0x3e5783c6	0.21046361
198	0xbdec5af4	-0.115407854
199	0x3caf367b	0.021388283
200	0xbda86c81	-0.082238205
201	0xbdaeda87	-0.085377745
202	0x3df0e2eb	0.11762031
203	0xbe1a3301	-0.15058519
204	0xbe1635db	-0.14668982
205	0x3e25af71	0.16180207
206	0xbe488896	-0.19583353
207	0xbd38731f	-0.045031663
208	0x3e134b53	0.14384203
209	0xbda78f0b	-0.0818158
210	0x3d96910e	0.07351886
211	0xbe0936d3	-0.1339982
212	0xbcfaddf8	-0.030623421
213	0xbe4fda43	-0.20298104
214	0x3dc2412e	0.09485088
215	0xbd31f50c	-0.043446586
216	0xbe2d1da5	-0.1690584
217	0xbe4af1b3	-0.19818763
218	0xbe21444d	-0.15748711
219	0x3d61b9fa	0.055109
220	0x3da8907c	0.08230683
221	0xbe48d221	-0.19611408
222	0xbdb78f22	-0.08962847
223	0x3dd474fe	0.10373877
224	0xbd023ffd	-0.031799305
225	0x3e36fe14	0.1787036
226	0xbe14877c	-0.14504808
227	0xbdbf0a5f	-0.0932815
228	0xbd0ea76e	-0.034827642
229	0x3aff14bc	0.0019461135
230	0xbdc504c9	-0.09620053
231	0x3d097249	0.033556256
232	0xbdc07d94	-0.09398952
233	0x3e30b76b	0.17257468
234	0xbcccea71	-0.025014134
235	0xbd172c8c	-0.036907718
236	0x3d1e87bd	0.03870367
237	0xbdf226e3	-0.11823823
238	0xbe538c69	-0.20659031
239	0x3d91b4a3	0.07114532
240	0x3cfab3b9	0.030603277
241	0x3e16d1d3	0.14728479
242	0x3e2146e7	0.15749703
243	0x3dfba947	0.122881465
244	0xbd5c1931	-0.053734962
245	0xbe2eef37	-0.1708344
246	0xbbfc6326	-0.007702249
247	0xbd702a24	-0.05863394
248	0x3e1ed8c0	0.15512371
249	0xbdd6669a	-0.104687884
250	0xbe4f3ed5	-0.20238812
251	0x3e27d3e9	0.16389431
252	0x3d74b46a	0.05974237
253	0xbe10a165	-0.14124067
254	0xbe1c9daf	-0.15294527
255	0xbe4213cd	-0.18952866

phi.0.bias f4 [32]
0	0x3c7048b9	0.014665776
1	0xbd6ef568	-0.058339506
2	0x3e04e144	0.12976557
3	0xbe3a6520	-0.18202639
4	0x3e605c7d	0.21910281
5	0xbcfad60b	-0.030619642
6	0x3d27877e	0.0409007
7	0x3c6c3ed4	0.014419276
8	0xbdd44d48	-0.10366303
9	0xbb8066ae	-0.0039184904
10	0xbd87e375	-0.06635181
11	0x3e11cee6	0.14239082
12	0xbdc5704e	-0.09640561
13	0xbe508658	-0.20363748
14	0x3c5032f8	0.012707464
15	0xbdd60d35	-0.10451738
16	0x3da41391	0.080115445
17	0x3e67b9ce	0.22629473
18	0xbe47f75f	-0.19527958
19	0xbcf9bd4e	-0.030485775
20	0x3c43cd92	0.011950867
21	0x3d518746	0.051154397
22	0xbe516e8b	-0.20452325
23	0x3d6be438	0.057590693
24	0xbe39a051	-0.18127562
25	0xbe2d445d	-0.1692061
26	0x3e0fea36	0.14054188
27	0xbe5530f4	-0.20819455
28	0xbcf90b42	-0.030400876
29	0xbe21578f	-0.15756057
30	0xbe144015	-0.1447757
31	0x3e54ea43	0.20792489

phi.2.weight f4 [32, 32]
0	0xbe2ad382	-0.16682246
1	0xbd4f71f3	-0.05064578
2	0x3de4a1d7	0.11163681
3	0xbd7ba2b3	-0.06143446
4	0x3db30ef2	0.08743085
5	0xbe1e5e06	-0.15465555
6	0x3dde517d	0.108553864
7	0xbe1ed47a	-0.15510741
8	0xbd26d35b	-0.040728908
9	0xbceef890	-0.029171258
10	0xbcf86d32	-0.030325506
11	0xbe2c7312	-0.16840771
12	0xbddc29dc	-0.107501715
13	0xbcbd5c2a	-0.023115236
14	0xbd9c8212	-0.076419964
15	0x3ddc30d2	0.10751499
16	0xbd5be523	-0.05368532
17	0xbd98f372	-0.074683085
18	0xbda23340	-0.079199314
19	0x3dcf56c7	0.10123973
20	0xbd64c996	-0.05585631
21	0xbd3bacee	-0.045819215
22	0xbe0ba406	-0.13636789
23	0xbe0a2fa0	-0.1349473
24	0x3dfc52df	0.12320494
25	0xbd828e90	-0.06374848
26	0x3dc9d5a8	0.09855205
27	0xbdd0441e	-0.10169242
28	0x3d0b2776	0.03397318
29	0x3d99e9a2	0.07515265
30	0x3d994299	0.074834056
31	0xbcab8120	-0.020935595
32	0x3c63b867	0.013898945
33	0x3d7243e8	0.05914679
34	0xbe02c642	-0.12770942
35	0x3df20a93	0.11818423
36	0x3da083ec	0.07837662
37	0xbd9237aa	-0.07139523
38	0xbe02d91a	-0.1277813
39	0x3dde9e78	0.10870069
40	0x3c016c45	0.007899349
41	0xbe1ef7d3	-0.15524225
42	0x3ca51d54	0.020155586
43	0x3dff5cd6	0.12468879
44	0xbe3383ac	-0.17530698
45	0x3d9e1da2	0.07720496
46	0x3d99a632	0.07502402
47	0xbd9c2533	-0.07624283
48	0xbdda7e7f	-0.106686585
49	0xbc0ccf6a	-0.008594373
50	0x3b24d6b3	0.0025152385
51	0x3d1cac49	0.03825024
52	0xbd1a356f	-0.037648614
53	0xbdd192e7	-0.102330975
54	0xbdc5007a	-0.096192315
55	0xbd48bb0b	-0.049006503
56	0x3b0ac56e	0.0021174806
57	0xbcbda748	-0.023151055
58	0x3e2da294	0.1695655
59	0xbe2ea599	-0.17055358
60	0x3de0e88c	0.10981855
61	0x3db9b55e	0.09067796
62	0xbde8d580	-0.11368847
63	0xbd1ff01a	-0.039047338
64	0xbda148af	-0.078751914
65	0x3e00fc0c	0.12596148
66	0x3e48f5fd	0.19625087
67	0x3cf9966b	0.030467233
68	0x3e35aa6f	0.17740797
69	0xbd903265	-0.07040862
70	0x3e3e9f6e	0.18615505
71	0x3d6b80c9	0.057495866
72	0x3d8b94d7	0.06815498
73	0xbd0ec7e6	-0.034858607
74	0x3e451aba	0.19248477
75	0xbd1c9f6c	-0.038237974
76	0xbe0e9d7e	-0.13927266
77	0x3dca9841	0.098923214
78	0x3c9f22c6	0.019425761
79	0x3a8f3edf	0.0010928771
80	0xbdd35961	-0.10319782
81	0x3dd9bd52	0.10631813
82	0xbd8e02d5	-0.06934134
83	0xbe1ee952	-0.15518692
84	0xbcc28dae	-0.023749199
85	0xbd0b5d37	-0.034024443
86	0x3e2ae4c4	0.1668883
87	0x3e03d0d3	0.12872629
88	0xbc92a971	-0.017903062
89	0xbd8c368e	-0.06846343
90	0x3d21c821	0.0394975
91	0xbe20e7c8	-0.15713418
92	0x3cb5fb38	0.022214517
93	0xbe1a13fa	-0.15046683
94	0x3e12bb93	0.14329366
95	0x3d7e8432	0.06213779
96	0x3d9029c8	0.07039219
97	0x3d130c6f	0.03590053
98	0x3e17b7ee	0.14816257
99	0x3e0d9af9	0.13828649
100	0xbe0bb6b9	-0.13643922
101	0x3dcf592d	0.10124431
102	0x3e3e27f7	0.18569933
103	0xbe2e8803	-0.17044072
104	0xbdf22fe5	-0.118255414
105	0x3a75dd06	0.00093789434
106	0xbdca687e	-0.098832116
107	0x3d7bb40b	0.061451
108	0xbe1f1f58	-0.155393
109	0x3d597899	0.053093527
110	0xbe093b36	-0.13401493
111	0xbdd9b4b7	-0.10630172
112	0x3dc8e950	0.09810126
113	0xbbaad946	-0.0052138893
114	0xbdd5409f	-0.10412716
115	0x3de253a7	0.11051112
116	0xbbf9f8ac	-0.007628521
117	0xbd9332ad	-0.071874
118	0x3dd1a1b6	0.10235922
119	0xbe1156aa	-0.14193216
120	0x3e11782f	0.14206003
121	0xbe30c71b	-0.17263453
122	0xbe1be412	-0.1522372
123	0xbe049f9f	-0.12951516
124	0x3e01ecb1	0.12687947
125	0xbd62b710	-0.055350363
126	0xbd5d4cf1	-0.054028455
127	0x3c1e8319	0.009674811
128	0x3da8ec8c	0.08248243
129	0x3e2c33bf	0.16816615
130	0x3e1fe2ac	0.15613812
131	0xbd9dd26c	-0.077061504
132	0x3e2111e4	0.15729481
133	0x3d7c0e7f	0.061537262
134	0x3cb41e7d	0.021987194
135	0xbe2024ea	-0.15639082
136	0x3e3241fc	0.17407984
137	0x3e091349	0.13386263
138	0x3c8baaed	0.017049277
139	0xbcf3083a	-0.029667009
140	0x3a16e2dd	0.0005755851
141	0x3df80747	0.12110763
142	0x3a0176cb	0.0004938661
143	0xbe08d920	-0.13364077
144	0x3e061e95	0.13097604
145	0x3e52a93f	0.20572375
146	0x3de9aad5	0.11409537
147	0x3d683f96	0.056701265
148	0x3d6f9006	0.05848696
149	0x3d915470	0.07096183
150	0x3d673c39	0.056453917
151	0x3e0a104e	0.13482782
152	0x3da66476	0.0812463
153	0xbe0d706a	-0.13812414
154	0x3e09db9d	0.13462682
155	0x3d9ae1af	0.07562577
156	0x3e1ca0a1	0.1529565
157	0xbddf198a	-0.10893543
158	0x3cb201bf	0.021729348
159	0x3e2c4161	0.16821815
160	0xbe01b575	-0.12666877
161	0xbe21f857	-0.1581739
162	0x3e08281a	0.13296548
163	0xbe2998d1	-0.16562201
164	0xbd63eb3d	-0.055644263
165	0xbe0387b2	-0.12844732
166	0x3e02f8fd	0.12790294
167	0x3cf821a6	0.030289482
168	0xbdca4262	-0.09875943
169	0xbde20a36	-0.11037104
170	0xbe29c3b2	-0.16578558
171	0x3e2b33b5	0.16718943
172	0x3dc97bc5	0.0983806
173	0x3d1fd54e	0.039021783
174	0xbcf44533	-0.029818153
175	0xbe3f816e	-0.18701717
176	0x3db2abfb	0.08724209
177	0x3d8a0c70	0.067406535
178	0x3e22e9bc	0.15909475
179	0x3e05292f	0.13003992
180	0xbc6cbe52	-0.014449673
181	0xbe07d8b9	-0.13266267
182	0xbd3e7f0b	-0.046507876
183	0xbc6526a3	-0.0139862625
184	0xbdbf275d	-0.0933368
185	0xbd7f63c5	-0.062351007
186	0x3dbbed1d	0.09176085
187	0x3e240730	0.16018367
188	0x3c6ac89c	0.014330056
189	0xbdb127e2	-0.08650185
190	0xbce38f67	-0.02777834
191	0x3c246038	0.010032706
192	0xbe11ebb1	-0.14250065
193	0xbd7f2646	-0.06229236
194	0xbdcf4f91	-0.10122598
195	0xbb7cc8c7	-0.003857182
196	0xbe2359c8	-0.15952218
197	0x3c49e9b6	0.012323787
198	0xbcdad104	-0.026710995
199	0x3d030ee8	0.031996638
200	0x3e0b252b	0.13588397
201	0x3cf1788a	0.029476423
202	0xbd5720ba	-0.052521445
203	0xbe04da32	-0.1297386
204	0xbe011d75	-0.12608893
205	0xbe1f509d	-0.15558095
206	0xbe120660	-0.14260244
207	0x3da82e4c	0.082119554
208	0x3d75e2c1	0.060030703
209	0xbdce9455	-0.10086886
210	0x3c91b30c	0.017785572
211	0xbe042c35	-0.12907489
212	0xbe182199	-0.14856566
213	0xbd273d2a	-0.040829815
214	0x3d336ed1	0.043806855
215	0x3de067da	0.10957308
216	0xbdd1c429	-0.10242493
217	0x3cc2f989	0.023800628
218	0x3cceaa0e	0.025227573
219	0xbcf50f42	-0.029914502
220	0x3d8a9227	0.067661576
221	0xbc73b4cf	-0.014874651
222	0xbdee4f51	-0.11636222
223	0xbde7bd13	-0.1131536
224	0xbe1b7be1	-0.15183975
225	0x3d869904	0.06572154
226	0xbe12e451	-0.14344908
227	0xbe223a6f	-0.15842603
228	0xbe0bf29c	-0.13666767
229	0xbdc7b348	-0.09750992
230	0xbbd90b4d	-0.0066236616
231	0xbcc6362a	-0.02419575
232	0x3db202f1	0.08691967
233	0xbdd6ddb2	-0.10491504
234	0xbca57e5c	-0.020201854
235	0x3df57dd8	0.119868934
236	0x3e1391c4	0.14411074
237	0x3e051c69	0.12999119
238	0xbce63157	-0.028099699
239	0x3d9a03ee	0.07520281
240	0x3e0eecfb	0.13957588
241	0x3d7d2960	0.061807036
242	0x3dad95ab	0.084758125
243	0xbb4f6096	-0.0031643263
244	0xbdcfe32f	-0.10150754
245	0xbe15e18e	-0.14636824
246	0x3e123994	0.14279777
247	0xbe05715e	-0.13031527
248	0xbe1a7135	-0.15082248
249	0x3e1d04e0	0.15333891
250	0xbd887ae0	-0.066640615
251	0x3c45f4a2	0.012082251
252	0x3e315bda	0.17320195
253	0x3de31650	0.1108824
254	0x3e01e401	0.12684633
255	0xbd0d8876	-0.034553967

phi.2.bias f4 [32]
0	0x3dcb7925	0.09935216
1	0xbe13f39b	-0.14448397
2	0xbbc10b02	-0.005891205
3	0x3e138c27	0.14408933
4	0x3e3e1449	0.18562426
5	0xbe30633c	-0.17225355
6	0xbde2f422	-0.11081721
7	0xbd1e6fc6	-0.038680814
8	0xbcd8549e	-0.026407536
9	0xbe11a03e	-0.14221284
10	0xbd903a1a	-0.07042332
11	0x3da6945a	0.081337646
12	0xbd96e1b8	-0.07367271
13	0xbdeb6280	-0.11493397
14	0xbd2a7a77	-0.041620698
15	0xbd8e1503	-0.069376014
16	0xbdc91577	-0.09818547
17	0xbdd0e82d	-0.10200534
18	0xbc7996e8	-0.015233733
19	0x3e156df5	0.14592727
20	0xbd818fcb	-0.063262545
21	0x3d94a353	0.07257714
22	0x3e03cd1c	0.12871212
23	0x3e17ffb2	0.14843634
24	0xbe1ecb13	-0.15507154
25	0xbbddc384	-0.006767692
26	0xbddf336f	-0.10898482
27	0x3e353e40	0.17699528
28	0x3d5c9133	0.05384941
29	0x3e175894	0.14779884
30	0xbd069653	-0.032858204
31	0x3ddec59b	0.10877534

phi.4.weight f4 [28, 32]
0	0x3dec8b78	0.11550039
1	0xbde9068f	-0.11378204
2	0x3c9eb895	0.019375125
3	0x3d9bd1da	0.076083854
4	0x3dcb3c38	0.09923595
5	0xbcbdb15d	-0.023155862
6	0x3dc1c63a	0.09461637
7	0xbd020504	-0.031743065
8	0xbde8031f	-0.1132872
9	0x3da025f5	0.0781974
10	0x3e3be95b	0.18350737
11	0x3e217945	0.15768917
12	0x3d3da392	0.04629857
13	0x3d5ac62c	0.053411648
14	0x3d1f6dcf	0.03892308
15	0x3d8ba295	0.068181194
16	0x3d772940	0.060342073
17	0x3e0ced91	0.137625
18	0xbda6ba4c	-0.08141002
19	0x3c345553	0.011006671
20	0xbcfc7960	-0.030819595
21	0xbdecac4f	-0.11556303
22	0x3db57a7c	0.08861253
23	0x3e1087f6	0.14114365
24	0xbde1587f	-0.110032074
25	0xbc057d30	-0.008147523
26	0x3d7904d7	0.06079563
27	0x3d9d0ef7	0.0766887
28	0x3c67de75	0.014152159
29	0x3de647b2	0.112441435
30	0x3d12a036	0.03579732
31	0xbdb2d0ca	-0.087312296
32	0x3e180151	0.14844252
33	0xbd98ffb7	-0.07470649
34	0xbc35d108	-0.0110972
35	0x3d014e7a	0.03156898
36	0x3d26488a	0.040596522
37	0xbdff98f3	-0.124803446
38	0x39f767c9	0.00047188837
39	0x3e05701e	0.1303105
40	0x3ce0de25	0.027449677
41	0x3cb3104b	0.021858355
42	0x3da694af	0.08133828
43	0xbde91429	-0.11380798
44	0xbc6bdb9b	-0.01439562
45	0xbdc7460b	-0.097301565
46	0xbd8f777b	-0.07005211
47	0x3e1c093c	0.15237898
48	0x3ddc7691	0.10764802
49	0xbe109f39	-0.14123239
50	0xbd33434e	-0.04376536
51	0xbd282486	-0.041050456
52	0x3c8386ca	0.016055483
53	0x3de2d342	0.110754505
54	0x3e37c9d2	0.17948082
55	0x3a37ea26	0.0007015787
56	0xbdf33b20	-0.118765116
57	0x3d502799	0.050819013
58	0x3e0277f9	0.12741078
59	0xbddc004e	-0.107422456
60	0x3ae6703c	0.0017581056
61	0xbe197a68	-0.149881
62	0x3e1c2f48	0.15252411
63	0xbe1070ac	-0.14105481
64	0xbca964de	-0.02067798
65	0x3dbb1bf7	0.09136193
66	0x3d2de0a0	0.042450547
67	0xbe040f2f	-0.12896417
68	0xbe31ded1	-0.17370154
69	0xbddd033a	-0.10791631
70	0x3c8ea8b8	0.017414436
71	0x3dafb28c	0.08578977
72	0xbc6358e3	-0.013876173
73	0xbdb40316	-0.08789651
74	0x3cc8232b	0.024430832
75	0xbd8afdb3	-0.067866705
76	0xbe0056c3	-0.12533097
77	0xbdfce893	-0.123490475
78	0x3cf980d3	0.030456936
79	0xbe2439c2	-0.16037658
80	0xbe2e14a9	-0.17000069
81	0x3abb9386	0.0014310933
82	0x3bbf6eb4	0.0058420543
83	0xbe15b530	-0.14619899
84	0x3d6cf267	0.05784836
85	0x3d09003c	0.03344749
86	0x3b04c032	0.002025616
87	0xbd233817	-0.039848413
88	0x3c77bec1	0.015121163
89	0x3e09a46c	0.13441628
90	0x3e254bcf	0.161422
91	0x3d183ae1	0.037165526
92	0xbe058e0b	-0.13042466
93	0xbd7221c2	-0.059114225
94	0x3d50b81b	0.050956827
95	0xbe4a03d4	-0.19728023
96	0x3e344126	0.17602977
97	0x3e031e87	0.12804614
98	0xbe0c15bd	-0.13680167
99	0x3dbb737b	0.091528855
100	0xbb95f600	-0.0045764446
101	0x3df7fd40	0.121088505
102	0x3e315b51	0.1731999
103	0x3e12c8f3	0.14334469
104	0xbd9cb88c	-0.07652387
105	0xbd559829	-0.052147064
106	0xbd0624d2	-0.03274996
107	0x3e15a6c4	0.14614397
108	0xbd1534bc	-0.036427245
109	0x3d42b67c	0.047537312
110	0x3de44fdd	0.11148045
111	0xbe0af7e1	-0.13571121
112	0x3dde1229	0.108433075
113	0x3cc3d64b	0.023905894
114	0x3e1b4f28	0.15166914
115	0x3d9c4815	0.07630936
116	0x3e076fd7	0.13226257
117	0xbe1107de	-0.14163157
118	0x3e1c8507	0.15285121
119	0xbdb020bf	-0.08599996
120	0xbdf05e63	-0.11736753
121	0xbce0f1fa	-0.027459133
122	0x3e0a1114	0.13483077
123	0xbd46b965	-0.04851665
124	0xbd98b0a7	-0.07455569
125	0xbe055326	-0.1302
126	0xbd1cee0b	-0.038312953
127	0xbd939123	-0.07205417
128	0x3bad39f1	0.005286448
129	0x3e2ab5c9	0.16670908
130	0xbc9730d6	-0.018455904
131	0xbd09daec	-0.033656046
132	0xbe005564	-0.12532574
133	0xbe256db6	-0.16155133
134	0x3d93a075	0.07208339
135	0xbce06d62	-0.027395908
136	0x3d30fe5a	0.04321132
137	0xbde308e3	-0.110856794
138	0xbe153d2a	-0.14574113
139	0xbb86c877	-0.0041132527
140	0xbd358a26	-0.0443212
141	0x3cd3eeda	0.02587073
142	0xbe14ad8f	-0.14519332
143	0x3dae30e0	0.08505416
144	0xbe2319ec	-0.15927857
145	0xbd539c8f	-0.051662978
146	0x3e1a0476	0.15040764
147	0x3e000132	0.12500456
148	0xbd115ae6	-0.035487078
149	0x3d7d5275	0.061846215
150	0xbd99f78a	-0.075179175
151	0x3d97c1fd	0.07410047
152	0x3e270c51	0.16313292
153	0x3d720567	0.059087183
154	0x3e02dc25	0.12779291
155	0xbdc63a5a	-0.096790984
156	0xbe44349c	-0.19160694
157	0x3cc0275a	0.023456264
158	0x3ddafa8e	0.10692321
159	0x3d79c996	0.060983263
160	0x3e2f17ae	0.17098877
161	0xbbc849b8	-0.0061123036
162	0x3e081a12	0.13291195
163	0x3e2f0e75	0.17095359
164	0x3dfc177f	0.12309169
165	0x3d2df119	0.042466257
166	0x3db3fa0d	0.08787928
167	0x3c133db8	0.008986883
168	0x3dce573d	0.10075233
169	0xbddea97f	-0.108721726
170	0x3d4d87c0	0.05017829
171	0x3e2837c1	0.16427518
172	0x3cea15cb	0.028574845
173	0x3e2d729f	0.16938256
174	0x3dab611b	0.08368131
175	0x3e04fa20	0.1298604
176	0x3c9c7791	0.019099982
177	0xbd515d83	-0.05111457
178	0x3cb643e6	0.022249173
179	0xbe025cb6	-0.12730679
180	0x3d3f96ef	0.0467748
181	0xbdc3c154	-0.09558359
182	0xbd5762a8	-0.05258432
183	0x3d81cca3	0.063378595
184	0x3e3cb021	0.18426563
185	0xbe1f01b5	-0.15527995
186	0x3e3cd66f	0.18441175
187	0x3e4f27e0	0.20230055
188	0x3cefd6fe	0.029277321
189	0xbae3f40a	-0.0017391455
190	0x3ccc126e	0.024911132
191	0xbdbfdb7b	-0.093680345
192	0xbe19c01b	-0.15014689
193	0x3e02176e	0.1270425
194	0x3e0497de	0.12948558
195	0xbd539528	-0.05165592
196	0x3ddf6a19	0.109089084
197	0xbe2f1043	-0.17096047
198	0x3e27b928	0.16379225
199	0x3e0e369e	0.13888022
200	0x3c95ed1c	0.01830154
201	0x3e14e688	0.14541066
202	0xbdf708cd	-0.120622255
203	0xbda6bacf	-0.081411
204	0x3cd85449	0.026407378
205	0x3d0eda1f	0.034875985
206	0x3c6246ff	0.013810872
207	0xbe218b5c	-0.15775818
208	0x3e26f71e	0.16305205
209	0xbc832d5b	-0.016012838
210	0xbd64fe49	-0.055906568
211	0x3e27761f	0.16353653
212	0xbd523e3e	-0.05132889
213	0xbda59ac5	-0.080861606
214	0x3e4b5c5e	0.19859454
215	0xbe1a21b0	-0.15051913
216	0xbe118111	-0.14209391
217	0x3be3beec	0.00695025
218	0x3dc8b214	0.09799591
219	0xbcf23519	-0.029566335
220	0x3e05e983	0.13077359
221	0xbe06320f	-0.13105033
222	0x3d926020	0.07147241
223	0x3d59b59c	0.05315171
224	0x3d610da4	0.05494465
225	0x3da9077f	0.08253383
226	0x3da56b42	0.080770984
227	0xbe1c8722	-0.15285924
228	0x3e488752	0.1958287
229	0xbe256892	-0.16153172
230	0x3dd73cc7	0.10509639
231	0x3d9a457e	0.07532786
232	0xbcd9673f	-0.02653849
233	0x3da77f94	0.081786305
234	0xbd7fb9ef	-0.06243318
235	0xbcb39e08	-0.021925941
236	0x3e2ad2c9	0.1668197
237	0xbe088b54	-0.133344
238	0xbe1b704f	-0.15179561
239	0xbc332c0f	-0.010935797
240	0x3e234697	0.15944897
241	0xbe14623f	-0.14490603
242	0xbd60207f	-0.05471849
243	0xbd2b9fa9	-0.04190031
244	0xbdd65c8d	-0.104668714
245	0xbba3cc6e	-0.004998735
246	0x3e2c3295	0.1681617
247	0x3dcaae7e	0.09896563
248	0x3c48cb0b	0.0122554405
249	0x3d86d69a	0.06583901
250	0x3e087734	0.13326722
251	0x3d134e2f	0.035963234
252	0xbd89ffb0	-0.06738222
253	0x3e0fdf53	0.14050035
254	0x3e2fc13f	0.17163561
255	0x3e294a65	0.16532286

phi.4.bias f4 [28]
0	0xbcf699c8	-0.030102625
1	0x3e129ee6	0.14318427
2	0xbd41aced	-0.047284056
3	0x3dc5e441	0.096626766
4	0xbe01cf08	-0.12676632
5	0xbddfd02f	-0.1092838
6	0x3e22d0a4	0.15899903
7	0x3e004e0e	0.12529776
8	0xbde3c8df	-0.111222975
9	0xbdc9d6c8	-0.098554194
10	0x3e04ca5c	0.12967819
11	0xbde15d84	-0.11004165
12	0x3d427042	0.04747034
13	0x3e1b3ffa	0.15161124
14	0x3d743adb	0.05962644
15	0x3d332ea2	0.043745644
16	0x3e357947	0.17722045
17	0x3db040d3	0.08606114
18	0x3e1737f4	0.14767438
19	0x3de5f09e	0.11227535
20	0xbe0d329e	-0.1378884
21	0xbe2a6700	-0.16640854
22	0xbbbc912f	-0.005754612
23	0xbd7e6fd3	-0.062118363
24	0x3d980376	0.07422535
25	0x39bea1e1	0.00036360233
26	0x3e2181da	0.1577219
27	0x3dde7a16	0.1086313

phi.6.weight f4 [25, 28]
0	0xbdeef389	-0.116675444
1	0x3e1b5af5	0.15171416
2	0x3d4c97fa	0.049949624
3	0x3e0c9e76	0.13732323
4	0xbe1c8511	-0.15285136
5	0x3e10d36b	0.1414315
6	0xbcbaee1e	-0.022818621
7	0x3e481f07	0.19543086
8	0xbe330209	-0.17481245
9	0x3c9d7851	0.01922241
10	0xbd227343	-0.039660703
11	0x3e3cb65f	0.18428944
12	0xbdfd10e6	-0.12356739
13	0x3e54775f	0.20748661
14	0x3e472cf6	0.19450745
15	0xbd954352	-0.07288231
16	0xbdbac6f2	-0.09119977
17	0x3d7ca626	0.06168189
18	0xbe1d3926	-0.15353832
19	0xbe1b9c44	-0.1519633
20	0xbd64e0ff	-0.055878635
21	0xbd1e4b46	-0.038646005
22	0xbd5857ae	-0.052817993
23	0x3e2b3e53	0.16722994
24	0x3d3170bd	0.043320406
25	0x3e4a72dd	0.1977038
26	0x3e5dd8d9	0.21664752
27	0x3d371c33	0.044704627
28	0x3d88b1c4	0.06674531
29	0xbe2cf873	-0.16891651
30	0xbcd1d9ba	-0.025616515
31	0x3db65f30	0.08904874
32	0x3e0d4ad8	0.13798082
33	0xbd819287	-0.06326776
34	0x3c0642d1	0.008194641
35	0x3e0464ad	0.1292903
36	0xbde5e596	-0.11225431
37	0xbe2fd723	-0.17171912
38	0x3e0ae460	0.1356368
39	0xbce067f9	-0.027393328
40	0xbba176f0	-0.0049275085
41	0x3d69f870	0.057121694
42	0xbe3d80f9	-0.1850623
43	0x3b8ba377	0.00426143
44	0x3d8e748c	0.06955823
45	0x3e066642	0.13124946
46	0x3d07c407	0.03314593
47	0xbe2c028f	-0.16797851
48	0xbdcedb91	-0.10100473
49	0xbd8bb313	-0.06821265
50	0x3dba57a3	0.09098747
51	0x3c036c27	0.008021391
52	0x3d4464bf	0.04794764
53	0x3e02416f	0.12720273
54	0xbdd808d3	-0.10548558
55	0xbd8eaefd	-0.0696697
56	0x3dd956d0	0.10612261
57	0xbdc23d77	-0.0948438
58	0x3d8c3664	0.06846312
59	0x3dcdfa20	0.10057473
60	0x3dacac02	0.084312454
61	0x3bb43dcf	0.005500532
62	0xbc721c96	-0.014777323
63	0x3e176971	0.14786316
64	0x3e03b498	0.1286186
65	0xbe0248d7	-0.12723099
66	0xbda62da5	-0.08114175
67	0xba047dc6	-0.0005054142
68	0x3dffac50	0.12484038
69	0x3e122edb	0.14275686
70	0xbd01aaaf	-0.031656917
71	0xbe366a2c	-0.17813939
72	0xbdb8cff5	-0.0902404
73	0xbe092565	-0.13393171
74	0xbe1a47a2	-0.15066388
75	0xbd703b67	-0.0586504
76	0xbd87fa57	-0.066395454
77	0xbde43368	-0.111426175
78	0x3c9822c3	0.018571263
79	0x3d66912f	0.0562908
80	0x3b392f68	0.0028257016
81	0xbccc77d6	-0.024959486
82	0xbe16cdf7	-0.14727007
83	0x3cbcd99c	0.023052983
84	0xbdadc1ba	-0.08484216
85	0xbdc47149	-0.0959192
86	0xbd2d704a	-0.042343415
87	0x3d5fc33b	0.054629546
88	0x3cfbe48c	0.030748628
89	0xbd8d0747	-0.06886154
90	0xbe014afb	-0.12626259
91	0xbe33cee3	-0.1755939
92	0xbdb6fe10	-0.08935177
93	0x3e1534fb	0.14570992
94	0x3d10f773	0.035392236
95	0xbc8f112e	-0.017464247
96	0x3e26c9ce	0.1628792
97	0xbd0c5089	-0.03425649
98	0x3da617b1	0.081099875
99	0x3c8a1ccc	0.016859435
100	0x3c93fbf4	0.018064477
101	0x3df6b0c6	0.120454356
102	0xbe11c98e	-0.14237043
103	0xbe133f3e	-0.14379594
104	0x3e35f397	0.17768703
105	0x3de43175	0.11142246
106	0x3cc2508b	0.023720047
107	0xbe1a05e2	-0.15041307
108	0x3de4ad46	0.11165862
109	0xbd5bede6	-0.053693675
110	0xbe176767	-0.14785539
111	0xbe30615b	-0.17224638
112	0xbdd14e9d	-0.102200724
113	0x3db33ad7	0.08751457
114	0x3e383583	0.17989163
115	0x3da8f382	0.082495704
116	0xbc77eba2	-0.015131863
117	0xbb43048e	-0.0029757353
118	0xbd3690b6	-0.0445716
119	0x3dcdec64	0.100548536
120	0xbd62e131	-0.05539054
121	0x3e2a24eb	0.16615646
122	0x3e337f37	0.17528997
123	0xbd9aa447	-0.07550865
124	0x3cd29704	0.025706775
125	0xbe0dd78c	-0.13851756
126	0x3d98bed5	0.07458273
127	0x3ded86cc	0.11597976
128	0x3d9bc810	0.07606518
129	0xbdacb9e8	-0.08433896
130	0xbe2cbbff	-0.1686859
131	0x3e42d29f	0.19025658
132	0xbcf17006	-0.029472362
133	0xbe3acdba	-0.18242541
134	0xbc42345f	-0.011853307
135	0x3e11d300	0.14240646
136	0xbc43d586	-0.011952763
137	0x3dc98590	0.09839928
138	0x3d21e066	0.039520644
139	0x3d864b08	0.0655728
140	0xbd7a0ae2	-0.061045535
141	0x3d922e5a	0.07137747
142	0x3b02a299	0.0019933342
143	0x3e0e62ec	0.13904923
144	0x3c914fce	0.01773825
145	0x3e1ab11c	0.15106624
146	0xbdef85a2	-0.1169541
147	0x3beba440	0.007191211
148	0xbdb3f738	-0.087873876
149	0xbde62246	-0.11237006
150	0x3e2b03ea	0.16700712
151	0x3d96b257	0.073582344
152	0x3df1c50e	0.11805163
153	0xbe4c0047	-0.19921981
154	0xbcfbdfd7	-0.030746384
155	0xbe498243	-0.19678597
156	0xbdd0dee2	-0.101987615
157	0x3e37e6a7	0.1795908
158	0xbe0c3c80	-0.13694954
159	0xbdbf7696	-0.0934879
160	0x3d125201	0.035722736
161	0xbd5b069a	-0.053473093
162	0x3c51f50e	0.012814773
163	0xbe472b53	-0.1945012
164	0xbe3ba6bf	-0.18325327
165	0x3e10b523	0.14131598
166	0xbe0a4ff1	-0.13507058
167	0xbda44adc	-0.08022091
168	0x3e3b78ea	0.18307844
169	0xbe3fa1e2	-0.18714097
170	0xbcff96b4	-0.03119979
171	0xbccf7f43	-0.025329238
172	0x3e3ca292	0.1842139
173	0xbd41bbea	-0.04729835
174	0x3df9653e	0.121775135
175	0xbe3e7a1b	-0.18601267
176	0x3e0f79df	0.14011334
177	0xbdd5a5cc	-0.10432014
178	0xbdb153ac	-0.08658537
179	0x3ddf885b	0.109146796
180	0x3dd44c47	0.10366111
181	0xbdeed5b9	-0.11661858
182	0xbd0e9743	-0.034812223
183	0xbe0df241	-0.13861944
184	0xbda2cb6b	-0.07948955
185	0xbe3cbf83	-0.18432431
186	0xbd49b65d	-0.04924618
187	0x3e02dd5c	0.12779754
188	0xbd8329b3	-0.06404438
189	0x3b0c5bc2	0.0021416997
190	0x3d86dbdc	0.065849036
191	0x3cde0dde	0.027106222
192	0x3d33cf92	0.043899126
193	0xbd141bc4	-0.036159292
194	0x3d4bfbff	0.04980087
195	0xbd32d05d	-0.043655742
196	0xbdbc8f44	-0.09207013
197	0xbd70e3e4	-0.058811083
198	0x3e11f9d1	0.14255454
199	0xbd6e8718	-0.058234304
200	0x3e2b3b63	0.16721873
201	0xbe12062a	-0.14260164
202	0xbd998546	-0.07496123
203	0xbda0013e	-0.07812737
204	0x3e447f2f	0.19189142
205	0x3dc03ad9	0.09386224
206	0xbda4afe5	-0.08041362
207	0xbdb386d4	-0.08765951
208	0xbca02e71	-0.019553395
209	0x3e29d011	0.16583277
210	0x3db2a0e3	0.08722093
211	0x3d89d1b8	0.06729454
212	0x3e260049	0.16211046
213	0xbd4e646e	-0.050388746
214	0xbda9d5f5	-0.08292762
215	0xbd730bf9	-0.05933759
216	0xbdca3bfb	-0.098747216
217	0xbdbbce47	-0.09170204
218	0xbcf9f924	-0.030514307
219	0xbd3324d4	-0.043736294
220	0xbe2ea2e0	-0.1705432
221	0xbe3a9b1d	-0.18223234
222	0xbe1b859d	-0.15187688
223	0xbd10b7d0	-0.035331547
224	0x3dd3b5a9	0.10337383
225	0x3cd31d5a	0.025770832
226	0x3c1bd79e	0.009511856
227	0x3dee0555	0.11622111
228	0xbdc36692	-0.09541048
229	0x3e103120	0.1408124
230	0x3e2276d0	0.15865636
231	0x3e0ed27c	0.13947481
232	0x3e4d4904	0.20047385
233	0x3caa412a	0.020783026
234	0x3e042951	0.12906386
235	0xbe50a1ab	-0.20374171
236	0xbdb3dd89	-0.08782489
237	0xbe409bff	-0.18809508
238	0xbe2926c4	-0.16518694
239	0xbe112ba2	-0.14176801
240	0x3e00fd6e	0.12596676
241	0x3d1da7eb	0.038490217
242	0xbaadf8e8	-0.0013273032
243	0xbca0cb9e	-0.019628342
244	0xbe092407	-0.1339265
245	0xbd41dc14	-0.047329023
246	0x3e221900	0.15829849
247	0x3e061e1d	0.13097425
248	0xbde1b5b7	-0.110209875
249	0xbd827550	-0.06370032
250	0x3d79f476	0.06102415
251	0xbe33fd61	-0.17577125
252	0x3c25c346	0.010117358
253	0xbe185245	-0.14875133
254	0x3d8d35d7	0.06895035
255	0x3e116a20	0.1420064

phi.6.bias f4 [25]
0	0x3e412ebc	0.18865484
1	0xbe0d82c6	-0.13819417
2	0x3d1b50c4	0.03791882
3	0xbe502383	-0.20326047
4	0xbded984e	-0.116013154
5	0xbe3098de	-0.17245814
6	0x3d800fe4	0.06253031
7	0xbe159786	-0.14608583
8	0xbe24aadf	-0.16080807
9	0x3be9caac	0.007134756
10	0xbd835ce9	-0.064142056
11	0xbd2ee10d	-0.042695094
12	0xbe331d10	-0.17491555
13	0x3d395b5e	0.04525315
14	0x3cadd044	0.021217473
15	0xbdca13e4	-0.09867075
16	0xbe112861	-0.1417556
17	0xbe278682	-0.16359904
18	0xbddf504c	-0.10903987
19	0x3e158b44	0.14603907
20	0xbc4afd1c	-0.012389448
21	0xbe0913dc	-0.13386482
22	0xbccc8a28	-0.024968222
23	0xbe046c04	-0.1293183
24	0xbd77ee20	-0.060529828

psi.0.weight f4 [128, 26]
0	0x3e0ab3c2	0.13545135
1	0x3dbef4e9	0.09324057
2	0x3dd1e43e	0.10248612
3	0xbe29cec6	-0.16582784
4	0xbbdf5970	-0.0068160817
5	0x3c5fc41a	0.013657594
6	0xbd6004ea	-0.054692186
7	0x3da084f2	0.07837857
8	0xbda8ea92	-0.08247866
9	0xbde2f960	-0.11082721
10	0xbdff6864	-0.12471083
11	0x3dd48375	0.10376636
12	0x3bb8307e	0.005621015
13	0x3d81f19a	0.0634491
14	0xbdedd1f0	-0.11612308
15	0xbe464cb7	-0.19365202
16	0xbdf6627f	-0.120305054
17	0xbdd53d8e	-0.10412131
18	0xbe083754	-0.13302356
19	0xbd90c799	-0.0706932
20	0x3d0819de	0.033227794
21	0xbc4b6c98	-0.0124160275
22	0x3de7f890	0.113267064
23	0xbe57c901	-0.2107277
24	0xbca7fc2d	-0.020505989
25	0x3e327b0f	0.17429756
26	0xbe29d593	-0.16585378
27	0xbdea563a	-0.11442228
28	0x3e025d00	0.12730789
29	0x3e0cb4e4	0.1374088
30	0x3db92f76	0.090422556
31	0x3d5a47eb	0.053291243
32	0x3d8c7c35	0.06859628
33	0xbdf422f1	-0.11920727
34	0x3e0e413e	0.13892075
35	0x3d07ddb5	0.03317042
36	0x3e2b3053	0.16717653
37	0xbdf60c6d	-0.12014089
38	0xbd20db71	-0.039271776
39	0xbc79c370	-0.01524435
40	0xbe0dafd8	-0.1383661
41	0xbc96f860	-0.018428981
42	0x3ba0312f	0.0048886756
43	0xbe1dc5e4	-0.1540752
44	0xbdae5de8	-0.08514005
45	0x3e0af46d	0.13569804
46	0x3bbe04b4	0.0057989005
47	0xbd32884e	-0.04358702
48	0xbde783af	-0.113044135
49	0x3e140105	0.14453514
50	0xbdac40b0	-0.08410776
51	0xbdc6c60b	-0.097057424
52	0xbd91c8d7	-0.07118385
53	0xbe0f93ce	-0.14021227
54	0xbdba0055	-0.090820946
55	0x3d1a6ef5	0.037703473
56	0x3d023b13	0.03179462
57	0x3e178862	0.1479812
58	0x3d0866a2	0.033301003
59	0xbc3735f6	-0.011182299
60	0x3e16139e	0.14655921
61	0x3db3fd4e	0.087885484
62	0xbdc08b65	-0.094015874
63	0x3b51b5bc	0.0031999191
64	0xbe0c0560	-0.13673925
65	0x3e4f69f5	0.20255263
66	0x3c917b23	0.017758911
67	0xbe32e927	-0.17471753
68	0x3c389500	0.011265993
69	0xbe30aee0	-0.1725421
70	0x3d303afd	0.043025006
71	0xbdffd8b5	-0.124925055
72	0xbe2ce5bc	-0.16884512
73	0xbdae5699	-0.08512611
74	0xbe3c5690	-0.18392396
75	0xbe5ed9f4	-0.2176283
76	0x3d89b5b1	0.06724108
77	0xbdeb079e	-0.11476062
78	0x3df9676c	0.12177929
79	0x3dec5c73	0.11541071
80	0x3e1fff5e	0.15624759
81	0xbe0a73f6	-0.13520798
82	0x3dd8530b	0.10562714
83	0xbe125675	-0.14290793
84	0x3dc41854	0.09574953
85	0xbe0c9e24	-0.13732201
86	0xbe00033d	-0.12501235
87	0xbdb7ddf3	-0.0897788
88	0xbe0ff2fa	-0.14057532
89	0x3d05a0f5	0.032624204
90	0xbcdede01	-0.02720547
91	0x3df8ad85	0.12142471
92	0x3e2731e4	0.16327626
93	0x3d207716	0.03917607
94	0x3d335741	0.043784384
95	0xbdc89924	-0.09794834
96	0x3cc37c78	0.023863062
97	0x3e407e86	0.18798265
98	0xbd878f3a	-0.06619115
99	0xbe27a362	-0.1637092
100	0xbde63d42	-0.11242153
101	0xbc1ef2f6	-0.009701481
102	0xbddac6ae	-0.106824264
103	0x3c019a91	0.007910387
104	0xbcbe1e78	-0.023207888
105	0x3dee88bc	0.11647174
106	0x3d55ad50	0.052167237
107	0xbe5eafc6	-0.2174674
108	0xbe1bd7f1	-0.15219094
109	0x3d2a8202	0.04162789
110	0x3d2cf52c	0.042226
111	0xbdb23054	-0.08700624
112	0xbe22cfca	-0.15899578
113	0xbe2bb8e5	-0.1676975
114	0xbd9b20ae	-0.075745925
115	0xbd1acb35	-0.03779145
116	0xbe41acad	-0.18913527
117	0x3e096d6e	0.1342065
118	0xbc804994	-0.015660085
119	0xbdf927a8	-0.12165767
120	0x3db1e433	0.08686104
121	0x3d52a394	0.05142553
122	0x3c32c1cc	0.010910463
123	0x3e19b52c	0.15010518
124	0x3e20cf26	0.15704021
125	0xbde79b4f	-0.1130892
126	0x3e356041	0.17712499
127	0xbdf8ff6c	-0.12158093
128	0xbcc9b721	-0.024623455
129	0xbdf454e8	-0.11930257
130	0xbe1e1264	-0.15436703
131	0x3df2c052	0.118530884
132	0xbc07ee6f	-0.008296593
133	0xbdff3683	-0.12461569
134	0xbd14e909	-0.036355052
135	0x3de050e0	0.10952926
136	0x3e17d2de	0.14826533
137	0x3e06e014	0.13171417
138	0xbdb7e15f	-0.08978533
139	0x3e04c44b	0.12965505
140	0x3cb0795d	0.021542246
141	0xbe370c0b	-0.17875688
142	0xbcdb1963	-0.026745504
143	0x3db4f600	0.08835983
144	0xbe290730	-0.16506648
145	0x3e08737c	0.13325304
146	0x3e2e8022	0.17041066
147	0x3caba21f	0.020951329
148	0x3e257985	0.16159637
149	0xbe3f109a	-0.18658677
150	0xbdf1f2f9	-0.118139215
151	0x3d054ffc	0.032546982
152	0xbd2a0f7d	-0.041518677
153	0xbd632808	-0.0554581
154	0xbe1e19ee	-0.15439579
155	0xbe236885	-0.1595784
156	0xbe0e6a9f	-0.1390786
157	0x3d7a7377	0.061145272
158	0x3e563733	0.20919494
159	0x3d4ad970	0.04952377
160	0x3df57734	0.11985627
161	0xbdf2c805	-0.11854557
162	0x3e1db8d2	0.15402535
163	0x3d72620b	0.059175532
164	0x3c0de54a	0.008660624
165	0xbe091458	-0.13386667
166	0xbd8ad372	-0.06778611
167	0xbe5ac25d	-0.21363206
168	0xbdd60750	-0.104506135
169	0xbe07c93a	-0.13260356
170	0xbe17e70d	-0.14834233
171	0xbd5d7943	-0.054070722
172	0xbc84b567	-0.01619978
173	0x3d87f1ba	0.066379026
174	0xbdebf3b6	-0.115210935
175	0x3d8a0c63	0.06740644
176	0xbe220040	-0.15820408
177	0x3d650d7b	0.05592106
178	0x3d0ec25d	0.034853328
179	0xbdc2c683	-0.09510519
180	0xbb376b72	-0.0027987626
181	0x3dc1d6c3	0.09464791
182	0x3d69a6fa	0.057044007
183	0xbe302800	-0.17202759
184	0x3d988334	0.074469
185	0x3de45f8b	0.11151036
186	0xbd500ecf	-0.050795373
187	0xbe110aa8	-0.14164221
188	0xbd9c8d5f	-0.07644152
189	0x3d80db70	0.062918544
190	0x3d782eac	0.060591385
191	0x3e2a27ab	0.16616695
192	0xbd87ecf8	-0.06636995
193	0x3db1b66d	0.08677373
194	0x3e04b629	0.12960114
195	0x3e3345b9	0.17507066
196	0x3e3b2da6	0.18279132
197	0xbdab306e	-0.083588466
198	0x3e205a38	0.15659416
199	0x3e03b948	0.12863648
200	0x3e07f030	0.13275218
201	0x3dfd93ab	0.12381681
202	0xbdfddb6b	-0.12395366
203	0x3d6e69fb	0.05820654
204	0x3e265af3	0.16245632
205	0x3dfe9bc9	0.124320574
206	0xbde66724	-0.11250141
207	0xbe41d33e	-0.18928239
208	0xbe3e0156	-0.18555197
209	0xbd8f0a30	-0.06984365
210	0x3df77b9d	0.12084124
211	0x3d93f2ca	0.07224043
212	0x3d53b9f9	0.05169103
213	0xbd29733e	-0.04136967
214	0x3da7c9c0	0.08192778
215	0xbde9e86a	-0.114212826
216	0x3d27a7c9	0.040931497
217	0x3d828dc7	0.06374698
218	0x3e0ae099	0.1356224
219	0xbcdd4db1	-0.027014585
220	0x3db1be96	0.086789295
221	0x3e210b6a	0.1572701
222	0x3e4f11eb	0.20221679
223	0xbe46fd64	-0.19432598
224	0x3e1c05e5	0.15236624
225	0x3d4bc1c8	0.04974535
226	0xbe2bc6e6	-0.16775092
227	0xbcc25387	-0.02372147
228	0x3d4340ac	0.047669098
229	0xbde8fcd6	-0.1137635
230	0x3e2b3960	0.16721106
231	0x3e1204da	0.14259663
232	0x3e171afe	0.1475639
233	0xbdd5b877	-0.104355745
234	0x3d6f8d61	0.05848444
235	0x3e2a7a7c	0.16648287
236	0xbd056d5d	-0.032575
237	0x3e2c709c	0.16839832
238	0xbd8b97ef	-0.068160884
239	0xbe3ffda1	-0.18749095
240	0xbdec974a	-0.115522936
241	0x3d0eddbc	0.03487943
242	0x3d1f14e9	0.0388383
243	0x3dfc9193	0.123324536
244	0x3d7657b5	0.060142238
245	0x3ddab124	0.10678318
246	0x3db9115e	0.09036516
247	0x3d9664ca	0.07343443
248	0x3e510b95	0.20414574
249	0x3dd31bfb	0.10308071
250	0xbe2c4dfe	-0.16826627
251	0xbe4a7d6d	-0.19774409
252	0xbe1d8426	-0.15382442
253	0xbcc0e7cf	-0.023548035
254	0xbe034b1d	-0.12821622
255	0x3d57f30e	0.05272203

psi.0.bias f4 [128]
0	0x3d5c9e67	0.053862
1	0xbc90b12d	-0.017662609
2	0x3e1be2ea	0.1522328
3	0x3de2c161	0.1107204
4	0x3da3a32d	0.07990108
5	0xbdc43bd2	-0.09581722
6	0x3e0f571d	0.13998075
7	0x3e252bda	0.1613001
8	0x3d527370	0.05137962
9	0xbccb90b3	-0.024849271
10	0x3e584374	0.21119481
11	0x3c07ac4f	0.008280828
12	0x3e3d61b8	0.18494308
13	0xbe2da937	-0.16959082
14	0x3e2f72dd	0.1713366
15	0x3d685fd3	0.05673201
16	0x3df0ed7c	0.117640465
17	0x3e637d78	0.22215831
18	0xbdb95db2	-0.09051074
19	0xbd8d4632	-0.06898154
20	0x3e3be50f	0.18349098
21	0x3cb9ced9	0.02268164
22	0xbcdab9b0	-0.02669987
23	0x3dc0a8a8	0.094071686
24	0x3ddd0d5d	0.107935645
25	0x3e5c5de8	0.21520197
26	0xbe25e2e3	-0.16199832
27	0xbdc0688a	-0.09394939
28	0x3e21ba61	0.15793754
29	0xbdf2db4c	-0.11858234
30	0xbe2c7cbc	-0.16844457
31	0x3ddde1b9	0.10834069
32	0x3d747699	0.059683416
33	0x3d775851	0.06038696
34	0xbe1ef9de	-0.15525004
35	0xbe13e62b	-0.14443271
36	0xbd601ccd	-0.054714967
37	0xbbd4217a	-0.0064737173
38	0xbd66d723	-0.056357514
39	0xbddb18c6	-0.106980845
40	0xbdea78c3	-0.11448815
41	0x3e15d9ac	0.14633816
42	0x3c66d556	0.014088949
43	0xbe22c0a4	-0.15893799
44	0x3de80ac4	0.113301784
45	0xbd92cb70	-0.07167709
46	0x3e454bb8	0.19267166
47	0xbe26c4d5	-0.16286023
48	0x3dbadd84	0.09124282
49	0x3e11f66f	0.14254163
50	0x3e37e391	0.17957903
51	0x3dd6da14	0.10490814
52	0x3d99a007	0.07501226
53	0x3d68a24b	0.0567954
54	0xbe1f98cd	-0.15585633
55	0xbdbd20e6	-0.092347905
56	0x3d36f44c	0.044666573
57	0xbe2e3823	-0.17013602
58	0x3e5fe240	0.21863651
59	0xbdd98e2e	-0.10622822
60	0x3e2415a8	0.16023886
61	0xbbeb1c00	-0.0071749687
62	0x3d1d3823	0.038383614
63	0x3e01319f	0.12616585
64	0xbc48cd24	-0.012255941
65	0x3e3561e2	0.1771312
66	0x3e0923ea	0.13392606
67	0x3d93830f	0.07202732
68	0x3dc8a258	0.097965896
69	0x3d21a9e0	0.039468646
70	0x3e50b063	0.20379786
71	0xbcdb76fc	-0.026790135
72	0xbce07f85	-0.027404556
73	0xbe292859	-0.16519298
74	0x3d880666	0.066418454
75	0x3e2adc3f	0.1668558
76	0x3df31b69	0.118704624
77	0x3d1972ea	0.037463106
78	0xbdcdc941	-0.10048152
79	0x3e380b3a	0.17973033
80	0x3e35d064	0.17755276
81	0x3d45ac89	0.048260245
82	0x3ced6b90	0.028981954
83	0xb881cc20	-6.1892206e-05
84	0x3d3c96b1	0.046042148
85	0x3c595fd8	0.01326748
86	0xbdec4186	-0.11535935
87	0xbc8d17e9	-0.017223315
88	0xbe0926db	-0.13393728
89	0xbe027cc4	-0.12742907
90	0xbcc4a8d9	-0.024006294
91	0xbe321e32	-0.17394331
92	0xbe4069df	-0.18790387
93	0xbe420de8	-0.18950617
94	0x3c519661	0.012792201
95	0xbe32dce7	-0.1746708
96	0x3d3dd144	0.04634215
97	0xbe131144	-0.14362055
98	0xbe36127b	-0.17780487
99	0xbdbdeffc	-0.09274289
100	0x3e25bffc	0.16186517
101	0xbe3594c6	-0.17732534
102	0x3dc1b4a7	0.09458285
103	0x3e5357b4	0.20638925
104	0xbb1e64ba	-0.0024168924
105	0x3d8b9d76	0.06817143
106	0xbd073a4a	-0.033014573
107	0xbd698640	-0.057012796
108	0x3e35cc7c	0.17753786
109	0xbe21870e	-0.15774176
110	0x3d4c5c17	0.04989251
111	0xbde8cbd2	-0.11367001
112	0x3d91c47b	0.07117554
113	0x3d986b0c	0.074422926
114	0x3e5cf6c9	0.21578516
115	0x3de1baed	0.110219814
116	0x3dfb9281	0.12283803
117	0xbd2cc82f	-0.042183097
118	0x3d8beb92	0.06832041
119	0x3e27f71b	0.16402857
120	0x3d12807b	0.03576706
121	0x3da0e3ed	0.078559734
122	0xbdcf0595	-0.101084866
123	0x3e25740c	0.1615755
124	0x3da01627	0.07816725
125	0xbde2fa21	-0.110828646
126	0x3e2bd382	0.16779903
127	0x3e33ff9e	0.17577979

psi.2.weight f4 [128, 128]
0	0x3c1c1cee	0.009528382
1	0x3d547b7c	0.051875576
2	0x3df03d61	0.11730457
3	0x3d293728	0.041312367
4	0x3dbe7227	0.092991166
5	0x3d67f6ea	0.05663196
6	0xbd9166ef	-0.07099711
7	0x3dd9832a	0.10620721
8	0xbd512314	-0.051058844
9	0x3d1c384b	0.038139623
10	0xbcd1e067	-0.025619699
11	0x3c7ffc9e	0.0156241935
12	0xbd31159d	-0.043233503
13	0x3cae1e81	0.02125478
14	0x3d1b3b8f	0.037898596
15	0xbd9ab363	-0.075537466
16	0xbc9d4985	-0.019200096
17	0x3dd76bc5	0.10518602
18	0xbd5d2af8	-0.053996056
19	0xbd273903	-0.040825855
20	0xbd3a29b0	-0.045449913
21	0x3b4e48de	0.0031476538
22	0xbd79f205	-0.061021823
23	0xbd13caf6	-0.03608223
24	0x3db2ca3d	0.0872998
25	0x3dc09b68	0.094046414
26	0xbbe027c2	-0.006840677
27	0xbdd8afd5	-0.10580412
28	0xbd8ec793	-0.069716595
29	0x3da574a1	0.08078886
30	0xbcb4d09f	-0.022072135
31	0xbd875a9d	-0.0660908
32	0x3daacf4a	0.083403185
33	0x3cce0859	0.025150465
34	0x3c2931c8	0.01032681
35	0xbd88d3a2	-0.06680991
36	0x3a204bf1	0.0006114832
37	0xbd9559c0	-0.07292509
38	0x3d3bd79f	0.04585993
39	0xbc8c6c41	-0.017141463
40	0x3d89e2be	0.06732701
41	0x3db2298a	0.08699329
42	0xbd7da6de	-0.061926715
43	0xbc38855a	-0.011262262
44	0x3db2feca	0.087400034
45	0xbb1f93ee	-0.0024349648
46	0xbc20ca80	-0.009813905
47	0x3b0d196e	0.002153005
48	0x3dc8a5e2	0.09797265
49	0x3da470e3	0.08029344
50	0xbd08c073	-0.03338666
51	0x3d909289	0.07059199
52	0x3c69f284	0.014279012
53	0x3d044d7b	0.032300454
54	0xbcd4aa4c	-0.02596011
55	0xbbf8a1fd	-0.00758767
56	0x3d74bd47	0.05975082
57	0x3caf59d3	0.021405136
58	0xbd6942c4	-0.05694844
59	0x3c878679	0.016543614
60	0xbd0d4ae0	-0.034495234
61	0xbd910ebb	-0.07082888
62	0xbd58a01b	-0.052887063
63	0x3d7bc749	0.06146935
64	0xbd692fe2	-0.05693043
65	0xbda67860	-0.081284285
66	0xbc8eb589	-0.017420547
67	0x3d078c3f	0.033092733
68	0xbda8a4c5	-0.08234552
69	0x3d12bd4a	0.03582505
70	0xbbe67120	-0.0070325285
71	0xbd1363ed	-0.03598397
72	0xbce9ebbf	-0.028554795
73	0xbccc1ea7	-0.02491696
74	0xbb8d657c	-0.0043150764
75	0x3d537e4a	0.05163411
76	0xbc598853	-0.013277131
77	0x3d8158f0	0.063157916
78	0x3bdca4cc	0.0067335125
79	0xbd4aa2c8	-0.049471647
80	0x3da2633a	0.07929082
81	0x3d43bf1d	0.04778968
82	0xbd1bbdbb	-0.038022738
83	0x3dbbbbef	0.09166705
84	0xbb864cb5	-0.0040984997
85	0xbd6be48d	-0.05759101
86	0xbda5b501	-0.080911644
87	0x3c6ad2c0	0.014332473
88	0x3d6c51ef	0.057695325
89	0x3d960085	0.07324318
90	0xbd7381a7	-0.059449818
91	0xbc8d7707	-0.01726867
92	0x3c352345	0.011055772
93	0xbcedb14f	-0.029015211
94	0xbc9f9a7b	-0.019482842
95	0xbd6e7dba	-0.05822537
96	0x3b74058f	0.0037234758
97	0xbda61435	-0.08109323
98	0xbd4d2b95	-0.05009039
99	0xbdd8288e	-0.1055461
100	0xbc2503b0	-0.01007168
101	0xbd1df1bc	-0.038560614
102	0x3b86fdc6	0.0041196076
103	0xbcabe3c5	-0.020982632
104	0xbcc1de5e	-0.023665603
105	0xbd8a30ff	-0.067476265
106	0xbda56f0a	-0.0807782
107	0xbd3f1906	-0.046654724
108	0xbc27d520	-0.010243684
109	0xbcf33f5a	-0.029693294
110	0x3d47f687	0.04881909
111	0x3ce60990	0.028080732
112	0x3d7d0714	0.06177433
113	0xb93fee6c	-0.00018303999
114	0xbd0eda7f	-0.034876343
115	0xbd93ec20	-0.07222772
116	0x3de1ca74	0.11024943
117	0x3cc0abdd	0.02351945
118	0x3c1f891c	0.009737279
119	0xba90aa96	-0.0011037167
120	0x3c19b0c6	0.009380525
121	0xbcd5f5b6	-0.02611814
122	0xbc155e39	-0.009116703
123	0x3d6d0178	0.05786273
124	0xbd062fdb	-0.032760482
125	0xbd68b272	-0.056810804
126	0x3d8f1c27	0.069877915
127	0xbda03849	-0.078232355
128	0x3cdd324c	0.027001522
129	0xbc56b899	-0.013105535
130	0x3c8a95fa	0.016917218
131	0xbc38f599	-0.011289024
132	0xbd63358b	-0.055470984
133	0xbd8620ba	-0.06549211
134	0x3d1b88cb	0.037972253
135	0x3d019fac	0.031646416
136	0xbd69950c	-0.057026908
137	0xbdb4b37e	-0.08823298
138	0x3bfd3193	0.007726857
139	0xbd89fb7a	-0.067374185
140	0xbd5f3701	-0.054495815
141	0x3b196550	0.0023406334
142	0xbd6198f9	-0.055077527
143	0xbdc1b651	-0.09458602
144	0xbd6526d7	-0.055945244
145	0x3d8ea916	0.06965844
146	0xbc2ee79a	-0.010675335
147	0xbd2518bb	-0.040306788
148	0xbd33c0d3	-0.043885063
149	0xbc079b34	-0.008276749
150	0x3cea00e6	0.028564882
151	0x3d0702b0	0.032961547
152	0x3d40004a	0.046875276
153	0xbcd7d7eb	-0.026348075
154	0xbd06cbc3	-0.032909166
155	0xbc439ff6	-0.011939993
156	0x3c53ce57	0.012927613
157	0x3830c7a8	4.2147614e-05
158	0xbd5849a7	-0.052804615
159	0xbc27d03f	-0.010242521
160	0x3c8ba95f	0.017048536
161	0x3d83b6bd	0.06431339
162	0xbba29bb7	-0.0049624103
163	0x3d167f54	0.036742523
164	0xbd9142aa	-0.07092793
165	0xbdcb2ddb	-0.099208556
166	0x3bb8d0c4	0.005640121
167	0x3c9d4057	0.019195719
168	0xbcdcc301	-0.026948454
169	0x3cec93d5	0.028879086
170	0x3bd42e3a	0.006475237
171	0x3cc78b10	0.024358302
172	0x3d86df01	0.06585503
173	0x3d7cb537	0.061696257
174	0x3cdf282c	0.027240835
175	0x3d020a5b	0.031748157
176	0xbc93aac0	-0.018025756
177	0x3d961a29	0.073292084
178	0x3dc88921	0.0979178
179	0x3d6cc9ea	0.057809748
180	0xbcfbd983	-0.030743366
181	0xbd9653ca	-0.073402
182	0x3d855e26	0.06512098
183	0xbacfc55a	-0.0015851662
184	0xbd438efd	-0.047743786
185	0x39969a20	0.00028725062
186	0xbc93a9b8	-0.018025264
187	0xbd9372b9	-0.07199616
188	0x3c83c5ff	0.016085623
189	0xbdb26953	-0.08711495
190	0x3d5e9bdd	0.05434786
191	0xbb346ea2	-0.0027531763
192	0xbd357662	-0.04430235
193	0x3d2336fe	0.039847367
194	0xbd143b77	-0.036189523
195	0xbcad3c41	-0.021146895
196	0xbcb016e0	-0.021495283
197	0x3c6a24f0	0.014291033
198	0xbd936c3e	-0.0719838
199	0x3d168644	0.03674914
200	0xbd71982b	-0.05898301
201	0x3c18d2fe	0.009327648
202	0xbd3afbcf	-0.0456503
203	0xbd366b18	-0.044535726
204	0xbcab8386	-0.020936739
205	0x3cc1a46e	0.023637976
206	0x3d39d56f	0.04536956
207	0x3d44bc45	0.04803111
208	0x3d18adad	0.037275005
209	0x3dbcb30b	0.09213837
210	0xbd917c83	-0.07103827
211	0x3d2f9594	0.04286726
212	0xbd84fa09	-0.06493003
213	0x3d8dbf31	0.069212325
214	0x3d992217	0.07477205
215	0x3d5db7d5	0.054130394
216	0xbc1570f6	-0.00912117
217	0x3cc894b4	0.02448497
218	0xbd462c50	-0.048382103
219	0x3dbabc7a	0.0911798
220	0x3c25b799	0.010114574
221	0x3d028a15	0.031869967
222	0x3b9d8969	0.0048076403
223	0xbc9fc6d5	-0.01950399
224	0x3d4c6e5c	0.049909934
225	0xbd49b856	-0.049248062
226	0x3d942b9f	0.072348826
227	0x3d05581c	0.03255473
228	0xbd2b5f4f	-0.04183894
229	0x3daf8b10	0.08571446
230	0x3c14c506	0.009080177
231	0x3d81f3a0	0.06345296
232	0xbdab2e7f	-0.08358478
233	0xbd8bd785	-0.068282165
234	0x3d421bb9	0.04738972
235	0x3bfc8cfe	0.0077072373
236	0x3d415cc7	0.04720762
237	0xbc9d2bfd	-0.019186014
238	0xbd7bc9bb	-0.061471682
239	0x3c8795db	0.016550949
240	0xbbefff16	-0.00732411
241	0xbd96ae70	-0.0735749
242	0xbdc5be0b	-0.096553884
243	0x3c9ed2c1	0.019387605
244	0xbcc5d3f9	-0.024148928
245	0xbcf5b4e7	-0.029993488
246	0xbd59931b	-0.053118806
247	0x3d79f9eb	0.061029356
248	0xbd952d42	-0.07284023
249	0x3cbee123	0.023300713
250	0x3d845cdc	0.06463024
251	0xbdbfc067	-0.0936287
252	0x3d6294a4	0.055317536
253	0xbbe9bcbd	-0.007133095
254	0xbdc98ce6	-0.09841327
255	0xbd5afe0c	-0.053464934
