weight_checkpoint_2022-4-4_21-56-58_Rk5IkR0nGTaZCQo3bbm0.pt (torch, 125375 bytes, 15 tensors)

phi.0.weight f4 [32, 25]
00000000: acaf ee3c cfec f13d 5042 75bb 930c 5c3e
00000010: 5261 083e be91 503d fa64 283e 66d0 94bd
00000020: 421b 80bc 18ed 293e a561 ba3d 0bda c7bd
00000030: 350a 06bd 103d 1a3e de2b 6b3b 377b 563d
00000040: 1e89 173e 457c 333e 88a7 45be 5f0b 253e
00000050: 5fe7 0dbc 07c1 653e 4c75 253e f335 c43c
00000060: 51bd e8bb 7e91 e1bd c957 853d ca68 0bbe
00000070: 674a fc3d 8b90 55be 14a1 18be cf0a c1bc
00000080: 4995 2a3d 2c4e 2cbe b2f6 b13d 16da 293c
00000090: e45a 83bd 88a3 f03a 7bd0 4d3e d2cc 29bb
000000a0: e7b1 1bbd 1946 16be 8952 cabc 3add ef3c
000000b0: aa97 2e3e a510 ba3d 231e a7bd da0a 2c3e
000000c0: a5f6 263e b0ae 2abe 8e79 1bbe e439 28be
000000d0: 1311 4d3e 23a8 063c e6ee febd 483e 933d
000000e0: a77f 31be 013e 853d ddf7 6cbd a006 13be
000000f0: c66d 7b3d 6646 18be e403 5cbd cb5f 9cbd
00000100: a742 363e b27f f3bd 8a6d 8b3d 4f44 2cbe
00000110: dfdf 023e 99fa 533d 7e02 403e 623a 363e
00000120: 0b0c de3b 3ccf 173d e794 febd 01d2 dfbd
00000130: 8baf c8bd 98af 1fbc d0ca 04bc 158e 233e
00000140: 0a66 8fbc b103 91bd 47b5 abbc 3593 e0bd
00000150: b385 cebd 7de2 3c3d 6354 5d3e 745b 38be
00000160: 395f 003e dde3 b4bd 47e7 82bc 16df 903d
00000170: b87d beb7 2b0d 283d 9728 453e 55fc 403e
00000180: 8af2 cd3d d3ba 463d 0f0a a7bc c89d 9f3d
00000190: 4b98 b73d cb72 203e c7b7 13be 73a6 dfbd
000001a0: 54dc ad3d 204f 7e3d 848e cc3d 0663 35be
000001b0: 0265 c5bc cd4b dabd 34f6 c23d 9c08 cd3d
000001c0: 169e e73d 323a d93d 690e fb3d e5c2 363e
000001d0: fda1 af3c b574 173e ccaf 563d 988d 133e
000001e0: 80ad 0bbe 49cc e0bd 369a 193e 792f 7a3d
000001f0: 21a3 bf3d 4429 a03c 277c 50be ac0b 113e
00000200: 66fc 54bd b87e a33c c936 97bd ed5e 2d3e
00000210: f1ab d63d b6ea ae3d 6bc8 af3d f27c 293e
00000220: 7b77 14be 2da5 3cbd 7c62 153d ac76 a4bd
00000230: cc00 1c3e 73e7 cdbd 1819 b4bd d44a 173e
00000240: dec2 103d cc66 bcbd d117 6c3d dadc 9ebc
00000250: c9f7 163e 9550 333d 2318 2c3d bd76 b1bd
00000260: 7666 91bc c467 fbbd 93a4 23be 94d3 84bb
00000270: 13ce 1d3c bf68 11bd 4927 35be 8794 fdbc
00000280: 20be da3b c09c 1fbd 01a7 94bd 0f83 30be
00000290: ca34 b43d b921 b0bc d816 12be 7e25 08bc
000002a0: e4ef a53d b8ed 24be 5432 223e e85f 623d
000002b0: fd7c cdbd 2028 4c3e 37c1 053e 3e00 623d
000002c0: eabb ff3d ff88 4e3e 0fbd 4cbe 6446 4a3b
000002d0: 57e3 1abe 0e0c 553e 2414 50bd a857 2fbd
000002e0: 5b0e 053e a316 943d 4a45 d73c d5ce 2cbe
000002f0: 82f5 64bc a805 0d3e b593 043d 764c 22be
00000300: 3205 39be abcf 103d 79e3 d13d 6238 a13d
00000310: f03f 8c3d ee5d 5e3d 8eee 89bd 4656 423e
00000320: 085a ddbc 0ee3 873c b2cc 13be f209 76bd
00000330: 07c3 d2bd 0e90 5b3a bd21 9a3d 58db 13be
00000340: f534 8e3d de99 c2bd 83e8 9e3d b30a 8a3d
00000350: 457a 5dbe 8417 e6bc b4c8 103e f373 5c3e
00000360: cbb8 f9bc 680f 213e 5693 593d 9bf6 363e
00000370: 6039 0cbd 3556 513e afd8 32be a84c cb3d
00000380: 6c03 4bbe bf82 083e 94f3 08bd 330e 0dbe
00000390: bbc8 04be 1ee2 8d3c d0fc 47be 823c 2f3e
000003a0: d87a 1dbe 65d4 d0bc 984e b1bd 9eda 31bc
000003b0: ac31 043e 6a83 18be 286b e93d e158 02be
000003c0: f412 ffbc 8b60 1ebd dde6 cc3d 82b3 02be
000003d0: 4f16 053e 7d0f 2abc 187d 0abe 83cc 0fbe
000003e0: e0ac b4bd 2b4a 04be 4b66 3bbe 4c07 27bd
000003f0: 2fbe 943d a8e7 0bbe 5642 bfbd b0ee f53c
0.029136501 0.11812746 -0.0037423559 0.21489172 0.13318375 0.05092024 0.1644477 -0.07266311
-0.015637998 0.1659435 0.091006555 -0.09758385 -0.032724578 0.15062356 0.0035884301 0.0523636
0.147984 0.17527874 -0.1930219 0.16117619 -0.00866112 0.22436915 0.16158026 0.023951506
-0.0071026464 -0.110140786 0.06510884 -0.13614193 0.123188786 -0.2085592 -0.14905196 -0.023564724
0.041646276 -0.16826695 0.086896315 0.010366937 -0.064138204 0.0018359283 0.2009906 -0.0025909436
-0.038011458 -0.14675178 -0.024697559 0.029280294 0.17050043 0.09085206 -0.08160045 0.16801015
0.16305025 -0.166682 -0.15183088 -0.16428334 0.20026045 0.008218798 -0.1244791 0.071896136
-0.17333852 0.06505967 -0.05785357 -0.14357996 0.061383985 -0.14870605 -0.053714648 -0.076354586
0.17798863 -0.1188959 0.06808002 -0.16822933 0.12780713 0.05175266 0.1875095 0.17795709
0.006776338 0.03706287 -0.124307446 -0.10928727 -0.09799107 -0.009746455 -0.008104995 0.15972169
-0.01750471 -0.07080782 -0.020960463 -0.109655775 -0.10084095 0.046114434 0.21614222 -0.18003637
0.12536325 -0.08832524 -0.015979422 0.070738 -2.2708307e-05 0.041028183 0.19253765 0.18846257
0.10056026 0.048518013 -0.020390538 0.07793766 0.089645945 0.1566879 -0.14425574 -0.109204195
0.0848929 0.06208718 0.0998812 -0.17713556 -0.024096016 -0.10658989 0.09519616 0.10011408
0.113094494 0.10606803 0.12258608 0.17847784 0.021439547 0.14790614 0.052413747 0.14409482
-0.13640404 -0.10976464 0.15000233 0.06108043 0.09357286 0.019550927 -0.2035986 0.14164609
-0.05199852 0.019957885 -0.07383496 0.16930743 0.10482014 0.08540861 0.085831486 0.16551569
-0.14498703 -0.04605596 0.036470875 -0.08030447 0.15234679 -0.10053911 -0.08793849 0.14774638
0.03534209 -0.091992944 0.0576399 -0.01939242 0.1474296 0.04377802 0.042015206 -0.08665226
-0.017749052 -0.12275651 -0.15980749 -0.0040535424 0.009631651 -0.035500284 -0.17690767 -0.030954612
0.0066754967 -0.038967848 -0.07258416 -0.17237495 0.08799131 -0.021500455 -0.14266527 -0.00830972
0.08102396 -0.16106308 0.15839511 0.055267245 -0.10033605 0.19937181 0.13061987 0.055176012
0.12487014 0.20169447 -0.19993995 0.003086471 -0.15125786 0.2080538 -0.050800458 -0.042808205
0.12993757 0.0723088 0.026278157 -0.16875775 -0.013974549 0.13771689 0.032367427 -0.1584948
-0.18068388 0.035354298 0.10248465 0.07872082 0.068481326 0.054288797 -0.06734954 0.18978223
-0.02702047 0.01658776 -0.14433554 -0.06006808 -0.10291105 0.0008375653 0.07525966 -0.14439142
0.069436945 -0.09502004 0.07759192 0.06740322 -0.21628673 -0.028087385 0.14139062 0.21528606
-0.030483624 0.15728533 0.053119026 0.1786751 -0.034234405 0.20443042 -0.1746547 0.099267304
-0.19825524 0.13331126 -0.03343542 -0.13774948 -0.12967198 0.017319735 -0.19530034 0.17112926
-0.15378892 -0.025491903 -0.08657569 -0.010855345 0.12909573 -0.1489388 0.113973916 -0.12729217
-0.031136967 -0.03866629 0.10004971 -0.1276379 0.12996791 -0.010379669 -0.13524282 -0.14042859
-0.08822036 -0.12918918 -0.1830074 -0.040778443 0.07262837 -0.13662589 -0.093388245 0.030021042

phi.0.bias f4 [32]
00000000: adb5 ba3d 1ded 203e 51a5 d03d 6f11 ccbc
00000010: e7a7 a73d f71a 133e bb3e 8b3c a3ab 4ebd
00000020: 97a3 ec3d 8344 2fbe eed4 33be 6085 373d
00000030: f69b 2cbd 95bb 533d 1c85 8dbc 8b2a 213e
00000040: d0cd ff3d cb72 a5bc cc04 583e 1780 4d3e
00000050: c8ce 153e fa23 34be c8db 9ebd d0e3 bcba
00000060: 8c04 2abd bdea dcbd 98b5 b5bd 250c 14be
00000070: 5358 00bc ef75 1f3e f32b 383e bd45 76bd
0.09116683 0.15715452 0.101877816 -0.024910657 0.08186322 0.14365755 0.016997686 -0.050456654
0.1155464 -0.17115979 -0.17561695 0.04480493 -0.042140923 0.051692564 -0.017275386 0.15738885
0.124904275 -0.02019634 0.2109558 0.20068394 0.14629662 -0.17591849 -0.07756764 -0.0014411155
-0.041508242 -0.1078696 -0.08872527 -0.14457758 -0.007833558 0.15572332 0.17985515 -0.0601251

phi.2.weight f4 [32, 32]
00000000: c0ae 0bbe 0696 5bbd ac35 1c3e b71e 503d
00000010: 1533 4e3d eedd cf3d 4481 b4bd 7d0e 273d
00000020: d2da ba3c e975 65bc 9075 39bd 362f 6f3d
00000030: 7a4f 263e 63a7 0dbd a98b 2f3e 1dce f6bc
00000040: 8c30 6abc 685e 42bc 13f6 483e 4404 afbd
00000050: b6ad 413e c0b2 13be c30a 123d 953a 0a3e
00000060: 213c 453e 8331 ebbd d083 0e3c 75f2 99bd
00000070: 84be 023b b71e 843c a904 ab3d 6ab5 213e
00000080: b6eb 1cbe 99bc 103e 0556 25be 900d 81bd
00000090: 2e99 15be 65c4 e8bc 5568 b9bd f06e 13be
000000a0: 73ce cbbc e382 b6bd 9706 633d 7cf3 aabd
000000b0: b8b0 263e e22a db3d 6226 393e 9448 02be
000000c0: c537 2f3e baca 9e3d 21c8 013e 6576 2a3e
000000d0: 669f d8bc 9ea1 24bd 7b6b 033e 2ed4 073e
000000e0: 30ea fc3d c41b 853d 71fd bcbd 6f62 983c
000000f0: db76 12be ad6f 6e3d c2b8 14be c3ca d9bd
00000100: 1f3c 2b3e 5852 48bd 3bad 813d f820 f9bd
00000110: a261 79bd d22e 2f3c a933 a1bd a3bc 9d3d
00000120: 62bd 2abd 48fa af3d ec55 a7bd 5bc1 043d
00000130: a6a6 1bbe b84d 02be 2aee f73c 01de 33bd
00000140: 7e1b f23d 8d79 f4bd 2c0d 93bd ed8d 0c3e
00000150: 18e9 c3bc 0d7d 1dbe 2eb3 54be e140 fb3d
00000160: 480d 03bd a88b 1dbe adc6 16bd 67b9 a33d
00000170: 943b 5b3d 2f2b 2ebe fe7e db3d 2151 abbb
00000180: 6dc9 963d e841 4e3e 09d4 223e 0f50 743d
00000190: 2305 0c3e d4de ffbc 7807 75bd f575 13bd
000001a0: 2d9b 3c3e cf59 5d3d a6b3 9d3c 1491 d6bd
000001b0: e575 3f3d d45e b0bd 2b1a d03d e69e 1a3e
000001c0: d46f e23d ec27 413d a29e 763d 9342 bbbd
000001d0: dd17 20be 99bd 13be 6017 0bbd 9090 ed3d
000001e0: 3458 c9bd a798 97bc 3041 083b 7a23 9cbd
000001f0: 2a51 4a3c 60c1 1cbb d99b 233e c39f 58bc
00000200: 58c9 11bc 6525 213e 0f29 133e 85bf 58bd
00000210: 514f 99bd 50b7 313e 170a c33d 36de 1abe
00000220: 9f3d 293e 581f b8bd 22bb d53d d6c7 d5bd
00000230: 8c9c 843c a046 33be 17e4 ddbc f169 dd3d
00000240: 437c 6c3d d867 1abe a5f2 ef3d 0f12 353d
00000250: 52e6 b8bc 289e 0f3e d2f2 d0bd b32d 23be
00000260: 2c75 77bd e19a 0a3e f8c6 c33d 8ee3 013d
00000270: 1aae d3bd d100 92bd e468 f4bd 743b 4a3e
00000280: 1150 473e 6ea7 5e3e 00ea f4bd 8919 443e
00000290: 19bd e1bd b99c 18be 0666 fdbd 1c62 63bb
000002a0: 6b6f 52bd fad2 063d 5c8a 953c a2ac 10bd
000002b0: e2b7 d63d d59c 99bd bc08 df3d 26a9 07bd
000002c0: 4a78 0a3e d358 96bd 6765 c13d 3b7d 29bd
000002d0: 99b9 91bd cb66 f2bc 18b7 973d 7b41 fd3d
000002e0: b1b8 983d 7e96 dfbc 8b2f 36bd f8e7 32bd
000002f0: 7901 593d b09b 3e3e 4fe6 53bd ddb8 303e
00000300: 4155 253e c007 c53d 3fa6 873d 6757 ea3b
00000310: 3aa6 3c3e 946d e8bc 0847 5cbd bd02 c8bd
00000320: a174 b3bd 6d2a fb3d c724 0ebe 0308 56bc
00000330: 1dd4 afbd f85d fbbd ef74 a6bd 8486 febd
00000340: cbdf 0cbc b285 2d3c e78c c2bc e15f 39bb
00000350: 9733 fb3d 1239 20be f343 183e df51 243d
00000360: 46e9 db3d 9075 eebc 8b6d 15be d32e 65bd
00000370: d39e 7dbd 0404 a9bc 0ea0 c33d d01a fcbd
00000380: cc7e 1a3d 93fe 0cbe 5230 533e 32cd b43d
00000390: 9ea4 71bd 834e d7bd 12f6 d4bd bd74 183e
000003a0: 912e 503d 4f4b 9a3d 8c10 03be ea57 e33c
000003b0: 01e4 423e 1570 45bd cb9d aa3d fe58 813d
000003c0: 01f0 af3d 6b7f 543e 5893 dbbd 1d94 34bd
000003d0: 6b31 5b3e fdff b5bc 2e8f ddbd e84d 1fbd
000003e0: 4be7 b7bc 089d 233e cde6 04be f3bb eebd
000003f0: a451 d03d c536 053e 83c9 09be d0d1 d93d
-0.1364088 -0.05360987 0.15254849 0.050810542 0.050341684 0.101497516 -0.08813718 0.0407853
0.02280942 -0.014005163 -0.045278132 0.058394633 0.16241255 -0.03458346 0.1714312 -0.03012758
-0.014293801 -0.0118633285 0.1962512 -0.085457355 0.18913922 -0.14423656 0.035654794 0.1349891
0.19261219 -0.11484053 0.008698419 -0.07516948 0.0019949982 0.016127927 0.08350498 0.1579186
-0.15324292 0.14134444 -0.16146095 -0.06301415 -0.14609215 -0.02841396 -0.09053103 -0.14397788
-0.024878716 -0.089116834 0.055426206 -0.08347222 0.1627835 0.107015386 0.18081048 -0.12722999
0.17111118 0.07753511 0.12674 0.16646726 -0.026443195 -0.040193193 0.1283397 0.13264534
0.12349355 0.064994365 -0.092280276 0.018601624 -0.14303152 0.05821197 -0.14523605 -0.10634377
0.16722153 -0.048906654 0.06331869 -0.121644914 -0.060884126 0.010692315 -0.078711815 0.07701995
-0.041684516 0.08592659 -0.08170685 0.03241096 -0.1520029 -0.1272496 0.030264933 -0.04391289
0.1182165 -0.119372465 -0.07180247 0.13726015 -0.023914859 -0.15379734 -0.20771477 0.12268234
-0.031995088 -0.15385306 -0.036810566 0.07994347 0.053523615 -0.1700866 0.10717581 -0.005228177
0.07362638 0.20142329 0.15901197 0.059646662 0.13673835 -0.031234182 -0.059821576 -0.036001164
0.1841857 0.054040726 0.019250702 -0.1047689 0.046743292 -0.08611837 0.10161241 0.15099677
0.11056486 0.047157213 0.060209878 -0.091435574 -0.15634103 -0.14427795 -0.03395784 0.11599839
-0.098312765 -0.018505407 0.0020790808 -0.07623954 0.012348453 -0.0023918971 0.1597742 -0.013221684
-0.008898102 0.15736921 0.14371131 -0.052917022 -0.074858315 0.17355084 0.09523409 -0.15123829
0.16527413 -0.08990353 0.104360834 -0.10438506 0.016187929 -0.1750741 -0.0270863 0.10811222
0.057735693 -0.15078676 0.11716203 0.044206675 -0.022570763 0.14025176 -0.10202564 -0.15935402
-0.06041448 0.13535644 0.09559435 0.031711154 -0.103359416 -0.07129062 -0.11934069 0.19749242
0.19464137 0.21743557 -0.119586945 0.19150366 -0.11022396 -0.14903535 -0.12372975 -0.003469593
-0.051375788 0.032916047 0.018254451 -0.035320885 0.104842916 -0.075006165 0.10890338 -0.033120297
0.13522449 -0.073411606 0.09443169 -0.041379195 -0.07115478 -0.029590031 0.07407969 0.12366005
0.07457102 -0.02729344 -0.044478934 -0.043678254 0.05297992 0.18614078 -0.05173331 0.1725802
0.16145803 0.09620619 0.06623506 0.0071515325 0.18422785 -0.028372563 -0.05377868 -0.09766147
-0.087624796 0.122639515 -0.13881217 -0.013063434 -0.08585379 -0.122737825 -0.08127772 -0.124280006
-0.008598278 0.0105909575 -0.023748828 -0.0028285908 0.12265699 -0.1564677 0.1486967 0.04011714
0.10737853 -0.029108793 -0.14592569 -0.05595286 -0.061919045 -0.020631798 0.095520124 -0.123098016
0.03771858 -0.13768987 0.20623901 0.088282004 -0.05899488 -0.10513022 -0.10398497 0.14888282
0.05082566 0.07533895 -0.12799281 0.027751882 0.19032289 -0.048202593 0.08330878 0.06315802
0.08590699 0.20751731 -0.10721463 -0.044086564 0.2140557 -0.022216791 -0.10818325 -0.038892657
-0.022449156 0.15977871 -0.12978669 -0.11656942 0.10171822 0.13009174 -0.13455777 0.10635722

phi.2.bias f4 [32]
00000000: acf6 10bd c591 9f3c 2fe9 8abd e17b 05be
00000010: 6e51 2f3e 0dd6 8c3d d15d c6bd 6d9c d4bd
00000020: 1785 9dbd d9ea aa3c a82e b6bd 6bd2 11bc
00000030: de63 df3d ab72 343e a0e4 c43d be61 bf3c
00000040: b85e 893d 3de9 c03d dcc8 b03c 5116 1d3e
00000050: fe8f 6a3d aca2 a1bb d3e0 abbd 8c62 66bc
00000060: 79fc 34be caad 353e 9893 3dbd caaf d03b
00000070: a979 a8bd 4ee9 263e 4f26 0b3e b3ca 0c3e
-0.035391495 0.019478688 -0.067827575 -0.13035537 0.17120907 0.068767644 -0.09685863 -0.10381398
-0.076914005 0.020863937 -0.08895618 -0.008900265 0.1090772 0.17621867 0.09613919 0.023362037
0.06707519 0.09419487 0.021580152 0.15340544 0.057266228 -0.004932722 -0.08392491 -0.014061581
-0.17674436 0.17742077 -0.046283334 0.006368612 -0.0822633 0.16299936 0.13588832 0.13749199

phi.4.weight f4 [28, 32]
00000000: 132d dc3d 52c3 5dba 0f45 22bd 3d90 30be
00000010: 7437 273c f021 fd3d 0279 023e c299 27be
00000020: 0bb0 b03d 9f71 c13c 91f0 d03d a154 04bc
00000030: afe9 cfbc 9118 68bd b095 17be cd2b 403d
00000040: 79e6 163e 1238 e2bd de28 aa3d 24f5 a83c
00000050: 3553 31be 8015 853d 0477 03bd 1456 25be
00000060: d66a 9f3d 76b4 813d 315b 333d 7b34 15bd
00000070: b630 733c 789b eabb 0fae ee3a a414 dbbc
00000080: d53b 543d c528 4a3e 874c ff3d cabc fdbb
00000090: 475c 073e 58a8 f4bc 9f1a 3abd 887f 1c3d
000000a0: 2563 afbd 89ef f73d 0f11 423e 77e8 b03d
000000b0: bfea 2ebd 44ac 5c3d 1f2a 183e d970 0dbe
000000c0: df2d 513e b1f3 533c 717e 8dbd 094f d13b
000000d0: 2e30 00be aa3d aebd db99 27be 4c8c bebd
000000e0: 2adb d9bd f477 533e 42a0 a63b d66b eebd
000000f0: 9c8e 133e 1a98 8fb9 775e 953c 7a9c b33d
00000100: 7846 64bd a617 b9bc a982 053e f478 26be
00000110: e88e 753d b105 44bd fe97 1abd 4aa4 29be
00000120: 5747 05bd 2661 93bc d938 18be a7de 4ebd
00000130: 4a9d c63d 8fef 153e c2fa b8bd 6ff7 bd3d
00000140: 5cfa ab3b c2eb 79bd 58f4 973d 4bd0 af3d
00000150: 8369 633c 9815 82bc 3f5a b13d 7d40 c5bd
00000160: de4b 0c3e 947f d13d 1ac6 12be b373 993d
00000170: b84c 513d 7816 d83d ef65 023d 66ba 45be
00000180: 0c03 373d c6ac 813c c358 f93d a171 0e3e
00000190: 0429 b73d 4047 11be 50b2 d5bd 875a 19be
000001a0: fa65 3d3d 2d6b 94bd 9168 d4bb 1f60 22be
000001b0: 18d0 183e 05e8 f9bd e81f e5bd d29a 06be
000001c0: d527 d93c d68a 2e3c f47e 3fbd 5f66 ff3d
000001d0: 13a0 aabd fb1d ac3a 1034 123e dc03 003c
000001e0: 0869 873d f470 89bd 21df debc 45ac 45be
000001f0: 8fdf 0e3d 761f bebc b59d 133e 129b 4cbd
00000200: 8527 80bd 099a 203e aed6 973d 1e35 be3d
00000210: 2cd1 843d 7a10 0e3e 3405 c9bd 01ce e4bd
00000220: 477d ecbc 2009 50bd 7733 b5bc 0765 d23d
00000230: 7370 6fbd ebca 5ebd 7d45 033c 8b39 233a
00000240: 9f18 94bd a932 12be 4799 86bd 1797 313e
00000250: ac13 8e3d 9355 673d 68b9 c8bd a360 06be
00000260: 23fd 12bd fc65 233e 878a c5bd 4a4c 753d
00000270: 5a62 03be a1b0 a3bd 1cbe 1a3e 1822 0bbe
00000280: 736c 073e 19bf 5a3d 96ef 88bd fd82 81bd
00000290: a908 363e 70c9 b33c b5cd 533e 8f5e 323e
000002a0: bb9d 0ebe 5210 d53d f771 08be d30d e2bd
000002b0: 25c0 e03d 8cbc 443e ac11 d9bc cd93 79bc
000002c0: c961 053e 8983 03bd 9cbe cabb da89 4b3e
000002d0: 2077 e23c 4fa3 1a3e ab68 193e d215 2dbd
000002e0: dffd b1bc 9569 283e e2c5 7bbd 910f b43d
000002f0: 671d 023e 4cf8 8fbd 0d24 533e 331d eabd
00000300: 2067 583d 5efa e4bd fe1c f23d e4ed 103e
00000310: 9e50 243d a0e7 213e e3a8 f53d 898a 40be
00000320: b0b3 e8bd 8367 08be f85e d53d ef11 3dbe
00000330: 476f d2bd 8552 9b3d 2da3 02be 733c 493d
00000340: 0d1e 65bd f4f2 893d 8d26 cb3d fc3b 9e3d
00000350: 0024 8cbd d5e4 263d 46f7 9abc d770 2fbe
00000360: 8a28 6d3c f01d 2dbe 5824 f5bc 965b d2bd
00000370: 5d68 54bd bf9b 6c3d 9d47 bd3d 2828 833d
00000380: a547 82bc ce1c d63d 4c62 2f3e f6ca cabd
00000390: a781 0bbe 9e23 29be 773d a5bc 4847 12be
000003a0: 02b8 10bd ca52 01be 0b0f 483d b7cd 10bd
000003b0: 4640 24be 37d0 2f3e dff5 16be 9298 e3bd
000003c0: 6eaa 55bd 2d9d 8f3c d2bd d93d 8da3 5a3d
000003d0: cb85 1a3e ba2e 92bd a31b 1a3e f46e 53bd
000003e0: cc2f f2bd aa71 ae3c 2ed5 3a3c e2dc 093d
000003f0: 0f20 113e 06ae a2bd 7694 aabd 4f67 1ebe
0.10750785 -0.0008459586 -0.03961664 -0.17242523 0.010206092 0.12359989 0.12741473 -0.16367248
0.086273275 0.02361375 0.102021344 -0.008076818 -0.025379984 -0.056664053 -0.14803195 0.04691677
0.14736356 -0.11045851 0.08308576 0.020624705 -0.17316897 0.064982414 -0.032095924 -0.16146117
0.07784049 0.06333248 0.04378814 -0.036427002 0.014843157 -0.0071596466 0.0018209832 -0.02674324
0.051814873 0.19742115 0.12465768 -0.0077434527 0.13218795 -0.029865429 -0.045435544 0.03820756
-0.08563832 0.121062346 0.1895182 0.08638089 -0.04270434 0.053875223 0.14859818 -0.13812579
0.20427655 0.0129365185 -0.069088824 0.0063875956 -0.12518379 -0.08507855 -0.16367285 -0.09304103
-0.10637505 0.20651227 0.005085022 -0.11641662 0.1440987 -0.0002738841 0.01823352 0.0877008
-0.055731267 -0.022594284 0.13038124 -0.16257077 0.05995074 -0.04785699 -0.037742607 -0.16566578
-0.032538738 -0.01799066 -0.14865436 -0.050505307 0.09697969 0.14642166 -0.09032203 0.0927571
0.005248351 -0.06101585 0.07419652 0.085846506 0.013880136 -0.015879437 0.08659791 -0.09631441
0.13700816 0.10229412 -0.14333382 0.07492771 0.051098555 0.105511606 0.031835493 -0.19309387
0.04468064 0.015829455 0.12175133 0.13910533 0.0894337 -0.14187336 -0.10434401 -0.1497594
0.04623983 -0.07247005 -0.006482192 -0.1585698 0.14923131 -0.12202457 -0.11187726 -0.13144997
0.026508251 0.010653218 -0.04675193 0.124706976 -0.08331313 0.0013131493 0.14277673 0.00781342
0.0661183 -0.06710997 -0.027206006 -0.19303997 0.03488117 -0.023208361 0.14415629 -0.049952574
-0.06257538 0.1568376 0.07413994 0.09287475 0.06485209 0.13873473 -0.098154455 -0.111721046
-0.02886833 -0.050789952 -0.022119267 0.10273176 -0.05845685 -0.054392736 0.008012173 0.0006226531
-0.072312586 -0.14277138 -0.06572204 0.17342792 0.06937346 0.056478094 -0.098009884 -0.13122801
-0.03588594 0.15956873 -0.096455626 0.059887208 -0.12830487 -0.07992674 0.15111583 -0.13587224
0.13224964 0.0534049 -0.066863224 -0.06323812 0.17776741 0.021946639 0.2068394 0.17418884
-0.13927357 0.104035035 -0.13324724 -0.11037793 0.10974149 0.1921255 -0.026497684 -0.015232992
0.13025583 -0.032107864 -0.006187273 0.19876805 0.027644694 0.1510136 0.14981334 -0.042257138
-0.0217275 0.16446526 -0.061468013 0.087920316 0.12706529 -0.07029781 0.20619221 -0.114313506
0.052832723 -0.11180566 0.11821936 0.14153248 0.040115945 0.15811014 0.11995103 -0.18802847
-0.11362398 -0.13320737 0.104185045 -0.18463872 -0.10275131 0.07584099 -0.12757559 0.049129914
-0.05593686 0.06735793 0.09919462 0.07726285 -0.06842804 0.040745575 -0.018916737 -0.17132889
0.014474997 -0.16905951 -0.029924557 -0.10271375 -0.05185734 0.05776572 0.09242175 0.064041436
-0.015903303 0.10454713 0.17127341 -0.09901993 -0.13623677 -0.16517493 -0.02017091 -0.14285004
-0.035331734 -0.12629238 0.04884247 -0.035352435 -0.16040143 0.17169271 -0.1474223 -0.11113085
-0.052164488 0.017531002 0.106319085 0.05337863 0.150901 -0.07137819 0.15049605 -0.051619485
-0.11825523 0.021294434 0.011403365 0.033657916 0.14172386 -0.079433486 -0.08329098 -0.15469097

phi.4.bias f4 [28]
00000000: fafa 023e aa57 e23d 8f15 9abd 9768 99bd
00000010: d216 51bd 107c 1e3e 4515 993d c0f2 383e
00000020: 003e 0c3e d1d8 30bc a93a dd3d 09c6 7fbd
00000030: dd92 573e 1e08 523e db97 4f3e cee4 093e
00000040: b2c7 1cbe 3f84 19bd 4125 0cbe f2d9 f03d
00000050: 6e28 e7bd b4c0 e4bd 6b24 f8bc cccf 313e
00000060: e24c 203e b3dc af3d eb1f 02bd abea 6ebd
0.12791052 0.11051877 -0.07523643 -0.07490652 -0.051047154 0.15477014 0.0747476 0.18061352
0.13695526 -0.010793881 0.10802204 -0.06244472 0.21052118 0.20510909 0.20272772 0.13466188
-0.15310553 -0.037479635 -0.13686086 0.1176032 -0.11287008 -0.11169568 -0.030290803 0.17364424
0.15654328 0.08587017 -0.03176872 -0.058329266

phi.6.weight f4 [25, 28]
00000000: 3629 cdbd b71f be3d 2735 163e b7dd bcbd
00000010: 964d 153e 9fb1 413d 0d5a 323e 0330 283e
00000020: abd7 983d 98a7 b23c bd73 923d 2b76 1bbe
00000030: 8ac2 483e 69a3 28be 1912 f1bd 0d8f c43d
00000040: bb21 d33d 406e 243d 8d5d 573e 0a10 98bd
00000050: a83a 17be 3783 40be be19 203e 11ef 393d
00000060: 364b 0e3e fdbc df3d 0b03 fe3d 1054 ad3d
00000070: e32a d53d 7606 d2bd ca77 28bd 804a 28be
00000080: 0a1a b0bd 745c 45bd 3e59 39be e568 053d
00000090: 02ba f8bd 91f4 10be 237c 273d 9080 643c
000000a0: 53b6 653d b81a f33d e5e6 9a3d 1061 30be
000000b0: 4395 d8bd b0c0 57bd 66f1 263e 5c30 53bd
000000c0: 6dd9 51be c7f8 30bd 5853 c4bd dab4 0d3e
000000d0: 32e3 cf3b 3b51 15be c563 b73b 5e5a d43d
000000e0: 8cf5 d23d 0141 2d3e 277d 2dbd 2bfb 003e
000000f0: 2c11 d43d eae1 fd3c ebe3 3dbe cd62 c4bc
00000100: 4fad 4f3d 2050 383e 7cf3 773c e831 bebd
00000110: 546a 9ebd ef39 01be a759 0fbe 410a 2abe
00000120: dfda 303e 97bd 1cbe 8f7c 9dbc 1964 ae3d
00000130: 8bdd 2d3d 961d 19bd 8272 b03d 9444 753d
00000140: 367a 58bc a220 dfbd 5fa6 30be 4c66 863d
00000150: 617c 09be e923 013d 57f9 013e 0252 46be
00000160: c799 483e cba1 fcbd d194 c03d c9e4 f53d
00000170: 4199 34bd 61be 623e a1eb 2dbe 91d5 72bd
00000180: 423d 093e 5362 7e3d 552b d03d 1423 533e
00000190: 7fe8 cebd 6986 88bb 1641 98bd 31de ce3d
000001a0: 1969 c93d 78b2 ecbb 343c 783d 8d36 d1bc
000001b0: 412a d0bb 654f 8d3d 05a9 033e e38d 363e
000001c0: a944 c7bb b9e4 e5bd 8ddc 58bc 1a68 823d
000001d0: c5e0 83bd 098e 89bc 20bc cf3d b7f0 4dbd
000001e0: c5b6 0bbe c87d cfbd 1f47 aebd e930 20be
000001f0: 2c17 333e 7af4 d9bd b412 ae3d 82d4 30be
00000200: d7a7 12be 15bf a83d f83c e9bc 05f8 fbbb
00000210: 5f6c 463e 719c 0c3e 1d34 763d 4950 22be
00000220: 00f0 5fbe c163 ea3d f025 be3d 8da9 063e
00000230: 0df7 21bd 91dc 8a3c 0599 cfbd 98d5 a03d
00000240: bf92 5a3d 3467 a5bd f046 303d aecc 03bd
00000250: 8373 1d3e 16b8 e63c 83e1 c23d c692 f13d
00000260: cc1a 1b3e 862e f43d ced1 16bc 9480 a53c
00000270: de70 00be 4f1c 11bd e4df 3a3e 7df1 81bd
00000280: ab78 c4bd b90e 433e ee0c 1cbe 7d11 443e
00000290: b0e7 1e3e 99ac 52bc df4b 74bb bd1d 1b3e
000002a0: 7e40 4e3d 799f 383e c74b f4bd 84b7 19bd
000002b0: 63ea e23d 861e 273e a2b3 0fbe c453 0abe
000002c0: 96e1 223e 9589 b4bd a0eb 9cbc 5ca6 f2bd
000002d0: f3d3 223e 08db fb3d 072c dcbc 75e3 0a3e
000002e0: d53f 833c 6b2f adbd 47a8 63bd 684b 25be
000002f0: 6e86 81bd 1cce 35be 4687 2f3e 3d44 65bd
00000300: cf1c a5bd 9be8 6bbd bdc7 853d 9607 31be
00000310: c8d0 b23a f76c 20be 0231 eb3d 4449 8f3d
00000320: fea4 f43d 8efe 4739 8405 a33c 0005 d53c
00000330: adcf 423c cf40 38be d1f9 c8bd 006b 653e
00000340: a24d 68be 21b9 2fbd 2e05 aabb 2c9c eabc
00000350: 72a0 1abe 98b7 03be 51aa 32be d9be d1bd
00000360: c764 25be bd9b 43bd 4b7e 433e 8519 5f3d
00000370: 0adb 06be 3d6b 153d b4f6 65bc 9d57 d1bd
00000380: 2502 dbbd bdd3 42be 9fd3 1c3d 7e98 eb3c
00000390: b541 bf3d 1a16 cf3d f70b dd3d d25e 44be
000003a0: c930 6c3d 1155 5cbe 79c3 d5bc 074a 043e
000003b0: d61a a3bd 7ca2 20be 57d3 d1bd ddb3 073e
000003c0: c178 1c3b 86cf 5a3d 7e4f 82bd c372 e23d
000003d0: 7a33 a7bd 6b45 283e 7cda 093e ecc0 17be
000003e0: 2ced 17bd 7ced 863d 6128 9d3c 05ed 353e
000003f0: fafd 20be 81ef d9bc d560 c63d f2aa f4bd
-0.10017626 0.09283393 0.14668714 -0.09221976 0.14580378 0.047288533 0.17417164 0.16424565
0.074630104 0.02180843 0.071509816 -0.15181796 0.19605461 -0.16468586 -0.1177103 0.09597597
0.10309168 0.040144205 0.2103178 -0.07424934 -0.1476847 -0.18800054 0.1563482 0.045394007
0.13895878 0.109247185 0.12402924 0.08463299 0.104085706 -0.102551386 -0.041129865 -0.1643467
-0.085987166 -0.048183873 -0.1810045 0.03257074 -0.12144853 -0.14155795 0.04088987 0.013946667
0.05608208 0.118703306 0.07563571 -0.17224526 -0.105753444 -0.052673995 0.16303024 -0.05155979
-0.20493098 -0.043206003 -0.09586209 0.1383852 0.0063442225 -0.14581768 0.0055966103 0.10368799
0.103007406 0.16919328 -0.042355683 0.12595813 0.10354838 0.030991513 -0.18543975 -0.023972893
0.05070239 0.17999315 0.015133735 -0.092868626 -0.07735124 -0.12619756 -0.13999043 -0.16605474
0.17270993 -0.15306698 -0.019224433 0.08515186 0.042447608 -0.03738173 0.08615591 0.059879854
-0.013212731 -0.10894896 -0.17250966 0.0656248 -0.13426353 0.031528387 0.12692772 -0.19367221
0.19589911 -0.12335547 0.094033845 0.12006528 -0.044091467 0.22142936 -0.16984417 -0.059285704
0.13402274 0.062105488 0.10164515 0.2061885 -0.10102939 -0.0041664136 -0.07434289 0.101009734
0.09834499 -0.0072234236 0.06060429 -0.025538707 -0.0063526933 0.06899909 0.12857445 0.17827563
-0.006081183 -0.11225266 -0.013236177 0.06367512 -0.06439356 -0.01679136 0.10143304 -0.05027839
-0.1364394 -0.10131413 -0.08509659 -0.15643658 0.17489308 -0.10642333 0.08499661 -0.17268565
-0.14321838 0.08239571 -0.028471455 -0.0076894783 0.19377278 0.13731553 0.060108293 -0.15850939
-0.21868896 0.11444808 0.0928458 0.13150616 -0.039542247 0.016950877 -0.10136608 0.0785324
0.053362604 -0.08076325 0.0430364 -0.03217762 0.15376095 0.02816395 0.09515669 0.11795573
0.15146941 0.11922936 -0.009205295 0.020202912 -0.12543055 -0.035427388 0.1824947 -0.06344888
-0.09593328 0.19048585 -0.15239307 0.19147296 0.1551807 -0.012858533 -0.0037276668 0.15148063
0.050354473 0.18029584 -0.11928516 -0.03752853 0.11079862 0.16320238 -0.14033368 -0.13508517
0.15906367 -0.08815304 -0.019155324 -0.11848137 0.15901165 0.12297636 -0.026876463 0.1356333
0.016021648 -0.0845631 -0.055580404 -0.16142046 -0.063244686 -0.17754406 0.17141446 -0.05597328
-0.080621354 -0.057594877 0.06532238 -0.1728805 0.0013642544 -0.15666567 0.11483957 0.06996396
0.11945532 0.00019072948 0.019900091 0.02600336 0.011890334 -0.17993473 -0.09813274 0.22404099
-0.22685865 -0.042901162 -0.0051886057 -0.028638922 -0.15100268 -0.12863004 -0.17447783 -0.102414794
-0.16151725 -0.047755945 0.19091146 0.054467697 -0.13169494 0.036479224 -0.014035869 -0.10221789
-0.106937684 -0.19026084 0.038287755 0.028759237 0.093387045 0.101116374 0.10793298 -0.19176796
0.057663713 -0.21516825 -0.026094185 0.12918864 -0.07964103 -0.15686983 -0.10245388 0.13252206
0.0023875686 0.053420566 -0.06362818 0.11057045 -0.08164115 0.16432731 0.13462251 -0.14819688
-0.03709142 0.06588265 0.019184293 0.17766197 -0.15721884 -0.026603462 0.09686438 -0.11946668

phi.6.bias f4 [25]
00000000: e7a6 e13d 4cef 1bbe e261 053b f334 623d
00000010: 8d63 72bd 00db e93d ea72 453e abd7 22be
00000020: 6505 adbc 0be7 c13d e773 30be 5a4b 173d
00000030: 3994 c4bd 0b15 d13c 920a eebc d9a4 1fbe
00000040: e943 f8bb ff4b 94bd 36c3 413c c2e3 c13d
00000050: 5d14 e6bd 39bf fcbc 9f74 03be bfcb 01be
00000060: 91a1 ba3d
0.11018162 -0.15228003 0.0020352532 0.055226278 -0.05917697 0.11418724 0.19282117 -0.15902583
-0.021120736 0.09467896 -0.17231713 0.036937095 -0.09598584 0.02552273 -0.029057775 -0.15590228
-0.007576455 -0.072410576 0.011826327 0.094672695 -0.11234353 -0.0308529 -0.12837456 -0.12675379
0.091128476

psi.0.weight f4 [128, 26]
00000000: 4aaf f73d 003b ff3d 4936 c43d f836 97bd
00000010: 3352 50be daa2 aebb 3525 c6bd 6ca3 0abd
00000020: a1d5 db3d cf21 1e3d 1121 43be 44d9 ed3d
00000030: c995 16be 2db4 113c 8f95 4dbc 0331 e93d
00000040: 39d7 3ebe 448b 85bd 5929 13bd 839a 323e
00000050: c5f8 0d3e 633f bd3d a52e 8ebd 6c9f cd3d
00000060: ad6b 6fbe a389 9dbd 522a 773c f437 1cbd
00000070: c459 3dbd ceaf 33be e990 183d 478a a4bc
00000080: e535 933d 4968 2dbe 98e9 a23d 2c08 623d
00000090: c2df 8e3c 5fbe eb3d 4d0c 92bd 4624 9abd
000000a0: 53df e03d aa75 11be c123 31be 032a 53be
000000b0: c27c e73d c224 9d3d 70e3 cd3b 4b20 dfbd
000000c0: 6401 553e fa70 36bd 1b46 0dbe 3780 a1bd
000000d0: c62d c4bc 5a3a bd3c 8328 2f3e 007b a13d
000000e0: a854 64bd d48e f03b 97af 25be 435d c2bd
000000f0: 181a 123d 3a59 b23b 29ba 633d c145 f23d
00000100: d7cd ec3d d942 4bbc 8e0d 46bd c162 1fbe
00000110: d1de 5e3d ea47 14be 1256 963c a299 3fbe
00000120: b091 793d 1b9a 243b cf96 313d 2d04 1fbe
00000130: 8a61 5abe 7916 0cbe 9479 ed3d 2e0a f8bd
00000140: dd46 00be 9500 08be f2d8 263e baf2 3cbe
00000150: 58ea ed3d a69f 493d 158a 0cbe aab4 fc3d
00000160: 717c 313e 10e2 e23c da0a bbbc 8934 3dbe
00000170: 98b4 41bd aea5 20be 067a e43d 0d39 8b3d
00000180: 1c7e 203e 3d5f 243d 7d9f 52be 2f66 26bc
00000190: 3c44 563d 5325 d93d 92df 9bbd 2d52 b0bd
000001a0: 83e0 2a3e fa2f f5bd 9c00 4bbe ea20 84bd
000001b0: da94 a13c 5f88 49bd 2390 373e be24 f6bd
000001c0: 69a3 133e 9ba0 913d d6b0 f5ba 1dd9 21be
000001d0: ab54 febd a31e 10be dce0 5abe e0cb 823d
000001e0: f63b 31be a64a 1c3e 9882 fd3d e8bd 193d
000001f0: 837d 18bc 8427 e43c ca8d cdbd edb8 35be
00000200: cefd 14bd 5f8b 9b3d fc87 ccbc 3979 713b
00000210: 69ff eebd 3681 0c3e 7087 393e 228f 01be
00000220: 80ee a7bc 24d9 36be 9fd1 bbbd 50d7 003c
00000230: 487d 99bd 2522 0e3e f7e8 7e3c 6603 01be
00000240: f070 f13d 76ce c2bd 0212 1ebe c872 033e
00000250: 5d44 25bd b9ea 51bd 5d2c 4bbe 828b 1fbe
00000260: c348 b9bd 1eca 91bd ebd8 9f3d 88d1 c8bd
00000270: 902b 8f3d 12b7 8c3d b408 00be 52e5 dbbc
00000280: 207f 13be 4905 1fbd 1fdc 263d ed4d 9e3d
00000290: fb3f 11bd 114d 583d fc78 84bc 3b8e dfbc
000002a0: fa7e 453d 4aad 50be e383 4dbe 29a0 3dbe
000002b0: 228e 0fbe af07 f3bd 9e09 9abc 22c8 b03c
000002c0: da13 3abe 2908 103d 9915 32bd bb59 debd
000002d0: 24b0 71bb 2f37 07be 13ba 3d3d 74d4 22be
000002e0: fe52 38be 10ae f73d ede1 683d 12a9 dabd
000002f0: ec31 023d b2a0 073e aae0 023d 2724 183e
00000300: 9897 86bd 5bc1 af3d 1c5f cbbd c0cf 1cbc
00000310: acd0 8fbd 6dd4 1abe fd81 8d3d 8d48 ef3d
00000320: 5719 5e3e 42e6 b7bd 5335 34be fade 173e
00000330: 4f82 0ebe d94b 5ebc 4d7e 41be 700e f5bd
00000340: 3cbd 0b3e 03c6 3cbe 8513 e4bd e7cc 37bd
00000350: 249c 4dbe b9ab a8bd bcba 183e 6be7 f73b
00000360: 47c0 24bc 338c 223e 4822 d83d 251e c8bd
00000370: 88e3 97bd 59ee 9d3d 1622 0cbe 8661 bdbb
00000380: 8a88 dc3d 5a68 06be 668a 1f3b f1b7 19be
00000390: 9f07 753d ab7d 1d3e d360 ad3d bcd7 7dbd
000003a0: 6c7b 9abc b075 083e 6aa5 15be 40f1 44be
000003b0: 35b0 6a3d ad32 173e 7691 113c 44c9 913d
000003c0: fe7b 01be 8c14 59be 79f3 1b3e 794a b13d
000003d0: 59f7 27bd 1a2c f3bd ab70 bd3d 96da 60be
000003e0: dd70 5cbe 4de5 303e ba78 88bc 1650 e23c
000003f0: 74f2 e33d f367 3e3d 33b2 fd3d e140 513d
0.120939806 0.12462425 0.095806666 -0.07383531 -0.20343857 -0.005329472 -0.096750654 -0.033847257
0.10734106 0.03860646 -0.19055583 0.11613706 -0.14705576 0.008893055 -0.012547865 0.11386301
-0.18636788 -0.065207034 -0.035928104 0.17441754 0.1386443 0.09240606 -0.069424905 0.10040173
-0.23380919 -0.07692268 0.015085774 -0.0381393 -0.046228185 -0.17547533 0.037247572 -0.020085467
0.07188014 -0.16934313 0.07954711 0.055183575 0.01744068 0.1151092 -0.071312524 -0.0752645
0.10980096 -0.14205042 -0.17298795 -0.20621495 0.113030925 0.076730266 0.006283216 -0.10894831
0.20801312 -0.044541337 -0.13796274 -0.07885783 -0.023947608 0.023099113 0.17105298 0.078847885
-0.055744797 0.007341245 -0.16180263 -0.094904445 0.035669416 0.0054427655 0.055597458 0.11829711
0.11562698 -0.012406074 -0.04835277 -0.15565015 0.054411713 -0.14480558 0.018351588 -0.1871095
0.060929954 0.0025116268 0.043356713 -0.15528937 -0.2132627 -0.13680448 0.11595455 -0.121113166
-0.12527032 -0.13281472 0.16293696 -0.18451968 0.11616963 0.04922452 -0.13724549 0.123391464
0.17332627 0.027695686 -0.022832323 -0.18477072 -0.04729137 -0.15688202 0.111560866 0.06797991
0.15673107 0.04012989 -0.20568652 -0.010156198 0.052311167 0.10602822 -0.07611002 -0.08609424
0.16687207 -0.119720414 -0.19824451 -0.0645159 0.019724298 -0.04920232 0.17926078 -0.12018727
0.14417805 0.07110711 -0.0018744718 -0.15805478 -0.12418493 -0.14074187 -0.2137484 0.06386542
-0.1730803 0.15262851 0.123784244 0.037534624 -0.009307268 0.027850874 -0.1003681 -0.17746325
-0.03637486 0.07594942 -0.024967186 0.0036845936 -0.11669809 0.13721165 0.18118072 -0.12652257
-0.020499468 -0.1785627 -0.091708414 0.0078638345 -0.074945986 0.13880213 0.015558473 -0.12598953
0.11789119 -0.095120355 -0.15436557 0.12836754 -0.0403484 -0.05124924 -0.19841142 -0.15580562
-0.09047081 -0.07118629 0.07805046 -0.0980559 0.06990731 0.068708554 -0.1250332 -0.026842747
-0.14403963 -0.0388234 0.040737268 0.07729707 -0.035461407 0.05280787 -0.016170971 -0.0272895
0.048216797 -0.20378605 -0.20069842 -0.18518128 -0.14019063 -0.118667 -0.018803414 0.021579806
-0.18171635 0.035164032 -0.04347763 -0.108569585 -0.003687867 -0.13204645 0.046320032 -0.15901357
-0.18000409 0.12093747 0.056856085 -0.10676779 0.03178589 0.13244894 0.031952538 0.14857541
-0.06571883 0.085818015 -0.0993025 -0.009571016 -0.07022223 -0.15120097 0.06909559 0.1168376
0.21689354 -0.08979465 -0.17598467 0.14831153 -0.13916896 -0.013567888 -0.18895836 -0.11965644
0.13646406 -0.1843491 -0.111365356 -0.044873144 -0.20079094 -0.082358785 0.14914984 0.007565429
-0.010055608 0.15873794 0.10553414 -0.097713746 -0.07416445 0.07711477 -0.13684878 -0.005779448
0.1076823 -0.13125744 0.0024343967 -0.15011574 0.05982172 0.1537997 0.084657334 -0.06197332
-0.01885768 0.13326144 -0.14613882 -0.19232655 0.05729695 0.14765425 0.008884778 0.071184665
-0.12644956 -0.21199244 0.15229596 0.08656783 -0.041007373 -0.11873646 0.09250005 -0.21958384
-0.21527429 0.17274971 -0.01665913 0.027626079 0.11130229 0.046485852 0.123875044 0.051087264

psi.0.bias f4 [128]
00000000: 61e0 993b 70fb 01be 39ed 5abe 2274 6a3d
00000010: 6dbd 93bc b9c8 d93c c3e0 10bd b8ee 0b3e
00000020: 5aa6 cfbc 4333 4c3e 0d2a a0bd d518 5dbd
00000030: 8ccd 953c c60d c9bc e6d6 583e 0acc 4a3e
00000040: 2d12 533d 718d 6bbe 12dc 1ebe c9f4 41bd
00000050: 4fae 423d b76d b8bc 6598 37be 5c12 53be
00000060: 6f49 ad3d 1874 673e 1d2c 10be e530 8dbd
00000070: f30b 293e 1703 203e 31c5 353e 9634 433e
00000080: c9ef afbd 82c4 383e 5c6d 033e 427c 7abd
00000090: e6b2 783d 3e58 fdba 4499 dd3d 55b0 f13d
000000a0: 00d6 d6bd 58ca b4bd bdb1 34be 282d 0abd
000000b0: 68c8 32bd 3801 dd3d 3d49 983c fd91 1c3d
000000c0: d9bd 17be 2aa8 0bbd aba7 963c bbed f2bd
000000d0: 65c8 923d ca30 1a3d e40d 053d 2abc 493d
000000e0: 0b45 8c3c bf9c 713d 8411 1dbe 9f8e c6bd
000000f0: 914b edbc 8af2 753c 61be 193e af24 cd3c
00000100: 867f bbbd e4b7 01bd efa4 6cbe f71a 1bbe
00000110: 8042 4d3e 0c2b 54be 15f3 5bbe 2534 91bc
00000120: 52c3 963d 0d58 20bc 7bdb 2f3d bfbe 27be
00000130: 4cb2 363c 0e37 11bd 0382 b63d 74f0 3f3e
00000140: 1643 64be 5ac3 423e 1862 36be 7b1d 533d
00000150: e7c2 d63c 4a7c 313d e948 0d3e 442f 263e
00000160: fcc2 e33d 0e3d 2abe c052 023e 5526 a5bd
00000170: 2463 5b3e 6607 18be fab2 0fbd fc81 063c
00000180: 4c0b 05be 1f65 92bd 2b5b 483e 77ad 9ebc
00000190: 34aa 22be 03a0 33be 8c15 043e 989f 8c3c
000001a0: b4aa 87bd 41a8 063e c5d9 3e3e b971 20bb
000001b0: cc6d 38bc 39c1 1fbc cfbd 383d db23 42be
000001c0: b0d6 4a3e 5a4e a43d fdb8 483d 7c33 623d
000001d0: e543 9a3c 7c57 cf3d 888a a83d e105 bb3d
000001e0: 8025 5d3d 00db cbbc f2a3 cbbd 3cc1 6cbb
000001f0: 42b7 ebbc 287d 52bd 833c 14be 5d97 0c3e
0.0046959375 -0.12693572 -0.21379556 0.05723966 -0.018034661 0.02658497 -0.0353706 0.13665283
-0.025347877 0.1994143 -0.078205206 -0.05397876 0.018286489 -0.0245427 0.21175727 0.19804397
0.051531006 -0.23003174 -0.15513638 -0.047352586 0.047529515 -0.022513254 -0.17929228 -0.20612472
0.08461272 0.2260288 -0.14079328 -0.068940915 0.16508465 0.15626179 0.17751004 0.19063029
-0.08590657 0.18043712 0.12834686 -0.061153658 0.060717486 -0.0019328666 0.10820249 0.11801211
-0.10490036 -0.088276565 -0.17645927 -0.03373447 -0.043648154 0.10791248 0.01858961 0.038225163
-0.14818515 -0.03409592 0.018390497 -0.1186175 0.071671285 0.037644185 0.03248395 0.049251713
0.017122766 0.058987375 -0.15338713 -0.096951716 -0.028966697 0.015011439 0.1501403 0.025041906
-0.091551825 -0.031669512 -0.23109792 -0.15147005 0.20044899 -0.20719546 -0.21479447 -0.01772506
0.07361473 -0.009786618 0.042933922 -0.16381358 0.011150908 -0.035452895 0.089115165 0.1874407
-0.22291216 0.19019833 -0.17810857 0.051541787 0.026215984 0.043331422 0.13797344 0.16228968
0.11121175 -0.16624853 0.12726879 -0.08063952 0.21424538 -0.14846572 -0.035082795 0.008209702
-0.1299259 -0.071481936 0.19566028 -0.019369824 -0.1588524 -0.17541508 0.12898844 0.017165944
-0.06624356 0.13150121 0.1863776 -0.0024481846 -0.011256646 -0.009750658 0.04510289 -0.1895899
0.1980846 0.08022757 0.049004544 0.05522488 0.018831203 0.10124108 0.08229548 0.09131981
0.05399084 -0.0248847 -0.099433795 -0.003612592 -0.028773908 -0.05138889 -0.14476208 0.13729616

psi.2.weight f4 [128, 128]
00000000: 1b8f 4ebc 0f2c 233d b315 90bb 102e 8dba
00000010: 5bd0 3e3c bfcc 21bc dc0d aa3d 5076 883d
00000020: 43b9 aa3c 98d8 1e3d b549 e7bc 57be 30bd
00000030: 26d4 943d 2c1d 9b3d f276 e43c b656 36bd
00000040: 9350 05bc 3ca0 65bd 4201 553c 2eab 4cbd
00000050: 5ef0 213d 78fc 89bc bbef 1bbd f896 1abd
00000060: 8001 7bbd 3448 60bd cb72 853d eec1 643d
00000070: 439f 93bd 156f d0bd 6171 043d 9aaa af3c
00000080: cc3a c53c 7af1 893d d419 68bd 6bac a13d
00000090: 4f02 133d 7bfa a5bd 3fa8 fbbd 453a d73d
000000a0: 85ea 50bc 3930 b43c 3871 81bd 14d8 a5bd
000000b0: 75d0 e63c b3d2 84bd 6ed1 95bd a229 b2bc
000000c0: 1be3 d33c ed68 683d 0464 323d 8624 03bd
000000d0: ed83 babc 7115 673d 0998 f83c 76d1 033d
000000e0: e4fe 953c c78d 21bd 8636 cf3b 554d 803d
000000f0: b560 643d 9d95 41bb 2d58 76bc e216 a13d
00000100: d63f c13d b88f 013d 1f26 863c ed5a caba
00000110: 21ce 0e3d 51c9 033d 7da1 bdbd 9223 8c3c
00000120: ef0c c0bc fa56 843c e9fd 113d 9d9b 083d
00000130: c2c1 2fbb d0e7 043d 393a 7f3d 7634 e83d
00000140: d0bd 663d 12ba 8cbc 499d 9d3d 26b1 a13d
00000150: a59e dc3d 9023 fd3c 102d 613d 3b35 a2bd
00000160: 2454 8ebd 3033 c4bb 0404 2abd 6eac 253d
00000170: 698a 93bc e3d2 9dbd 99c5 30bd 88fe 56bd
00000180: db34 adbd 8f0e 0f3d 0e5e 903d 6c77 8ebd
00000190: f665 afbd 7077 12bd 3f41 90bd 38d0 8e3d
000001a0: 5d8c 4f3d 7a9b 2dbd 8bed 813d 3aa4 c3bb
000001b0: 6291 003d 69c6 46bd 527d a33b ea42 143d
000001c0: d4d7 423d 9e3b 1ebd 6d48 e83c b434 743d
000001d0: 233e 8d3b 4ed0 4b3c b65e 873c bc7b 933d
000001e0: f6bd 2fbd ab01 36bd f391 9c3d 5dd5 c43d
000001f0: 4933 f63d df00 533d 969b 3e3d 745d 8cbd
00000200: c406 4b3d 0f53 8abd 1dbf 70bd d6e3 fdbc
00000210: ff9b bd3c 22bb e5bb 7588 d63c 679a eabb
00000220: 15ae 973d c4f4 c8bd f441 d0bd a66b d93c
00000230: c4fd a53d fbe7 3a3b b56a 023c 4d38 a53d
00000240: fb88 d23c 1808 c3bc 9447 d2bc f97d c73c
00000250: 529b c13a 3dd6 1a3d c2f0 813d bd7d e63c
00000260: 3119 003e fba6 d63b 58e9 f73d 747e 163d
00000270: f4f4 5d3d b0b9 02bd d73b 66bc 95e5 3abc
00000280: 30c5 79bb dcb2 0a3c bd81 d73b dea3 93bd
00000290: 292e 11bd b143 033e b4e8 933d fc4e 103d
000002a0: 510b 3c3d 8d53 4cbc 57e2 7bbd 3649 3a3d
000002b0: 65b0 42bd 4736 bf3d 1406 dc3d 66a6 123d
000002c0: f175 df3d 7dcb e2ba 73e5 d83d d28b 4a3d
000002d0: 53b8 233d 96be 043e f081 90bd 0126 f2bd
000002e0: f1ac 3fbd f1f9 5ebc 9460 63bb 853a 94bc
000002f0: 7806 8c3d 4ab4 b8bd 1925 c03d 5682 d93d
00000300: fae3 d4bc 4180 11bd 518c d4bd 4350 efbd
00000310: b47c 5f3d e369 90bc 3586 5bbd 8e9d 2c3d
00000320: 8730 1fbc a1b9 bb3d 9b20 023d 850a 9b3d
00000330: 6919 9b3d 2eda 25bb ae77 9d3b ce36 bebd
00000340: 0567 7ebd c8e1 1dbd 1e55 b1bc b83f 063e
00000350: 600c cb3b d2b2 6fbd a658 50bc 59c3 c33d
00000360: 3efa 843d db6a 9d3c e7f6 873d 07bd 3b3d
00000370: 3ae1 f03d e220 6ebd 5c11 04bd 3e4f 483c
00000380: d43e b13c 0c6b 883d 9dde 44bd dec2 b43d
00000390: 95cb 113d a5cb fabd 1ef8 4dbd 9f56 dcbc
000003a0: f080 1abd 19d8 a63c 2a6e e13c 2397 fb3d
000003b0: 6282 b23d fbc9 913b b769 a33c c361 24bc
000003c0: 3e35 4ebc 6c03 ae3c 17a8 4f3d e6b8 d5bc
000003d0: 55f9 d83c 92dd 87bc 0d3a 3abd 278f 46bd
000003e0: f1e6 be3d 982c a53d 98d7 edbd 25d9 54bd
000003f0: ad8c 69bd 0662 023d 3852 103d 2629 ddbc
-0.012607361 0.03983694 -0.004397118 -0.0010771174 0.0116463555 -0.009875475 0.08303425 0.06663191
0.020840293 0.03878078 -0.028233388 -0.043150272 0.072670266 0.075739235 0.027888749 -0.044516288
-0.008136886 -0.056061015 0.013000788 -0.049967937 0.039535873 -0.01684402 -0.03807042 -0.03774163
-0.061280727 -0.05475636 0.06516036 0.05584901 -0.07208111 -0.10177437 0.03233469 0.021443654
0.024075888 0.06735511 -0.056665257 0.07894214 0.035890874 -0.08104416 -0.1228795 0.10509161
-0.012751226 0.02199565 -0.06320423 -0.08097854 0.028175572 -0.064855 -0.07315336 -0.021748368
0.025865128 0.05674069 0.043552414 -0.032017253 -0.022767985 0.056416932 0.030345934 0.03218218
0.018310018 -0.03944185 0.0063236384 0.0626475 0.05575629 -0.002953864 -0.015035671 0.07865693
0.09436004 0.0316312 0.0163756 -0.0015438475 0.03486455 0.032174412 -0.09259317 0.017106805
-0.023443667 0.016154755 0.03564254 0.03335153 -0.002681837 0.032447636 0.062311385 0.11338131
0.056333363 -0.017178569 0.076960154 0.078951165 0.107724465 0.030900747 0.054974616 -0.07920309
-0.06949642 -0.0059875473 -0.041507736 0.040447645 -0.018010335 -0.07706239 -0.043157194 -0.052488834
-0.08457347 0.034925994 0.070491895 -0.06956372 -0.085643694 -0.035758436 -0.07043695 0.06973308
0.05067097 -0.042384602 0.06344136 -0.005970505 0.031388648 -0.048529062 0.0049893046 0.036196627
0.04756911 -0.038631074 0.028354848 0.059620574 0.004310386 0.0124398 0.016524654 0.07201335
-0.04290577 -0.044435184 0.07645025 0.09611008 0.120215006 0.051514503 0.046535097 -0.06853762
0.049567 -0.067541234 -0.05877601 -0.03099243 0.023145674 -0.0070108334 0.026188115 -0.0071595195
0.074062504 -0.0981231 -0.101688296 0.026540589 0.081050426 0.0028519619 0.007960011 0.08067379
0.025700083 -0.02380757 -0.025668897 0.02435206 0.001477102 0.03780197 0.06344749 0.028136129
0.1250961 0.0065506673 0.12105054 0.03674169 0.054188684 -0.031915367 -0.014052353 -0.011407276
-0.0038111918 0.008465495 0.0065767453 -0.072089896 -0.035444412 0.12818791 0.07222119 0.035231575
0.04590923 -0.012471092 -0.06149515 0.045479976 -0.047531504 0.093365245 0.10743347 0.03580322
0.109111674 -0.0017303076 0.10590639 0.04944975 0.039970707 0.12963328 -0.070560336 -0.11823655
-0.04679579 -0.013609395 -0.0034695016 -0.01809431 0.06837171 -0.090187624 0.09382076 0.10620563
-0.025987614 -0.035522703 -0.10378326 -0.116852306 0.054562286 -0.017628616 -0.053594787 0.042142443
-0.00971616 0.09166265 0.031769376 0.07570366 0.07573206 -0.0025307047 0.0048055267 -0.09287797
-0.062109966 -0.0385454 -0.021647032 0.13110244 0.0061965436 -0.058520146 -0.012716448 0.09558744
0.064930424 0.019215992 0.0663889 0.045834567 0.117617086 -0.05813683 -0.032243118 0.012225924
0.021636404 0.066610426 -0.048063863 0.088262305 0.03559454 -0.12245873 -0.05028545 -0.026896773
-0.03772062 0.020366715 0.02751835 0.122846864 0.08716275 0.004449127 0.01994787 -0.010033074
-0.012585936 0.021241866 0.050697412 -0.026089143 0.026486078 -0.016585145 -0.045465518 -0.048476364
0.09321392 0.08065146 -0.11613387 -0.051964898 -0.057018925 0.031831764 0.03523466 -0.02699716

psi.2.bias f4 [128]
00000000: 9d95 3ebd 4164 56bd 1f4b bfbd eb76 42bd
00000010: f7c8 58bd ee2b d73c e3b7 a13c 7ea8 d6bc
00000020: fad2 70bd e9f7 b1bd eaaa 393c 5d1d 5bbd
00000030: ca4a 37bc fe63 a83d 4de5 ca3c 0d5b 6b3d
00000040: b329 453d a1a3 a4bd 45d0 bdbc d1b7 2f3d
00000050: 1df6 103c f7ca 41bd c26d 303d e94e b5bd
00000060: d43a 5e3d e36a d23d 488e 00be 76ae 2bbd
00000070: be5e 1cbd d071 7d3b b67e 17bd 4738 b8bc
00000080: d581 35bc 94aa 09bd be4c 0fbd db4c 613c
00000090: fb7a 233d 9c73 42bd b61e b3bc 34e9 71bb
000000a0: 83c1 15bd 5510 c03a 40c4 8fbc 2ce8 9a3d
000000b0: 5ac3 5f3d 28c2 09ba af38 dd3b 247a a93d
000000c0: 4013 b93c afbe a43c 5d07 903d a94d a63c
000000d0: ce54 443d 7015 3d3c fc40 d43c dc49 383d
000000e0: 7597 3c3c bc0b 7fbd 0724 723d 7b03 843d
000000f0: a21b 3f3d 1c44 2a3d 4daf 3a3d 60c2 c3bd
00000100: fcd6 12bc 0174 04bd 5e9a 58bc 652a 0cbc
00000110: b34b 943d b06f 793c b14c 7cbd 0f02 0f3d
00000120: ef20 24bd 50e9 363d 4a9a 15bd 35ed a43d
00000130: 6b75 abbc fba3 79bd ec5d 843d 0ee0 5e3c
00000140: 0aa0 153d e9da c93d 3bac 65bc ca68 7d3d
00000150: 679b 90bd 965f b2bc 8a07 1cbd 221b 873c
00000160: c996 a93c f1f3 fc3d a5ad 5f3d 3a63 563d
00000170: e8db 013e aee1 873d 4d70 963d 68da 383c
00000180: b4c0 a03d 3754 903d 3ac3 ea3c cf19 53bc
00000190: c547 aa3d 6503 e1bc 4e0c 0e3d 4b04 9d3d
000001a0: c3c4 d03c 5b8c 363d 21be 913d 7cf1 e1bd
000001b0: 2155 be3d a118 b13c c065 013c 06e0 debd
000001c0: 55c0 93bc f6ca 943d 25fa 483d caa2 2b3d
000001d0: dd58 28bd 12a8 b33c 6441 883d ce93 01bd
000001e0: 4cc5 943d 5aca 36bb 46b3 9abc 95d9 a13d
000001f0: 2c5e b1bc e24a 3bbd 7706 243d 2733 fb3c
-0.0465294 -0.052341703 -0.093405 -0.04747669 -0.05292603 0.026266064 0.019741004 -0.02620339
-0.058794953 -0.08689863 0.011332253 -0.0534948 -0.011187265 0.08222197 0.024767542 0.05745988
0.04813547 -0.08039022 -0.0231706 0.04289991 0.0088477405 -0.047312703 0.043073423 -0.088529415
0.05425532 0.10274293 -0.12554276 -0.041914426 -0.03817629 0.0038672574 -0.036986075 -0.022487773
-0.011078318 -0.03360994 -0.034985296 0.013751234 0.039912205 -0.047473535 -0.02186523 -0.0036912682
-0.0365615 0.0014653305 -0.017549634 0.075638145 0.05462966 -0.0005255067 0.006751142 0.082752496
0.022592187 0.020110456 0.070326544 0.020300703 0.04793244 0.011540756 0.025909893 0.044992313
0.01151072 -0.06226705 0.05911639 0.06445976 0.046657212 0.04156886 0.045577336 -0.095585585
-0.008962389 -0.032337192 -0.013220398 -0.0085550295 0.07241001 0.015224382 -0.061596576 0.034914073
-0.04007047 0.044656098 -0.036524095 0.08053056 -0.020930013 -0.0609474 0.06463227 0.0136032235
0.03652958 0.09856207 -0.014018114 0.061867513 -0.07060891 -0.021774095 -0.038093127 0.01649243
0.020701783 0.12351216 0.05460896 0.052340724 0.12681544 0.06634842 0.073456384 0.011282541
0.07849255 0.07047313 0.028657544 -0.012884571 0.0831447 -0.027467439 0.034679703 0.076668344
0.025484448 0.044567447 0.07116342 -0.110323876 0.09293581 0.02161819 0.007897794 -0.10882573
-0.018036047 0.07265274 0.04906668 0.041903295 -0.04110037 0.021930728 0.06653097 -0.0316351
0.07264194 -0.0027891607 -0.018884312 0.079028286 -0.02165135 -0.04572571 0.040045228 0.03066404
