weight_checkpoint_2022-4-4_21-54-57_xT1uvg3vdbCPRf0HlyN7.pt (torch, 125375 bytes, 15 tensors)

phi.0.weight f4 [32, 25]
0	0x3dd8630f	0.10565769
1	0x3e5b5da4	0.2142244
2	0xbd93a332	-0.072088614
3	0xbd6991b6	-0.057023726
4	0xbe0acf92	-0.13555744
5	0xbdb54234	-0.08850518
6	0x3dc87615	0.09788147
7	0x3e495000	0.19659424
8	0x3e055095	0.13019021
9	0xbda580ae	-0.08081184
10	0x3e07b9f3	0.13254528
11	0x3ddf2702	0.10896112
12	0xbde930f9	-0.11386294
13	0xbc05ad76	-0.008159032
14	0xbdb8158e	-0.08988486
15	0x3e34fcd0	0.17674565
16	0x3ba75d66	0.0051075695
17	0x3da06f1d	0.07833693
18	0xbe06cf45	-0.13165005
19	0x3c9f5415	0.019449273
20	0x3d5cc6c7	0.053900506
21	0xbe0013fb	-0.12507622
22	0xbdea607c	-0.11444184
23	0xbdb685d0	-0.089122415
24	0x3df2f30a	0.11862762
25	0xbd8a37d4	-0.067489296
26	0xbc6bac38	-0.014384322
27	0x3e5f8902	0.21829608
28	0xbdbb17c4	-0.09135392
29	0x3e6291da	0.2212595
30	0x3e37c7fd	0.17947383
31	0x3e37c68d	0.17946835
32	0x3d2254f8	0.039631814
33	0x3caed0fc	0.021339886
34	0x3d54217a	0.05178974
35	0x3d855d72	0.06511964
36	0xbe3f0265	-0.18653257
37	0x3e46d1f3	0.19416027
38	0x3c38a610	0.011270061
39	0x3d9ee1bf	0.077579014
40	0xbc3d5775	-0.011556496
41	0x3dc18743	0.09449627
42	0xbdb5c240	-0.08874941
43	0xbe4c7353	-0.19965868
44	0x3d7b6601	0.061376575
45	0x3caf16a4	0.0213731
46	0x3da14202	0.07873918
47	0x3dc85c0c	0.097831815
48	0x3d3e6db0	0.046491325
49	0x3d7627bd	0.06009649
50	0x3cf71408	0.030160919
51	0xbe34c172	-0.17651919
52	0xbe423e86	-0.18969163
53	0xbdf4285f	-0.11921763
54	0x3d1bd5dc	0.03804575
55	0xbd9d7e4b	-0.07690104
56	0xbb4e6db4	-0.0031498494
57	0xbdd25f68	-0.102721035
58	0x3d1874e2	0.037220843
59	0xbdb70214	-0.08935943
60	0xbe44d73c	-0.1922273
61	0xbd1b5356	-0.037921272
62	0xbdda1272	-0.106480494
63	0xbe03f9b6	-0.12888226
64	0xbd1ebcce	-0.038754277
65	0xbe291898	-0.16513288
66	0x3dff1997	0.12456053
67	0x3deb4308	0.114873946
68	0x3e0b590b	0.13608186
69	0x3e4c01b6	0.19922528
70	0xbc98ee62	-0.018668357
71	0xbe220d95	-0.15825494
72	0x3d7d8e25	0.061903138
73	0xbe48c338	-0.1960572
74	0xbdf960b4	-0.12176648
75	0xbe2a29ce	-0.1661751
76	0xbdeae317	-0.11469095
77	0xbda32ef7	-0.07967942
78	0xbd826a96	-0.06367986
79	0xbe5b2e00	-0.21404266
80	0xbddb557b	-0.107096635
81	0xbe491eaa	-0.19640604
82	0xbe07326d	-0.1320283
83	0x3e0358a3	0.12826781
84	0x3e00709c	0.12542957
85	0x3de58a1e	0.112079844
86	0x3e046fd6	0.12933287
87	0xbe0df886	-0.13864335
88	0x3db6c01d	0.089233615
89	0xbde877db	-0.113509856
90	0xbcc1ace5	-0.023642013
91	0x3cdae3cc	0.02671995
92	0x3cae5b6d	0.02128383
93	0x3c85ada7	0.016318155
94	0x3bd04858	0.0063562803
95	0x3d4b8a62	0.04969252
96	0xbd849d29	-0.064752884
97	0x3c979db6	0.01850782
98	0x3e1ea9fd	0.15494533
99	0xbd4c21aa	-0.049836792
100	0xbd4c98a8	-0.04995027
101	0xbda692c1	-0.0813346
102	0x3d8ccc7d	0.068749405
103	0x3e61e12b	0.22058551
104	0xbdc4b0d4	-0.0960404
105	0x3e0cb480	0.1374073
106	0xbe68e3bd	-0.22743125
107	0x3db221d3	0.08697858
108	0xbdda8b8c	-0.10671148
109	0x3d925be6	0.071464345
110	0xbe354405	-0.17701729
111	0xbdbc9b14	-0.09209266
112	0x3c56e343	0.013115707
113	0x3e6f522f	0.23371194
114	0x3e2c058b	0.1679899
115	0xbdd5a588	-0.10431963
116	0x3daba1c1	0.083804615
117	0x3e6520f6	0.22375855
118	0xbe18c90c	-0.14920443
119	0xbc5e7345	-0.013577287
120	0xbe280497	-0.16408001
121	0x3e17c0fc	0.14819711
122	0xbd206c2c	-0.03916566
123	0xbe358d2c	-0.17729634
124	0x3d85779a	0.06516953
125	0xbde78d3f	-0.113062374
126	0xbdc1bed1	-0.094602235
127	0x3df7ec62	0.12105633
128	0xbd67b864	-0.056572333
129	0x3e15837a	0.14600936
130	0x3d71635f	0.05893266
131	0x3e5bc33d	0.21461196
132	0xbbe44fa7	-0.006967503
133	0x3e1a119d	0.15045781
134	0xbd9bf187	-0.07614427
135	0x3d713d32	0.05889625
136	0xbe453636	-0.19258961
137	0xbdc6c5e2	-0.09705712
138	0xbe47b966	-0.19504318
139	0xbe149380	-0.14509392
140	0xbe3e4f39	-0.18584909
141	0x3e19af1c	0.15008205
142	0xbd282589	-0.04105142
143	0x3e4de7b2	0.20107916
144	0x3c18bb69	0.009322026
145	0xbddf001e	-0.10888694
146	0xbe319431	-0.17341687
147	0xbe23c538	-0.15993202
148	0xbe211a35	-0.15732653
149	0x3e45c5ce	0.19313738
150	0xbe0878c0	-0.13327312
151	0xbe306c78	-0.17228878
152	0xba271b66	-0.0006374627
153	0xbe35c3f7	-0.17750536
154	0xbe08a111	-0.13342692
155	0x3e0b89f1	0.13626839
156	0xbce37b99	-0.027768897
157	0xbcb826fa	-0.022479523
158	0xbe01f19e	-0.12689826
159	0x3d1799f0	0.03701204
160	0x3c6b9da8	0.01438085
161	0x3e0ae5ec	0.1356427
162	0xbddd2d9a	-0.107997134
163	0xbc9c8088	-0.019104257
164	0xbd9ffd0e	-0.07811938
165	0x3debb514	0.11509147
166	0x3e515d53	0.20445757
167	0x3c20cd49	0.009814569
168	0x3d4cc877	0.049995866
169	0xbe3efedb	-0.18651907
170	0xbe548708	-0.20754635
171	0xbc3e009d	-0.011596826
172	0xbe411831	-0.18856885
173	0x3df18d38	0.117945135
174	0xbe249ad3	-0.16074686
175	0xbe109baf	-0.14121889
176	0x3e5d13cd	0.21589585
177	0xbde24df4	-0.11050025
178	0x3e44086f	0.19143842
179	0xbe181f92	-0.14855793
180	0x3e63f598	0.22261655
181	0xbd9a7a47	-0.07542854
182	0xbd0e1ecc	-0.03469734
183	0xbe1f376b	-0.15548484
184	0x3e5d3fd8	0.21606386
185	0xbd6c8758	-0.05774626
186	0xbe19c74c	-0.15017432
187	0xbd063e96	-0.03277453
188	0xbe11a856	-0.14224371
189	0xbd92a1ea	-0.07159789
190	0x3d9fec83	0.07808783
191	0xbe2aed15	-0.16692002
192	0xbc100568	-0.008790351
193	0xbe265a93	-0.16245489
194	0x3d015772	0.031577535
195	0xbd29983f	-0.04140496
196	0xbd850b2b	-0.06496271
197	0xbd0b88ac	-0.034065887
198	0x3d722136	0.059113704
199	0x3c1b84e2	0.009492131
200	0x3e542e67	0.20720826
201	0xbe22dc0e	-0.15904257
202	0x3e329d7f	0.17442892
203	0x3dc316a7	0.09525805
204	0x3d9f79fa	0.07786937
205	0xbcba6344	-0.022752412
206	0xbde30d91	-0.11086572
207	0xbe09dcb2	-0.13463095
208	0x3d9bc9ff	0.07606887
209	0xbdbb894c	-0.09157047
210	0x3e4a0943	0.19730096
211	0x3e143b1e	0.14475676
212	0x3e414dc1	0.18877317
213	0xbda7803b	-0.08178755
214	0xbdbbc597	-0.09168547
215	0x3e0881d6	0.13330778
216	0xbcb90b6c	-0.022588454
217	0xbdc26f1c	-0.09493849
218	0xbd56265c	-0.052282676
219	0xbe125f8b	-0.14294259
220	0x3e1db34f	0.15400432
221	0x3e030be1	0.127975
222	0xbde86750	-0.1134783
223	0xbd7ad0fc	-0.06123446
224	0xbcf81c52	-0.030286942
225	0xbd751407	-0.059833553
226	0xbe160551	-0.14650466
227	0x3e248881	0.16067697
228	0xbe3d2ba8	-0.18473685
229	0xbe1b40d9	-0.15161456
230	0x3df55915	0.11979882
231	0x3e2c0456	0.16798529
232	0xbdf4efed	-0.11959825
233	0x3d457809	0.048210178
234	0xbcab42c2	-0.020905856
235	0xbba58e0a	-0.0050523328
236	0x3d756c8a	0.059917964
237	0xbe04181d	-0.12899823
238	0x3e0968c2	0.13418868
239	0xbd8eda15	-0.069751896
240	0x3d92908e	0.07156478
241	0x3e2d2fe3	0.16912799
242	0x3d9fe2a6	0.07806902
243	0x3e3eadda	0.18621007
244	0xbd8c81d5	-0.06860701
245	0x3c578516	0.013154289
246	0xbe0a4dda	-0.1350626
247	0xbdb3f0b7	-0.08786147
248	0xbe025780	-0.12728691
249	0x3d3ee580	0.046605587
250	0xbe0969c0	-0.13419247
251	0xbdbe69c7	-0.09297519
252	0xbe29d273	-0.16584186
253	0x3dcdb68c	0.10044584
254	0x3dc1403c	0.0943608
255	0xbdae19ee	-0.085010394

phi.0.bias f4 [32]
0	0xbda7e35d	-0.08197663
1	0xbd222383	-0.039584648
2	0x3e255f5b	0.16149656
3	0xbdf33561	-0.118754156
4	0xbe030652	-0.1279538
5	0xbb8f6576	-0.0043761088
6	0xbdc572a5	-0.09641007
7	0x3e39125e	0.18073413
8	0xbda2d591	-0.07950891
9	0xbcb41f0e	-0.021987464
10	0xbd55fa74	-0.052240804
11	0xbdfa63be	-0.122260556
12	0x3e493b96	0.19651636
13	0xbe2875a5	-0.16451128
14	0x3e0f2bb2	0.13981512
15	0xbd2a6d4b	-0.041608136
16	0x3d380ed7	0.044936027
17	0xbe1a18be	-0.15048501
18	0x3e4543fd	0.19264217
19	0x3dc1172b	0.09428247
20	0xbdefd9c3	-0.117114566
21	0x3e2afe99	0.16698684
22	0xbe277b13	-0.16355543
23	0x3dc757ff	0.09733581
24	0xbd006e7b	-0.031355362
25	0x3d9dbc3c	0.077019185
26	0xbe0b8bf3	-0.13627605
27	0x3e7089f4	0.23490125
28	0x3ded9888	0.11601359
29	0x3e325f47	0.17419158
30	0xbe5350f3	-0.20636348
31	0x3da82e88	0.08212

phi.2.weight f4 [32, 32]
0	0x3dbeae55	0.09310595
1	0xbe2f3e4c	-0.17113608
2	0x3c5791c8	0.013157316
3	0xbe10ae62	-0.14129022
4	0x3dd7232c	0.105047554
5	0x3b90af9e	0.0044154665
6	0x39d08172	0.00039769296
7	0xbe0e415d	-0.13892122
8	0xbba7afe1	-0.005117402
9	0xbdf01a8b	-0.11723813
10	0xbb0e9ee2	-0.0021762182
11	0xbde923d5	-0.113837875
12	0xbdb972a3	-0.09055068
13	0x3c86e38b	0.016465923
14	0x3dec971f	0.115522616
15	0xbd3243db	-0.043521743
16	0xbe0881bf	-0.13330744
17	0x3cd9b4f3	0.026575541
18	0x3e07a76b	0.13247459
19	0x3dbacc95	0.09121052
20	0x3b7d268a	0.0038627707
21	0x3c5713f4	0.013127316
22	0x3d920316	0.07129495
23	0x3e04f056	0.12982306
24	0x3e409b9c	0.1880936
25	0xbe17a6fb	-0.14809792
26	0x3dedfa8c	0.11620054
27	0xbd441abb	-0.047877055
28	0x3e3b6974	0.18301946
29	0xbd94aa67	-0.07259064
30	0x3d00724d	0.031359006
31	0xbe0d6a2d	-0.13810034
32	0x3e303b4b	0.17210118
33	0x3d9b58c4	0.0758529
34	0x3d1b722d	0.037950683
35	0xbd335cb3	-0.043789577
36	0x3e0b505d	0.13604875
37	0xbdb0da9d	-0.08635447
38	0xbc28f7be	-0.010312973
39	0x3e5eeef5	0.21770842
40	0xbdcceb65	-0.100058354
41	0x3dc45cfe	0.09588049
42	0x3c950ee7	0.018195583
43	0x3e0a8a1d	0.13529249
44	0x3e324674	0.17409688
45	0x3e20a7cb	0.15689008
46	0x3ded7f64	0.115965635
47	0x3e1ce4fe	0.15321729
48	0x3d39faad	0.04540508
49	0x3e37deb4	0.17956048
50	0x3e20b290	0.15693116
51	0xbdaa95c7	-0.08329349
52	0x3e1898e9	0.1490208
53	0x3d8f86f2	0.07008161
54	0xbcef59bb	-0.029217592
55	0xbdff072b	-0.12452539
56	0x3e23315b	0.15936796
57	0x3d615ac7	0.055018213
58	0xbdfc2bfe	-0.12313078
59	0xbcb6054d	-0.022219324
60	0x3c494938	0.012285523
61	0xbc854fd5	-0.016273418
62	0xbdba3cc9	-0.09093625
63	0x3e063dc2	0.13109496
64	0xbdcd956f	-0.10038268
65	0x3d415934	0.04720421
66	0x3e348609	0.17629255
67	0x3dfdce48	0.12392861
68	0xbe1d95f2	-0.15389231
69	0xbd889877	-0.06669705
70	0xbde87f33	-0.11352386
71	0x3d317710	0.043326437
72	0x3b224269	0.0024758822
73	0x3e12eabc	0.14347357
74	0x3e0c8101	0.13721086
75	0x3e386178	0.18005931
76	0xbcff8ff2	-0.031196568
77	0x3d1a2884	0.037636295
78	0xbdddfb4c	-0.10838947
79	0x3e1506d0	0.1455338
80	0xbdc79658	-0.09745473
81	0xbda713fd	-0.08158109
82	0xbdeea127	-0.11651831
83	0x3d128fbf	0.03578162
84	0xbdc3d292	-0.095616475
85	0x3d388d66	0.045056723
86	0x3e208aa6	0.1567789
87	0x3df01640	0.11722994
88	0xbde6a80a	-0.1126252
89	0x3d8002b1	0.06250513
90	0x3e30a645	0.17250927
91	0x3e32e35d	0.17469545
92	0xbd18c8c7	-0.03730085
93	0x3d386d82	0.04502631
94	0xbe2d08b3	-0.1689785
95	0x3e280fd8	0.16412294
96	0x3da00b0d	0.07814608
97	0x3e3fb8dc	0.18722862
98	0xbe1f09ff	-0.15531157
99	0xbe2a8248	-0.16651261
100	0x3d5e3a37	0.054254737
101	0x3debf19d	0.115206935
102	0xbcccfb16	-0.02502207
103	0xbdbbd98e	-0.09172355
104	0x3e255ce5	0.16148718
105	0xbe1b958a	-0.15193763
106	0x3d926bd2	0.07149471
107	0xbd8bea62	-0.06831814
108	0xbb10a192	-0.002206896
109	0x3e3e139e	0.18562171
110	0xbdfe56ed	-0.124189235
111	0x3d5d0dcc	0.053968236
112	0xbdfd7627	-0.123760514
113	0xbe0f025b	-0.13965742
114	0xbe25b955	-0.1618398
115	0x3e1fb85f	0.15597676
116	0xbbf77ef8	-0.0075529777
117	0xbda13912	-0.078722134
118	0x3dae9bbb	0.08525797
119	0xbdb08e5b	-0.08620902
120	0x3d8619bc	0.06547877
121	0x3da3bca2	0.07994963
122	0x3c04fd46	0.008117026
123	0x3e0bd6c6	0.13656148
124	0x3d94e452	0.07270111
125	0x3dc9f5c6	0.09861331
126	0xbda4f4cc	-0.08054504
127	0xbd94c773	-0.072646044
128	0x3db15738	0.08659214
129	0x3e3fcb26	0.18729839
130	0xbd976996	-0.07393186
131	0xbd2dd7e0	-0.042442203
132	0x3d94f34f	0.0727297
133	0xbbfe0a92	-0.007752725
134	0x3bb1ebf6	0.00542974
135	0x3e4b1db6	0.19835553
136	0x3df1c1bf	0.11804532
137	0x3e148a82	0.14505962
138	0xbcf70ecf	-0.030158428
139	0x3d992db5	0.07479421
140	0xbdb234bd	-0.08701465
141	0xbd67c9b2	-0.056588836
142	0xbda601d8	-0.081058204
143	0x3d37f833	0.044914436
144	0x3cb6b3ba	0.022302497
145	0x3d9d0b89	0.07668216
146	0x3e12e07a	0.14343444
147	0xbd862179	-0.06549353
148	0x3d5ae568	0.053441435
149	0x3e504c04	0.20341498
150	0x3d8aedb1	0.06783617
151	0xbe1333c6	-0.14375219
152	0xbd023bbe	-0.031795256
153	0x3e230d97	0.15923153
154	0xbd9ccda0	-0.07656407
155	0x3e08b17b	0.13348953
156	0x3d9ed8ef	0.077562205
157	0x3cc0c75c	0.023532562
158	0xbd63faff	-0.05565929
159	0x3b5f8cac	0.0034110947
160	0xbd8e1e4f	-0.06939375
161	0x3e38354f	0.17989086
162	0xbe000d3f	-0.12505053
163	0x3d8ae5e5	0.0678213
164	0xb8a30760	-7.7738194e-05
165	0x3e5490db	0.20758383
166	0x3e068345	0.13136013
167	0xbde5a244	-0.1121259
168	0x3de3de2e	0.11126362
169	0xbdd82bf2	-0.10555257
170	0xbe165ad8	-0.14683092
171	0x3c316a3e	0.010828553
172	0xbc0ab4ed	-0.008465988
173	0xbcccc4ea	-0.02499624
174	0xbd82d548	-0.063883364
175	0xbe1b55ea	-0.15169492
176	0x3e54774c	0.20748633
177	0x3d221cd9	0.039578293
178	0x3dd0d16a	0.101961926
179	0xbd7628d7	-0.06009754
180	0x3e151c45	0.14561565
181	0x3da639be	0.08116482
182	0xbdd01726	-0.10160665
183	0xbd91280e	-0.07087718
184	0xbd5e2b30	-0.054240406
185	0x3dac9eda	0.08428736
186	0xbde7b605	-0.11314014
187	0x3dab901e	0.083770975
188	0x3da5d2e8	0.08096868
189	0x3e413f71	0.18871857
190	0xbdf586a0	-0.11988568
191	0x3e5a5712	0.21322277
192	0x3e226fbc	0.15862936
193	0xbc9a2cb8	-0.018820152
194	0xbcec43df	-0.028840957
195	0x3d070675	0.032965142
196	0x3d91bc12	0.0711595
197	0xbe1010ff	-0.14068983
198	0xbcf68e5f	-0.030097185
199	0x3e309ee6	0.17248115
200	0x3d4a8b16	0.04944905
201	0x3bc398cd	0.005969143
202	0xbd3aa32d	-0.045565773
203	0x3da51c6f	0.08062064
204	0xbe0fc424	-0.14039665
205	0x3e425b09	0.1898004
206	0x3e4259d6	0.18979582
207	0x3e1b7e71	0.15184952
208	0x3df632f3	0.120214365
209	0x3e0e37e9	0.13888516
210	0x3e2120b6	0.15735134
211	0x3da8b7c8	0.082381785
212	0xbda5457f	-0.08069896
213	0xbcddd01f	-0.027076779
214	0x3e4bbf2b	0.19897144
215	0xbda2e3d4	-0.07953611
216	0x3e33286d	0.1749589
217	0xbc0b7317	-0.008511326
218	0xbd4fc0a2	-0.05072082
219	0x3d6ec87f	0.058296677
220	0x3c5945d2	0.013261275
221	0xbe4f1b95	-0.20225365
222	0xbd7cdcdc	-0.061734065
223	0xbde5ab71	-0.112143405
224	0x3e26b32a	0.16279283
225	0x3cc41733	0.023936843
226	0x3d93a149	0.07208497
227	0xbdd986a0	-0.10621381
228	0xbaf7557f	-0.0018870084
229	0xbd04feb4	-0.032469466
230	0xbc1d5d13	-0.00960471
231	0xbb2afad1	-0.002608944
232	0x3dba62ae	0.09100853
233	0x3d571d1e	0.052518003
234	0xbda70e1a	-0.081569865
235	0x3e22e6ea	0.15908399
236	0x3b2739f5	0.0025516723
237	0xbd1e41a3	-0.038636815
238	0xbe1728b7	-0.14761625
239	0x3d82d60a	0.06388481
240	0xbe292abb	-0.16520207
241	0xbd7d35a6	-0.06181874
242	0x3dec9b4c	0.11553058
243	0xbdae9d06	-0.085260436
244	0x3da93675	0.0826234
245	0xbe179c89	-0.14805807
246	0x3dd7e02f	0.105408065
247	0x3da13873	0.07872095
248	0xbb9a4c80	-0.0047088265
249	0xbe1ecb4c	-0.15507239
250	0xbddd3e2b	-0.10802873
251	0x3dd94274	0.10608378
252	0xbe08d212	-0.13361385
253	0x3df97706	0.12180905
254	0x3d96d340	0.073645115
255	0x3def6cb3	0.116906546

phi.2.bias f4 [32]
0	0x3e1facc2	0.15593246
1	0x3d6a917f	0.057267662
2	0x3cecb71c	0.028895907
3	0x3da9f7b9	0.082992025
4	0xbde87534	-0.1135048
5	0xbd998fdc	-0.07498142
6	0x3dcaef69	0.09908945
7	0x3e050751	0.12991072
8	0x3dd4ed91	0.10396875
9	0x3debba51	0.115101464
10	0x3df57105	0.119844474
11	0x3e5119b5	0.20419963
12	0x3e0d3a09	0.1379167
13	0xbe149991	-0.14511706
14	0x3d293204	0.041307464
15	0xbd8b636e	-0.06806074
16	0x3e031877	0.12802301
17	0xbe002ebe	-0.1251783
18	0x3d70feed	0.058836866
19	0xbe1a7c94	-0.15086585
20	0x3dfca996	0.123370335
21	0x3d056c14	0.032573774
22	0x3e02a1a2	0.1275697
23	0xbda12df6	-0.078700945
24	0x3e1a6b8a	0.15080085
25	0xbddc3f0e	-0.10754214
26	0x3d7d9fcc	0.061919972
27	0xbe2be055	-0.16784795
28	0x3e384026	0.1799322
29	0x3ceb88a1	0.028751673
30	0x3d693f16	0.05694493
31	0x3d1bb89e	0.03801786

phi.4.weight f4 [28, 32]
0	0x3e09b4b2	0.13447836
1	0x3d2a89eb	0.041635435
2	0xbd4ee007	-0.050506618
3	0xbd94db36	-0.07268374
4	0xbdab811a	-0.083742335
5	0x3dbf08a9	0.09327824
6	0xbe06e002	-0.1317139
7	0xbd689d8e	-0.05679088
8	0x3db5583a	0.088547185
9	0x3b82cf59	0.003992003
10	0xbb7de3e2	-0.0038740565
11	0xbe16d49f	-0.14729546
12	0x3d8b3671	0.06797493
13	0xbe22f271	-0.15912797
14	0xbd4a7a58	-0.049433082
15	0xbda68059	-0.08129949
16	0xbd4000a9	-0.04687563
17	0x3c8c4683	0.017123466
18	0x3b47c546	0.0030482574
19	0xbd929939	-0.07158131
20	0x3d063425	0.032764573
21	0xbe1be9f1	-0.1522596
22	0x3e1bc7c1	0.15212919
23	0xbd8721f8	-0.06598276
24	0x3c9f14be	0.01941907
25	0x3e1e49c3	0.15457825
26	0xbe1f667c	-0.15566438
27	0x3e1250a9	0.14288582
28	0x3dd02b94	0.10164562
29	0xbd889d8a	-0.06670673
30	0xbe4bf6a5	-0.19918306
31	0x3d4d9e6b	0.050199907
32	0xbd91c940	-0.071184635
33	0x3c60e6c3	0.013726893
34	0x3d1e9e15	0.038724978
35	0xbc6ad2ae	-0.0143324565
36	0x3d1b8312	0.037966795
37	0xbde393cb	-0.11112174
38	0xb82f8170	-4.18438e-05
39	0xbc4d79c2	-0.012541236
40	0x3dc741e0	0.097293615
41	0x3e374a02	0.17899325
42	0x3d26fcad	0.040768314
43	0x3d9eade6	0.07748012
44	0x3cde7c3a	0.027158845
45	0x3df643df	0.12024664
46	0x3d373c26	0.044735096
47	0xbdd8bb59	-0.10582609
48	0xbda9d402	-0.082923904
49	0x3dd6bc30	0.10485113
50	0x3de5717e	0.112032875
51	0x3e0cbdeb	0.13744323
52	0xbdb89b54	-0.090140015
53	0xbdc9709d	-0.098359324
54	0x3d9c216b	0.076235615
55	0xbde11bc5	-0.10991625
56	0xbe15e2dd	-0.14637323
57	0x3e194d5f	0.14970921
58	0x3dae1511	0.08500112
59	0x3dca303e	0.09872483
60	0x3e03cfe3	0.12872271
61	0x3dba6a03	0.091022514
62	0x3e2f745f	0.17134236
63	0xbd10b747	-0.035331037
64	0x3e3b238b	0.18275277
65	0x3e08cb05	0.13358696
66	0xbd0bca4c	-0.034128472
67	0xbd87e3e9	-0.06635267
68	0x3e14a275	0.14515097
69	0x3d24cd3b	0.040234786
70	0xbd84f7a3	-0.064925455
71	0x3dea25bf	0.11432981
72	0xbd3d05b2	-0.04614801
73	0xbe3652ef	-0.17805074
74	0xbdbb583a	-0.09147687
75	0xbcb1f8ee	-0.021725144
76	0x3dd5deb8	0.10442871
77	0x3ddb5e55	0.10711352
78	0x3e04193d	0.12900253
79	0x3e21e01c	0.15808147
80	0xbe22ffc2	-0.15917876
81	0xbe15490b	-0.14578645
82	0xbdbbffb9	-0.091796346
83	0xbd01f0c1	-0.03172374
84	0xba801790	-0.0009772647
85	0xbe3adfa5	-0.18249376
86	0x3ca29109	0.019844549
87	0x3deed210	0.1166116
88	0xbd28e5a8	-0.041234642
89	0x3dd523c9	0.10407216
90	0x3d40429c	0.046938524
91	0x3e1d0a89	0.1533605
92	0x3e0c5a52	0.1370633
93	0x3c0bb87e	0.008527873
94	0x3e329105	0.17438133
95	0xbe2ef472	-0.17085436
96	0xbdb23eb6	-0.087033674
97	0xbe1a1825	-0.15048273
98	0xbe1032e2	-0.1408191
99	0x3c44f9b7	0.012022427
100	0xbd9d9ae9	-0.076955624
101	0x3d877264	0.06613615
102	0x3d199956	0.03749975
103	0xbe2b0fdb	-0.16705267
104	0x3dd3569e	0.10319255
105	0xbde82ad0	-0.11336291
106	0xbe11108e	-0.14166471
107	0xbd77011b	-0.06030379
108	0xbd8b1a29	-0.06792099
109	0xbdd2dd5c	-0.10296127
110	0xbe0eafec	-0.13934296
111	0xbe15aa4b	-0.14615743
112	0xbdd38bf2	-0.10329427
113	0xbe4e4c96	-0.20146403
114	0x3bad2f21	0.005285159
115	0xbc0285dd	-0.007966486
116	0xbc9a086a	-0.01880284
117	0xbc4ef054	-0.012630541
118	0x3d6a26cd	0.05716591
119	0xbdfd3384	-0.123633415
120	0x3cea881d	0.028629357
121	0xbdb809c5	-0.089862384
122	0xbe27eb8f	-0.16398452
123	0x3d9b304c	0.07577571
124	0x3ce20b53	0.02759329
125	0x3d57b899	0.05266628
126	0xbe2bfff9	-0.16796865
127	0xb92a8776	-0.00016262927
128	0xbdf213c7	-0.118201785
129	0x3e03fa44	0.12888438
130	0xbdb60fa4	-0.08889702
131	0x3ce14678	0.027499422
132	0x3d92b07f	0.0716257
133	0x3dc9de3c	0.09856841
134	0x3dc2725e	0.0949447
135	0x3ceedfc2	0.02915943
136	0x3dce07a2	0.100600496
137	0x3df81231	0.12112845
138	0x3d12c75d	0.03583466
139	0x3bc2e407	0.005947593
140	0x3c39ee8a	0.011348376
141	0x3d71814d	0.0589612
142	0x3dbdb5de	0.09263204
143	0xbe098181	-0.13428308
144	0xbcfe63d9	-0.03105347
145	0xbe0a3881	-0.13498117
146	0xbe255f30	-0.16149592
147	0xbdf11015	-0.117706455
148	0xbdd0f3ac	-0.10202727
149	0x3d304584	0.043035045
150	0x3e15e761	0.14639045
151	0xbddcb372	-0.10776414
152	0xbdf5a167	-0.11993676
153	0x3d7eab46	0.062175058
154	0xbd739f72	-0.05947823
155	0xbdba2119	-0.09088344
156	0xbbfc7ad6	-0.007705073
157	0x3d6747ef	0.056465086
158	0x3de0714d	0.109591104
159	0x3d4aaeac	0.049482986
160	0xbd8cf817	-0.06883257
161	0x3e355ff2	0.17712381
162	0x3dd4dec9	0.103940554
163	0x3c7bb927	0.015363968
164	0x3e4e7342	0.20161155
165	0x3e27a9a3	0.16373305
166	0x3e5e71ba	0.2172307
167	0x3e4dee45	0.20110424
168	0x3ddf268f	0.10896026
169	0xbd31bc72	-0.043392606
170	0xbd00b248	-0.031420022
171	0xbb5b16f1	-0.0033430422
172	0x3dac60b4	0.08416882
173	0x3dd7e25c	0.105412215
174	0x3d7e3290	0.06205994
175	0x3ded6ea8	0.11593372
176	0xbde252fe	-0.11050986
177	0xbda65a22	-0.0812266
178	0xbbc2a376	-0.005939896
179	0x3d85c123	0.065309785
180	0xbdea045b	-0.11426612
181	0x3d99ed5b	0.07515975
182	0x3e602720	0.21889925
183	0x3dd600c3	0.10449364
184	0x3e09d049	0.1345836
185	0x3e1d5630	0.15364909
186	0x3de50b13	0.11183753
187	0x3d342ec9	0.04398993
188	0xbd578e0b	-0.052625697
189	0x3e400b58	0.18754327
190	0x3ded4f84	0.11587432
191	0x3d86717b	0.065646134
192	0xbc890bf9	-0.016729342
193	0xbe41009a	-0.18847886
194	0x3d1bbd9c	0.038022622
195	0xbc7d659d	-0.015466121
196	0xbe09c7f2	-0.1345518
197	0x3d2be508	0.041966468
198	0xbe533c15	-0.20628388
199	0xbd3a26d5	-0.04544719
200	0xbe566789	-0.20937933
201	0x3dbd8cbc	0.092553586
202	0xbc02d4e4	-0.007985327
203	0xbe17aedb	-0.14812796
204	0xb86691c0	-5.4972013e-05
205	0x3e17c761	0.14822151
206	0xbd259f12	-0.040434904
207	0xbdd3dc50	-0.10344756
208	0x3e1bb423	0.15205435
209	0xbdf0fb05	-0.11766628
210	0x3d7c9fdf	0.061675902
211	0xbdcbe0bb	-0.09954973
212	0x3e18dc44	0.14927775
213	0xbd69306b	-0.05693094
214	0xbe03985b	-0.12851088
215	0x3d916d09	0.07100875
216	0x3d90638a	0.070502356
217	0xbe05efd3	-0.13079767
218	0x3c1ea880	0.009683728
219	0x3d66f9b9	0.056390498
220	0x3e108b01	0.14115526
221	0x3cc01849	0.02344908
222	0xbd4a37a3	-0.049369466
223	0xbe126564	-0.1429649
224	0x3dcfb03f	0.10141038
225	0xbdfb7df8	-0.12279886
226	0xbdaf5b07	-0.08562284
227	0x3df4f90a	0.11961563
228	0x3d7e8677	0.062139954
229	0x3d49c9f4	0.049264863
230	0xbd1aeca0	-0.03782332
231	0xbd493848	-0.04912594
232	0xbcd03f38	-0.02542077
233	0xbc7e87f9	-0.015535348
234	0x3e1db468	0.15400851
235	0x3e4a8fce	0.1978142
236	0x3e20e11e	0.15710875
237	0x3d85da2c	0.065357536
238	0xbdfc096f	-0.12306487
239	0xba817138	-0.0009875661
240	0x3da24f60	0.07925296
241	0x3dad176a	0.084517315
242	0xbdd4b753	-0.10386529
243	0xbdc5a1eb	-0.09650024
244	0x3e6dc1b5	0.23218425
245	0x3e015b7b	0.12632553
246	0x3e40b36b	0.18818443
247	0x3d928f68	0.07156259
248	0xbdcaab48	-0.098959506
249	0x3e6bf177	0.2304133
250	0x3e063b47	0.1310855
251	0xbd5ffd0d	-0.054684687
252	0x3c13b708	0.009015806
253	0x3c1d893d	0.00961524
254	0xbe0549b5	-0.13016398
255	0x3d4e16f8	0.050314873

phi.4.bias f4 [28]
0	0xbe328093	-0.1743186
1	0xbd98a9a7	-0.074542336
2	0xbe03a7fc	-0.1285705
3	0xbe0ff182	-0.14056972
4	0xbdaee1c2	-0.08539154
5	0x3d8e5897	0.06950491
6	0xbd7b783a	-0.061393954
7	0x3dde5e3c	0.108578175
8	0xbdaf1e0d	-0.085506536
9	0x3d1d3a82	0.038385876
10	0xbc39fad0	-0.011351302
11	0x3e366ed0	0.17815709
12	0x3cdc91f4	0.026925065
13	0x3d9048bb	0.07045122
14	0xbe1e7740	-0.15475178
15	0x3ddd29e9	0.10799009
16	0x3c21e092	0.009880202
17	0x3de6aaff	0.11263084
18	0xbcd08804	-0.025455482
19	0x3e4e3f0d	0.2014124
20	0xbe2d5dc5	-0.16930301
21	0x3e009696	0.12557444
22	0xbdeea8c1	-0.11653281
23	0x3e18a312	0.14905956
24	0xbc2bbe2d	-0.010482353
25	0xbd938d0d	-0.07204638
26	0xba780042	-0.00094604876
27	0xbde33128	-0.1109336

phi.6.weight f4 [25, 28]
0	0x3e0e59cc	0.13901442
1	0x3e3b7b68	0.18308794
2	0x3e0d8512	0.13820294
3	0xbce65a03	-0.028119093
4	0xbe398566	-0.18117294
5	0x3e03bfc5	0.12866123
6	0xbe414a54	-0.1887601
7	0x3e08de2b	0.13366
8	0xbe413b99	-0.18870391
9	0xbdf5465c	-0.119763106
10	0xbddb294a	-0.10701235
11	0xbdc2025b	-0.094731055
12	0xbe1a948d	-0.1509573
13	0x3d0ffc50	0.035152733
14	0xbcd562b1	-0.026048036
15	0x3de556ed	0.111982204
16	0xbd701392	-0.058612414
17	0xbd7b146a	-0.061298765
18	0xbe45937b	-0.1929454
19	0xbdc87e07	-0.09789663
20	0xbc4eb585	-0.01261652
21	0x3e042f7b	0.12908737
22	0xbdbc1006	-0.09182744
23	0x3d16f3bc	0.036853537
24	0xbda0a2ea	-0.078435734
25	0xbd2dec3b	-0.042461615
26	0xbe2a9afc	-0.16660684
27	0xbc3544ed	-0.0110637965
28	0x3b209189	0.0024500808
29	0x3dad15b4	0.08451405
30	0xbb44d677	-0.0030035058
31	0x3e5b3a1c	0.21408886
32	0xbdbccedd	-0.092191435
33	0x3d43aeb7	0.047774043
34	0xbdcda3ed	-0.10041032
35	0xbd93e553	-0.072214745
36	0x3d523adb	0.05132566
37	0x3de4049c	0.11133692
38	0x3deaf592	0.1147262
39	0xbdfa1deb	-0.12212738
40	0xbe317e31	-0.17333294
41	0x3de54391	0.11194528
42	0x3d80a7a4	0.06281975
43	0x3e3fa8b6	0.18716702
44	0xbe4e938b	-0.2017347
45	0x3e343c0f	0.17601036
46	0x3cf14d17	0.029455705
47	0x3e00efca	0.12591472
48	0xbdf7847d	-0.12085817
49	0x3d8940bc	0.067018
50	0xbda30157	-0.0795924
51	0xbdf1ad65	-0.118006505
52	0x3d27010c	0.040772483
53	0x3cd73161	0.026268663
54	0x3d4e64d5	0.05038913
55	0xbcb52a30	-0.022114843
56	0x3e222e8c	0.15838069
57	0xbdd1c4b0	-0.10242593
58	0xbdd07642	-0.10178806
59	0x3c18410b	0.009292851
60	0x3d5fecdb	0.054669242
61	0x3d647fbf	0.05578589
62	0x3e52234e	0.2052128
63	0x3dbab994	0.091174275
64	0x3e0265fc	0.12734216
65	0xbe3b3c1c	-0.18284649
66	0xbe1de39a	-0.15418854
67	0xbe1eca5d	-0.15506883
68	0xbe20b921	-0.15695621
69	0xbd77addd	-0.060468543
70	0xbddc1af8	-0.107473314
71	0xbe0ef8e4	-0.13962132
72	0x3dfc4569	0.123179264
73	0x3ddce367	0.10785561
74	0x3d231331	0.039813224
75	0x3e06efb5	0.13177378
76	0xbe339872	-0.17538622
77	0x3e3bd4e8	0.18342936
78	0xbdc27566	-0.09495048
79	0xbd2f7120	-0.042832494
80	0xbc911189	-0.017708557
81	0xbe04089e	-0.12893912
82	0x3d26cba7	0.04072156
83	0xbddc0663	-0.10743406
84	0x3d83911c	0.06424162
85	0xbe4411bf	-0.19147395
86	0xbd6ab02e	-0.057296924
87	0xbe0ba0c2	-0.13635543
88	0xbdee37d5	-0.11631743
89	0xbe7419ce	-0.23837969
90	0x3e06d341	0.13166524
91	0xbe35a405	-0.1773835
92	0x3e25aac7	0.16178428
93	0x3d84f0d6	0.06491248
94	0x3d2d1149	0.042252813
95	0x3de03b12	0.10948767
96	0x3e2259b8	0.15854537
97	0x3d78fa7d	0.06078576
98	0xbe0fd7c3	-0.1404715
99	0xbd31070e	-0.04321962
100	0x3ce6446d	0.0281088
101	0x3e0e49d9	0.13895358
102	0xbba3ade9	-0.004995097
103	0xbe5c174d	-0.21493264
104	0x3dda9a1a	0.10673924
105	0x3ce3c857	0.02780549
106	0x3d7b7fc0	0.06140113
107	0xbd4a3dc8	-0.049375325
108	0xbd287b61	-0.04113329
109	0x3e1665a6	0.14687213
110	0x3c275198	0.010212325
111	0x3e420e65	0.18950804
112	0x3de7a446	0.113106295
113	0xbccaff4c	-0.024779938
114	0xbd436820	-0.047706723
115	0xbded05b1	-0.11573351
116	0xbe04dad6	-0.12974104
117	0x3e32068c	0.1738531
118	0xbd052345	-0.03250434
119	0x3df5338d	0.11972723
120	0xbe0cef24	-0.137631
121	0xbe14588d	-0.14486904
122	0x3da32f4a	0.07968004
123	0x3d53424c	0.051576898
124	0xbd16d8d8	-0.036827892
125	0x3bd56518	0.0065122955
126	0x3da461ad	0.08026443
127	0xbe1847a9	-0.14871086
128	0x3e07774a	0.13229099
129	0xbe2e2ebe	-0.17010018
130	0x3bdabf50	0.0066756383
131	0x3dbc5a01	0.091968544
132	0xbb14c4fc	-0.002270042
133	0x3e1b3920	0.1515851
134	0x3e11d736	0.14242253
135	0xbe110abf	-0.14164256
136	0x3e410966	0.18851241
137	0xbbdd1ba5	-0.0067476803
138	0x3dc4d4ad	0.09610877
139	0x3db4ee48	0.08834511
140	0xbe181681	-0.14852335
141	0xbbccdc0b	-0.006251817
142	0xbde007aa	-0.10938962
143	0xbddd6ecc	-0.108121485
144	0x3decb89f	0.11558651
145	0x3e44db9e	0.19224402
146	0xbe6077b8	-0.21920669
147	0x3e24170d	0.16024418
148	0x3bc1125d	0.0058920817
149	0xbc20d048	-0.009815283
150	0x3e0cdd2d	0.13756247
151	0x3d03c21d	0.032167543
152	0xbd0c5fa9	-0.034270916
153	0x3e626551	0.22108962
154	0xbab62312	-0.001389595
155	0x3c674cb8	0.014117412
156	0x3e268b9b	0.16264193
157	0xbe0a586b	-0.13510291
158	0x3e068ad3	0.13138895
159	0x3d926aa1	0.07149244
160	0xbe732766	-0.23745498
161	0x3db49575	0.08817569
162	0xbe0663fe	-0.13124081
163	0xbda3171f	-0.079633944
164	0x3e77d598	0.24202573
165	0xbe12a54e	-0.14320871
166	0xbe592f2b	-0.212094
167	0xbe621f2d	-0.22082205
168	0x3ddf3b48	0.10899979
169	0x3dc7fab8	0.09764618
170	0xbde4e75c	-0.11176941
171	0x3e11afd4	0.1422723
172	0x3e33683d	0.17520232
173	0x3c13c03e	0.009018002
174	0x3d4f9737	0.05068132
175	0x3e05b055	0.13055547
176	0xbe28cd14	-0.16484481
177	0xbd91b213	-0.07114043
178	0x3e3cbc67	0.18431245
179	0x3c9624c8	0.018328086
180	0xbdde5a65	-0.10857085
181	0xbc1360fc	-0.008995291
182	0x3e224001	0.15844728
183	0xbdf1aa87	-0.11800104
184	0xbaf9ca3a	-0.0019057461
185	0xbe280d67	-0.16411363
186	0xbde85118	-0.113435924
187	0xbd92e7dc	-0.0717313
188	0xbdfb82a9	-0.12280781
189	0x3e0e0f2a	0.13872972
190	0x3d919c2c	0.071098655
191	0xbe4c74a5	-0.19966371
192	0x3e491318	0.1963619
193	0x3dbd5c0b	0.092460714
194	0xbdd42d67	-0.10360222
195	0xbdefbd19	-0.117059894
196	0xbdd95a23	-0.10612895
197	0xbcd7ef58	-0.026359245
198	0x3e16bb4e	0.14719889
199	0xbe64cc8d	-0.22343655
200	0x3e3c7093	0.18402319
201	0x3e10339b	0.14082186
202	0x3dacc540	0.0843606
203	0x3daeb2f9	0.0853023
204	0xbe270626	-0.16310939
205	0x3c1e01e6	0.009644007
206	0x3d0159db	0.031579833
207	0xbdc0fadf	-0.0942285
208	0xbe42db23	-0.19028907
209	0x3dc4a0ff	0.0960102
210	0x3d8ee33a	0.06976934
211	0x3de444fc	0.1114597
212	0xbd8c5f9a	-0.06854172
213	0xbdbb2d72	-0.091395274
214	0xbde9e0f4	-0.114198595
215	0x3d6e5f28	0.058196217
216	0xbd1aac95	-0.037762243
217	0x3e2a96be	0.16659066
218	0x3e1c93d5	0.15290768
219	0xbe023acf	-0.12717746
220	0xbd97e323	-0.0741637
221	0x3e1224a5	0.14271791
222	0xbe12c02e	-0.14331123
223	0xbe0b2ef9	-0.13592137
224	0x3de4a694	0.11164585
225	0xbcbf1d0e	-0.023329284
226	0xbd456c4e	-0.04819899
227	0x3e02622a	0.12732759
228	0xbc9046c5	-0.01761187
229	0xbe1d8729	-0.15383591
230	0xbcd0e19a	-0.0254982
231	0xbd8cb5da	-0.06870623
232	0xbce25d2f	-0.027632324
233	0x3d7d7318	0.06187734
234	0xbdccea22	-0.10005595
235	0xbd7ab183	-0.061204445
236	0xbe0767ac	-0.13223141
237	0xbc8be447	-0.017076625
238	0xbdfb573b	-0.12272497
239	0xbcca108a	-0.02466609
240	0xbe5d37b3	-0.21603279
241	0xbda83dd8	-0.08214921
242	0x3de60324	0.11231068
243	0x3cb2a2f4	0.021806218
244	0xbd83eaf9	-0.06441302
245	0xbe680f9d	-0.22662206
246	0x3e0b6c5e	0.13615558
247	0x3d29a190	0.041413844
248	0xbcb485d6	-0.022036474
249	0x3e71d114	0.23614913
250	0x3d8ffe5a	0.070309356
251	0xbd347131	-0.04405326
252	0xbe0d0c6f	-0.13774274
253	0xbd8e4e80	-0.069485664
254	0x3d2e779f	0.04259455
255	0xbd7ee80d	-0.06223302

phi.6.bias f4 [25]
0	0x3da55b5c	0.08074066
1	0xbd703978	-0.058648556
2	0xbe0d6161	-0.13806678
3	0xbe6811c9	-0.22663034
4	0x3d84b7ad	0.06480346
5	0x3db28562	0.08716847
6	0xbd1b7cb5	-0.037960727
7	0x3e676baa	0.22599664
8	0xbd2d242f	-0.042270835
9	0xbda0347a	-0.07822509
10	0x3e3546a2	0.17702726
11	0xbd91dde6	-0.07122402
12	0xbd300ca9	-0.042980824
13	0xbe27c064	-0.16381985
14	0x3d51eb3b	0.051249724
15	0x3e2489fd	0.16068263
16	0xbd37b6ee	-0.04485219
17	0xbe464996	-0.19364008
18	0xbd2e8882	-0.042610653
19	0xbe38f2f4	-0.1806143
20	0x3d11107e	0.03541612
21	0xbdcb6daa	-0.09933026
22	0x3e30f92a	0.17282549
23	0xbd2928f1	-0.04129881
24	0xbe43d3e2	-0.19123796

psi.0.weight f4 [128, 26]
0	0x3ced39c3	0.028958207
1	0x3dc7bb03	0.097524665
2	0x3ce20417	0.02758984
3	0x3d6b3e98	0.05743274
4	0xbcea0c88	-0.028570428
5	0xbdc888a1	-0.09791685
6	0xbd935799	-0.07194442
7	0x3e37f984	0.17966276
8	0x3d6f0705	0.058356304
9	0x3e20fd81	0.15721704
10	0xbe208a09	-0.15677656
11	0x3e01d247	0.1267787
12	0x3dabe348	0.0839296
13	0x3e24e741	0.16103841
14	0xbd9e4fb4	-0.07730046
15	0xbd0a651e	-0.03378784
16	0x3d2372f4	0.03990455
17	0xbd30ed6e	-0.04319518
18	0x3e23027b	0.15918915
19	0xbdb87aae	-0.09007774
20	0xbe49b934	-0.19699556
21	0xbdd6bcf7	-0.10485261
22	0x3cc62dae	0.024191704
23	0x3d8b6e24	0.06808117
24	0xbcc70c6b	-0.024297914
25	0x3d6d27d5	0.057899315
26	0xbe056b6e	-0.13029262
27	0xbd233de1	-0.039853934
28	0x3df1df95	0.11810223
29	0xbd92f3ce	-0.07175408
30	0xbcd17e6b	-0.025572976
31	0xbdbd78e5	-0.092515744
32	0xbdb7deec	-0.08978066
33	0x3e390284	0.18067366
34	0xbbfe7b9a	-0.0077661993
35	0xbb7fa129	-0.003900597
36	0xbe226400	-0.1585846
37	0xbe46c04a	-0.1940929
38	0xbca87cfa	-0.020567406
39	0xbe0099a9	-0.12558617
40	0xbadb9798	-0.0016753552
41	0xbd38deb4	-0.04513426
42	0x3badfdd1	0.0053097983
43	0xbdb58bc0	-0.08864546
44	0xbe013456	-0.12617621
45	0x3de022d0	0.1094414
46	0x3d9c3259	0.076267906
47	0xbccaabf3	-0.024740195
48	0x3cfd01b9	0.03088461
49	0xbe488d94	-0.19585258
50	0x3cb363bd	0.021898145
51	0x3dfe5d22	0.124201074
52	0xbd6b111c	-0.057389364
53	0x3e12f168	0.14349902
54	0xbdd588a6	-0.10426454
55	0xbd84da90	-0.06487
56	0xbdfce23e	-0.1234784
57	0xbdac23a3	-0.08405235
58	0x3d805327	0.0626586
59	0x3db65edb	0.08904811
60	0x3d2ad767	0.04170933
61	0xbcc8e295	-0.024522105
62	0x3e74a811	0.23892237
63	0x3ddac006	0.10681157
64	0xbe0c763a	-0.13716975
65	0xbd410f29	-0.0471336
66	0x3e13ba88	0.14426625
67	0x3e66fb77	0.22556864
68	0xbd313180	-0.043260098
69	0xbc76c3da	-0.015061343
70	0xbe1a9396	-0.15095362
71	0x3dbcab19	0.09212322
72	0x3d4885bb	0.04895566
73	0xbdcd0ece	-0.100125894
74	0xbdfcde90	-0.12347138
75	0x3de394a5	0.11112336
76	0xbe716114	-0.23572189
77	0xbe2227e0	-0.15835524
78	0x3defa4f9	0.11701388
79	0x3e2ee63b	0.17080013
80	0x3e4213d3	0.18952875
81	0xbccfb741	-0.025355937
82	0x3e3b05d9	0.1826395
83	0x3e3fe217	0.1873859
84	0x3e5f947a	0.21833983
85	0x3d7eb920	0.062188268
86	0x3dbffb64	0.09374121
87	0xbe273501	-0.16328813
88	0x3dc81f7f	0.097716324
89	0xbd4ce126	-0.050019406
90	0x3c6429c1	0.0139259705
91	0x3dc96f02	0.09835626
92	0x3c5d52b8	0.013508491
93	0xbe2ced57	-0.16887413
94	0xbc9dcbb2	-0.019262169
95	0xbe4e8d30	-0.20171046
96	0xbe40f4d4	-0.18843395
97	0xbb6d3e4c	-0.0036200462
98	0xbcbd545b	-0.023111513
99	0x3df5b1aa	0.11996777
100	0x3dba7242	0.09103824
101	0xbe01118e	-0.12604353
102	0x3e1dee1f	0.15422867
103	0x3d890102	0.06689645
104	0xbc828527	-0.015932633
105	0x3e60602a	0.21911684
106	0x3e1c0c91	0.15239169
107	0xbd9794ca	-0.07401426
108	0x3dad3dea	0.08459075
109	0x3c9c1376	0.019052248
110	0xbdfd3d7a	-0.12365241
111	0xbe2567ac	-0.16152829
112	0xbd9a018b	-0.075198255
113	0x3e13a6d1	0.14419104
114	0xbe491a3f	-0.19638918
115	0x3d73d585	0.0595298
116	0x3ce63fec	0.028106652
117	0x3cbf22fe	0.023332115
118	0xbdad4a3e	-0.08461426
119	0xbe6f2c5e	-0.23356768
120	0xbe1518a7	-0.14560185
121	0xbc792822	-0.015207322
122	0x3e44b746	0.19210538
123	0x3ddde428	0.10834533
124	0xbd4a1db5	-0.049344737
125	0x3e6964c7	0.2279235
126	0x3cd4fd95	0.025999824
127	0x3ce02448	0.02736105
128	0x3d8e5624	0.06950024
129	0xbc2e2b3a	-0.010630423
130	0xbe066588	-0.13124669
131	0x3cef7999	0.029232787
132	0x3db8a3ba	0.09015603
133	0x3ddfc4d6	0.10926215
134	0xbe11fe5b	-0.14257185
135	0xbd1846bf	-0.037176844
136	0xbd2bcbfa	-0.041942574
137	0x3d4443e7	0.04791632
138	0xbdc83c92	-0.09777178
139	0x3e118411	0.14210536
140	0x3e271f1f	0.16320466
141	0x3e19dfc6	0.15026769
142	0xbe32885a	-0.17434826
143	0xbd718e0c	-0.058973357
144	0x3d50df92	0.050994463
145	0x3d37479f	0.044746038
146	0xbc811ecf	-0.015761761
147	0xbe171221	-0.1475301
148	0xbdbbf899	-0.091782756
149	0x3d5682e3	0.052370917
150	0xbd6ef373	-0.05833764
151	0xbe6d260b	-0.23159043
152	0x3e272045	0.16320904
153	0x3d22b9ce	0.03972798
154	0xbe6cc98c	-0.23123759
155	0x3d916cda	0.0710084
156	0x3df9b7d2	0.12193264
157	0x3df13f8e	0.117797
158	0xbe27d478	-0.16389644
159	0xbe34131e	-0.17585418
160	0xbdd7d9c9	-0.10539586
161	0x3df29145	0.11844114
162	0xbd1e86f6	-0.038702928
163	0x3e0e6146	0.13904294
164	0x3d7166f1	0.058936063
165	0x3d8d7c37	0.06908458
166	0xb9898c9a	-0.00026235433
167	0x3e0dbdfb	0.13842003
168	0x3d76d127	0.060258057
169	0x3def7401	0.11692048
170	0x3d341c1b	0.043972116
171	0x3e76e6c9	0.24111475
172	0xbd755d98	-0.05990371
173	0x3dceb3d0	0.1009289
174	0x3dda8e34	0.10671654
175	0xbdd2af6f	-0.102873676
176	0xbca253ee	-0.019815411
177	0xbe7d6ea0	-0.24749231
178	0x3e6a1449	0.228593
179	0xbdbd19ef	-0.09233462
180	0xbc87b727	-0.016566826
181	0xbe52af58	-0.20574701
182	0xbdd51565	-0.10404471
183	0x3dd7be7a	0.105343774
184	0xbd99fd3c	-0.07519004
185	0xbe5b8758	-0.21438348
186	0x3dd84454	0.105599076
187	0x3d958fa7	0.0730279
188	0xbd91cd0f	-0.0711919
189	0x3dccc95b	0.09999343
190	0x3d86fed9	0.06591577
191	0xbde084cc	-0.10962829
192	0x3e371b38	0.17881477
193	0x3e3ddae8	0.18540537
194	0x3d8eba75	0.069691576
195	0xbe541a10	-0.20713067
196	0xbde83a7c	-0.1133928
197	0xbd286ca4	-0.041119233
198	0xbd15c909	-0.036568675
199	0xbdc5276e	-0.09626661
200	0xbd87530a	-0.06607635
201	0xbe2b42ef	-0.16724752
202	0xbcd3ba26	-0.025845598
203	0xbe125dd2	-0.14293602
204	0xbe19953c	-0.14998335
205	0xbe0e68f4	-0.13907224
206	0xbd8c209f	-0.068421595
207	0xbe2b6593	-0.16737966
208	0x3c49a388	0.012307055
209	0xbd7e4536	-0.062077723
210	0xbe554c1f	-0.20829819
211	0x3d2025a8	0.03909841
212	0x3db48398	0.08814162
213	0xbc4e01da	-0.012573684
214	0xbcd37253	-0.02581135
215	0xbdea9bd7	-0.11455505
216	0x3d7a2de7	0.061078932
217	0x3d86dbed	0.06584916
218	0x3e276187	0.16345797
219	0xbcaae63e	-0.020861741
220	0xbcc3ccbe	-0.02390134
221	0xbd6ea120	-0.05825913
222	0xbdb17e8c	-0.08666715
223	0x3d60f6e0	0.05492294
224	0xbda37936	-0.079821035
225	0x3cb64f6c	0.022254668
226	0x3e01f666	0.1269165
227	0x3d1620c0	0.036652327
228	0xbe50d487	-0.20393573
229	0xbd1062e5	-0.035250563
230	0x3bcf9337	0.006334688
231	0x3dd34522	0.103159204
232	0xbd99b224	-0.07504681
233	0xbdb51df9	-0.088436075
234	0x3e2a8c64	0.16655117
235	0x3dd17989	0.10228259
236	0x3e572919	0.21011771
237	0x3dc4ad8f	0.09603416
238	0x3d04248a	0.03226141
239	0x3d7ad7ab	0.061240833
240	0x3df45135	0.119295515
241	0xbd98ce23	-0.074611925
242	0xbe39a641	-0.18129827
243	0xbdf0d759	-0.11759824
244	0xbde9afcd	-0.114104845
245	0xbdf5fe31	-0.12011374
246	0x3e2f850a	0.17140594
247	0x3e099586	0.13435945
248	0x3cef2013	0.029190099
249	0x3e028c37	0.127488
250	0xbdbfb1f5	-0.093601145
251	0xbdb64fb4	-0.08901921
252	0xbdfcae76	-0.12337963
253	0xbe0213f5	-0.12702926
254	0xbe1b6a25	-0.1517721
255	0xbd9705c7	-0.07374149

psi.0.bias f4 [128]
0	0xbe2da4d5	-0.1695741
1	0x3e26c1df	0.16284893
2	0x3d3f664b	0.046728414
3	0x3e4cfb32	0.20017698
4	0xbd8b6382	-0.06806089
5	0x3df36838	0.118851125
6	0x3cb2eb9a	0.02184086
7	0x3dd39160	0.103304625
8	0xbe31bb07	-0.17356502
9	0x3e4b8e36	0.19878468
10	0x3b970f16	0.0046099527
11	0x3db1468c	0.08656034
12	0xbe018cab	-0.12651317
13	0x3c6757f3	0.01412009
14	0xbde273da	-0.11057253
15	0xbd0c9ec1	-0.034331087
16	0x3e65ea35	0.22452624
17	0xbe10ac4f	-0.1412823
18	0xbe51380c	-0.20431536
19	0xbe2d9b2b	-0.16953723
20	0xbe66e26c	-0.2254731
21	0x3e0a8d6d	0.13530512
22	0xbe680d81	-0.22661401
23	0x3de4b74c	0.111677736
24	0xbd59c25e	-0.05316388
25	0x3bde826b	0.0067904494
26	0x3e02ed18	0.12785757
27	0x3e02c9c2	0.12772277
28	0xbe4985a1	-0.19679882
29	0x3dcc1df5	0.09966651
30	0x3e2b4f37	0.16729437
31	0xbd336bcb	-0.04380397
32	0x3b628a20	0.0034567192
33	0x3954f963	0.000203108
34	0xbdabf6da	-0.083966926
35	0xbd97a275	-0.07404033
36	0xbe0acbcc	-0.13554305
37	0xbe59a6f9	-0.21255101
38	0xbe112d2d	-0.1417739
39	0xbe0f0b65	-0.1396919
40	0x3dcb6022	0.09930445
41	0xbe4d323e	-0.20038697
42	0xbd44318c	-0.047898814
43	0xbe006d33	-0.12541656
44	0xbe5304bf	-0.20607279
45	0xbdaa0b31	-0.08302916
46	0xbe25ce31	-0.16191937
47	0xbe3e187a	-0.18564025
48	0x3c21de7a	0.009879703
49	0x3b8bc1c8	0.004265044
50	0x3d98ad41	0.074549206
51	0xbe0dee50	-0.1386044
52	0xbe5b8265	-0.2143646
53	0x3d932933	0.071855925
54	0x3e63138e	0.22175428
55	0x3e119def	0.14220403
56	0x3e28bade	0.16477534
57	0x3e66fe62	0.22557977
58	0xbd37d115	-0.04487713
59	0xbd8e5a4d	-0.06950817
60	0x3e257226	0.16156825
61	0xbd93c622	-0.07215525
62	0x3e10b969	0.14133228
63	0x3da77b5f	0.08177828
64	0xbe1d7243	-0.15375619
65	0xbdfd66c0	-0.12373114
66	0xbe28c909	-0.16482939
67	0xbdfe61f0	-0.12421024
68	0x3e1c9cec	0.15294236
69	0x3dfc7cc1	0.123284824
70	0x3d2e7327	0.042590287
71	0xbce27ab5	-0.027646402
72	0xbe1a35d2	-0.15059593
73	0x3b9b12b0	0.0047324523
74	0x3d9c4138	0.07629627
75	0xbdec7b56	-0.11546962
76	0x3d48c35c	0.049014434
77	0x3d593a70	0.053034246
78	0xbe111066	-0.14166412
79	0x3de6fc35	0.112785734
80	0xbe16e399	-0.14735259
81	0x3d4215d2	0.04738409
82	0xbce52504	-0.027971752
83	0xbe027cba	-0.12742892
84	0x3d78ca3a	0.060739733
85	0xbd8d048e	-0.06885634
86	0x3e185015	0.14874299
87	0x3c5e12a2	0.013554247
88	0x3e45fd8c	0.19335002
89	0xbde4c111	-0.11169637
90	0xbda8be8c	-0.08239469
91	0x3d5baf44	0.053633943
92	0x3e2355ce	0.159507
93	0x3e194025	0.14965875
94	0x3e353da9	0.17699303
95	0xbe3ffa6d	-0.18747874
96	0x3d0fb3c2	0.03508354
97	0xbdf94ba1	-0.12172628
98	0x3e53f612	0.20699337
99	0x3e079679	0.13240995
100	0xbd4e9bb1	-0.050441448
101	0x3df37e22	0.11889292
102	0xbe196880	-0.1498127
103	0xbb4caf80	-0.0031232536
104	0xbd87d3e5	-0.066322125
105	0xbe0f55ad	-0.13997526
106	0xbdbb12f9	-0.09134478
107	0x3e29ac66	0.16569671
108	0xbe46fa15	-0.19431336
109	0xbe4269af	-0.18985628
110	0xbd72d7c0	-0.059287786
111	0xbe0442f0	-0.1291616
112	0x3d2ba99e	0.041909806
113	0xbd35b873	-0.044365358
114	0x3dc0a98a	0.09407337
115	0xbe34d9e7	-0.17661248
116	0xbe1315c0	-0.14363766
117	0x3da60d69	0.081080265
118	0xbdaf8279	-0.085698076
119	0xbe47b7a8	-0.19503653
120	0xbe559db9	-0.20860948
121	0x3dfd0ef9	0.123563714
122	0x3c20f99a	0.009825135
123	0xbd94b568	-0.07261163
124	0x3e1d83a1	0.15382244
125	0xbdb628a9	-0.08894474
126	0x3ddc4345	0.10755018
127	0x3dda040e	0.106453046

psi.2.weight f4 [128, 128]
0	0xbcb146f1	-0.021640273
1	0x3d94b577	0.07261174
2	0x3dcf77de	0.10130285
3	0x3da7dd00	0.08196449
4	0xbdb0463a	-0.08607145
5	0x3ccfb72f	0.025355903
6	0xbc8f4d65	-0.01749296
7	0xbcfeba3a	-0.03109466
8	0xbdc8ee2d	-0.098110534
9	0x3d8e2c9b	0.069421016
10	0xbd13e8eb	-0.0361108
11	0x3d8c1644	0.06840184
12	0xbc892d1c	-0.016745143
13	0xbd762fb9	-0.060104106
14	0xbd8d8a4d	-0.069111444
15	0xbd9cacab	-0.07650121
16	0x3d9594a8	0.073037446
17	0x3c82ae0a	0.015952129
18	0xbd44164d	-0.04787283
19	0xbdbbd98d	-0.09172354
20	0xbdc0585b	-0.093918525
21	0x3dea5da7	0.11443644
22	0xbc5e6f6d	-0.013576371
23	0xbda692a7	-0.081334405
24	0xbd03804d	-0.03210478
25	0x3d2e348f	0.042530593
26	0x3d95c759	0.07313413
27	0x3d59c64e	0.053167634
28	0xbd33ab51	-0.043864552
29	0x3dd63434	0.10459176
30	0x3deb2d08	0.114831984
31	0x3b934500	0.0044943094
32	0x3d9b9913	0.07597556
33	0x3bb79b9c	0.005603267
34	0x3c0c0cfd	0.0085480185
35	0x3b38e6d7	0.0028213763
36	0xbde9d40d	-0.114173986
37	0x3c64267a	0.013925189
38	0xbde7be41	-0.11315585
39	0x3d33b9d3	0.043878388
40	0xbc91f886	-0.0178187
41	0xbdc27cb0	-0.094964385
42	0xbd6c7324	-0.057726994
43	0xbcb1a641	-0.021685721
44	0x3d13a96c	0.036050245
45	0x3c20c487	0.009812481
46	0xbdac1d25	-0.084039964
47	0xbb8a599a	-0.004222107
48	0xbc82d944	-0.015972741
49	0xbdd3e12e	-0.10345684
50	0xbcef5bd7	-0.029218597
51	0xbd97fc29	-0.074211426
52	0xbdcf11a5	-0.10110787
53	0xbd2953cb	-0.041339677
54	0x3d4fd7d4	0.05074294
55	0xbc5e1e7e	-0.013557075
56	0x3d235522	0.03987611
57	0x3d228c7e	0.039684765
58	0x3da9c0fe	0.082887635
59	0xbd173d3c	-0.036923632
60	0x3dc2826c	0.09497532
61	0xbb63932a	-0.0034725168
62	0xbcd1f8ed	-0.025631392
63	0xbcbbdc05	-0.022932062
64	0xbca6e6f8	-0.020373806
65	0xbd2fca21	-0.042917375
66	0xbdade6e8	-0.084913075
67	0x3b593208	0.0033141393
68	0x3dcf08c6	0.10109095
69	0x3bf91de2	0.0076024393
70	0x3d4ae383	0.04953338
71	0xbda82880	-0.0821085
72	0xbd933710	-0.07188237
73	0x3d7aee42	0.061262377
74	0x3d1b0441	0.037845854
75	0xbe0421c5	-0.12903507
76	0x3df547bc	0.11976573
77	0x3daf404c	0.085571855
78	0xbd9a9fb3	-0.075499915
79	0xbc45126f	-0.012028321
80	0xbe073df5	-0.13207228
81	0x3e088ee9	0.13335766
82	0x3b05171c	0.0020307964
83	0x3d0efa19	0.03490648
84	0x3dc93b27	0.098257355
85	0xbd4db300	-0.050219536
86	0x3d805ed4	0.06268087
87	0xbcbf3bbf	-0.023343919
88	0x3c1913ac	0.009343069
89	0xbdf14b5f	-0.11781954
90	0xbd2b5d92	-0.041837282
91	0xbc34115e	-0.010990469
92	0x3d4674a0	0.048451066
93	0xbbefa334	-0.0073131565
94	0xbd01d5b6	-0.03169795
95	0xbda68798	-0.08131331
96	0x3c5435ed	0.01295231
97	0x3d149b5f	0.036280986
98	0x3e0c9fbe	0.13732812
99	0x3d74a67f	0.059729096
100	0xbc4fdba1	-0.012686641
101	0xbcfb84c3	-0.030702954
102	0xbe0120c5	-0.12610157
103	0x3cc5cadb	0.02414458
104	0xbdbfcf86	-0.09365754
105	0xbd099bd8	-0.03359589
106	0xbcb49844	-0.022045262
107	0x3d997aa4	0.07494095
108	0xbdb37cc3	-0.08764031
109	0xbcc86bc1	-0.024465444
110	0x3d5e92c4	0.054339185
111	0xbd8f83db	-0.07007571
112	0x3b0d2b56	0.0021540723
113	0xbc05f51f	-0.008176117
114	0x3d10ac2e	0.035320453
115	0xbc271362	-0.010197492
116	0xbd4740d0	-0.048645794
117	0x3df78cd5	0.120874085
118	0xbc5bcbb1	-0.013415263
119	0xbda4a4ac	-0.08039221
120	0x3cbb097b	0.02283167
121	0x3dd93150	0.10605109
122	0x3d892814	0.066970974
123	0x3c32e0a7	0.010917819
124	0x3ddd0457	0.107918434
125	0xbd6eb2fc	-0.05827616
126	0x3d41705f	0.047226306
127	0x3b1ebacf	0.0024220233
128	0xbc115748	-0.008870907
129	0x3d0bda22	0.034143575
130	0x3c8e46e9	0.017367797
131	0x3da124d4	0.078683525
132	0x3d41b2db	0.04728971
133	0x3d5e8a9a	0.0543314
134	0xbdbaa9a0	-0.09114385
135	0x3ba1cc34	0.004937673
136	0xbdb2ebbe	-0.087363705
137	0x3dcd47c5	0.100234546
138	0x3c9de4bd	0.01927411
139	0x3d8b9ef4	0.06817427
140	0xbd3840e5	-0.044983763
141	0xbb78cd73	-0.0037964254
142	0x3dbc8263	0.09204557
143	0xbd119ab2	-0.03554792
144	0x3dd30caf	0.103051536
145	0x3c38472e	0.011247439
146	0xbdea856f	-0.11451232
147	0xbda3064e	-0.07960187
148	0x3d25aff5	0.04045101
149	0x3d266b1f	0.040629502
150	0x3c432d87	0.01191271
151	0x3c9cc932	0.019138906
152	0xbc82acbc	-0.015951507
153	0x3bc028cc	0.0058642384
154	0x3d0f1ee8	0.034941584
155	0x3d7408e0	0.059578776
156	0x3cb1a30d	0.021684194
157	0xbc04c886	-0.008104449
158	0x3cbec6c7	0.023288144
159	0x3bb8d632	0.0056407684
160	0xbc8cf5e8	-0.017207101
161	0xbc385a48	-0.0112519935
162	0xbe09009b	-0.13379137
163	0xbcfe18bc	-0.031017654
164	0xbd49e9c4	-0.049295202
165	0xbb0236ae	-0.0019869017
166	0x3c7ade19	0.015311741
167	0xbdfbc77a	-0.122939065
168	0x3bf19d93	0.0073735206
169	0xbd727d26	-0.059201382
170	0xbdda9cec	-0.10674462
171	0x3e05cec6	0.13067159
172	0xbd9548a2	-0.07289244
173	0x3ad46124	0.0016203267
174	0xbba4fd39	-0.0050350693
175	0x3c178a4f	0.009249284
176	0xbc07451d	-0.008256224
177	0x3d5d11cd	0.053972054
178	0xbacc147c	-0.001557007
179	0x3c815eac	0.015792213
180	0xbd9087e3	-0.07057168
181	0x3de9e786	0.11421113
182	0xbd3878aa	-0.04503695
183	0x3ca4285d	0.020038778
184	0xbce48403	-0.02789498
185	0x3dfc420f	0.12317287
186	0x3d214fd7	0.03938278
187	0xbc95edac	-0.018301807
188	0xbc3a6b67	-0.011378146
189	0x3d20f59c	0.03929673
190	0x3d6bbce7	0.0575532
191	0xbc76b1a0	-0.015056998
192	0xbd5307c7	-0.05152109
193	0xbd2a0b82	-0.04151488
194	0xbca3eeb7	-0.020011289
195	0x3d018194	0.031617716
196	0x3cccdf3c	0.02500879
197	0x3ddc36fb	0.10752674
198	0x3cc301c0	0.023804545
199	0x3c6ac078	0.014328115
200	0x3be1f06f	0.006895117
201	0x3d89c501	0.06727029
202	0x3c196338	0.0093620345
203	0x3c98e582	0.018664125
204	0xbd7ee7a4	-0.06223263
205	0xbd206260	-0.039156318
206	0xbd39be2f	-0.04534739
207	0xbc59b7f9	-0.013288491
208	0xbc26980f	-0.0101680895
209	0xbd24e043	-0.040252935
210	0x3d7a682e	0.06113451
211	0x3b9eb719	0.0048436043
212	0x3db44f97	0.08804243
213	0xbbeaee4b	-0.00716952
214	0x3df01722	0.11723162
215	0x3c262dae	0.010142727
216	0x3dfccf1d	0.12344191
217	0xbe060771	-0.13088776
218	0x3d1aa47c	0.03775452
219	0xbcecc05f	-0.028900323
220	0x3dd0e0b9	0.101991124
221	0x3da840bd	0.08215473
222	0xbcd476cd	-0.025935555
223	0xbd192592	-0.037389345
224	0xbc13afbb	-0.009014065
225	0x3d7474d1	0.059681717
226	0x3b257a5c	0.0025249934
227	0xbd33cbbc	-0.043895468
228	0x3d2a8559	0.041631076
229	0x3d8c9b0b	0.068655096
230	0xbc582bba	-0.013194019
231	0x3d8a210b	0.06744584
232	0xbc3eff33	-0.011657524
233	0x3df7f66b	0.121075474
234	0x3de46ca2	0.111535326
235	0xbd3b9ad7	-0.045801964
236	0xbd8a9fe0	-0.06768775
237	0xbdee3e4e	-0.116329774
238	0x3b9aa4bd	0.0047193454
239	0xbdd10697	-0.10206335
240	0xbca8e204	-0.020615585
241	0x3c529d97	0.012854955
242	0x3d6252ba	0.055254675
243	0x3d01e5a6	0.03171315
244	0xbcb42d3c	-0.021994226
245	0x3cde6968	0.027149871
246	0x3d11581a	0.03548441
247	0xbd37d035	-0.044876296
248	0xbcfba173	-0.030716633
249	0x3d767a74	0.060175374
250	0x3dfa8e30	0.12234151
251	0x3c3ee391	0.011650936
252	0xbd1bf668	-0.03807679
253	0x3d9661c1	0.07342864
254	0x3d729cff	0.059231754
255	0x3d22b168	0.03971997
