weight_checkpoint_2022-4-4_21-56-10_burSFIJapenJEkfmbNoR.pt (torch, 125375 bytes, 15 tensors)

phi.0.weight f4 [32, 25]
000000 07 10 85 3d 6d 94 f4 bd 25 3a f6 3b ce d3 0a bb
       0.064971976 -0.119423725 0.0075142556 -0.0021183374
000010 d1 07 17 be 76 29 5e bb 57 55 ce 3c ec 32 7c be
       -0.14749075 -0.0033899224 0.025187178 -0.246288
000020 11 03 fd bd 60 cc b8 38 fe 87 e2 bc bd 4c 4b bc
       -0.123541005 8.8118715e-05 -0.027652737 -0.012408433
000030 72 86 ba bd 5b 72 47 be a8 51 15 be 8e 4d 46 be
       -0.09107675 -0.19477217 -0.1458193 -0.19365522
000040 b5 91 c6 3d de 0e a5 3c 02 05 48 3e 73 0f 57 bd
       0.0969576 0.02014869 0.1953316 -0.052504968
000050 1e df 0f be 57 dd 23 3e ca 6a 14 3e 58 07 6e be
       -0.14049956 0.16002403 0.14493862 -0.23244989
000060 f2 05 0f 3c f0 be 19 ba 63 78 19 be cc e2 39 bd
       0.008729445 -0.0005864939 -0.1498733 -0.045382306
000070 b7 0c cf bd 02 49 6b 3d c6 6f 0f be 1b 42 19 3e
       -0.10109847 0.057442673 -0.14007482 0.14966623
000080 66 fc 13 3d e0 3e df 3c fc a8 55 3d 1b f1 2a 3e
       0.036129378 0.02725166 0.05216311 0.16693537
000090 41 cc 29 be 8a e4 ac bd 63 8b 6b 3d 3b aa 23 3e
       -0.16581823 -0.08442028 0.057505976 0.15982907
0000a0 3c 1d 10 3e cc f2 bd 3d c5 ae cc bd dd 0b ac 3d
       0.14073652 0.092748255 -0.09994272 0.084007
0000b0 7d e9 24 3e 32 92 08 be 0c 06 3b 3d 46 3c da bd
       0.16104694 -0.13337019 0.045660064 -0.106560275
0000c0 b9 f5 59 3e f4 ef ff bd d1 49 42 be 6e 89 34 3e
       0.21285142 -0.12496939 -0.18973471 0.1763055
0000d0 95 30 2a bd 1e 02 33 be 55 9e 5d bb 31 e9 4a 3c
       -0.041550238 -0.17481276 -0.0033816297 0.012384699
0000e0 55 5a 9c bc 2d a7 5b be 71 65 27 3e 08 1d 57 be
       -0.019086042 -0.21450491 0.1634729 -0.21007168
0000f0 6f 8e 74 3e e7 d1 15 3e 5b 28 fa 3d c0 e8 99 3d
       0.23882459 0.14630853 0.122147284 0.07515097
000100 49 f9 77 3d e8 10 23 be 56 1d 8e bd f4 b4 1c 3d
       0.06054047 -0.15924418 -0.06939189 0.038258508
000110 42 38 b2 3c b7 50 33 3d 97 c2 d7 3d 77 8f d8 3c
       0.021755341 0.043778148 0.10535162 0.026435597
000120 fb bd e2 bd 00 23 eb 3d 72 ed 95 bc 17 4c 3d 3e
       -0.11071392 0.11481285 -0.0183017 0.18486057
000130 82 54 18 3d f0 00 01 3d 7b 5b 2b bd 27 dc ae bd
       0.037189968 0.031495035 -0.04183529 -0.085380845
000140 1f 00 35 3d 9d c6 ca bc 4b 85 99 3d ae 92 fb 3d
       0.04418957 -0.02475291 0.07496127 0.12283836
000150 77 00 49 be 9d 07 d2 bd 01 af cb bd 76 e5 5e 3e
       -0.19629084 -0.10255358 -0.09945489 0.2176722
000160 e5 f1 4a 3d 73 70 94 3d 5c fc 26 3d ed a0 6a 3d
       0.049547095 0.072480105 0.040768012 0.057282377
000170 14 a9 a7 3d 63 6b 66 3e aa 66 4c be 63 a4 51 3e
       0.08186546 0.22501902 -0.19961038 0.20472865
000180 c0 a4 03 bd b8 a1 64 3e e5 44 4e 3d 57 3a 5d bd
       -0.03213954 0.22327316 0.05035867 -0.054010715
000190 67 c6 ee bb d7 18 72 3e e5 5a 2e bd 13 c6 2b bd
       -0.007286835 0.23642288 -0.042567153 -0.041936945
0001a0 ec 53 3a 3c 49 e9 01 be 7c a1 3b 3d 54 65 19 bd
       0.011372548 -0.12686647 0.0458083 -0.03745015
0001b0 cc 5f 9a 3d 71 85 85 3d dd d1 f6 bd a7 34 73 3c
       0.07537803 0.065195926 -0.12051747 0.014844096
0001c0 3c cd 8a bd 48 d3 57 3d d6 86 de bd e3 a3 1d 3e
       -0.067774266 0.052691728 -0.10865562 0.15394549
0001d0 f8 c5 22 3e f0 cd 30 3d 79 20 5f be 67 54 8f 3d
       0.15895832 0.043165147 -0.21789731 0.0699852
0001e0 1d c5 9b 3d fb 62 d1 3c f7 1b 97 3d 2f bd bd 3c
       0.07605956 0.025559893 0.07378381 0.023161499
0001f0 f5 99 3a be 96 7b 39 be f6 48 53 be 83 31 06 bc
       -0.18222792 -0.1811355 -0.20633301 -0.008190515
000200 4a b0 85 bd 3a 76 0f be c9 79 e7 3d 80 42 1e 3d
       -0.06527765 -0.14009944 0.113025256 0.038637638
000210 33 70 da bd 2e 16 b0 3d f5 61 4a 3e b9 f9 09 be
       -0.106659316 0.085979804 0.1976393 -0.13474168
000220 57 d6 1d bd 93 5a 3d be 5a 3f 05 be 14 23 84 3e
       -0.03853449 -0.18491583 -0.13012448 0.25808012
000230 cf a3 ed 3d ab 70 39 3e 94 bc 93 3d 6f 54 9c bb
       0.1160351 0.18109386 0.07213703 -0.0047708075
000240 6c 02 e5 3d 3f 8f d1 bd a7 f0 11 be 46 92 ed bd
       0.111821026 -0.102324 -0.14251958 -0.11600165
000250 c0 38 48 3e 26 32 94 bd b4 9c 04 3e e4 b2 3c be
       0.19552898 -0.072361276 0.12950402 -0.18427616
000260 2c ab f2 bd 24 96 2b bd d5 86 52 be 23 2c b1 3d
       -0.11849055 -0.041891232 -0.20559247 0.086509965
000270 4a 46 26 be 06 7c b6 3d 18 df e8 bc e1 97 13 3e
       -0.1623775 0.08910374 -0.028426692 0.14413406
000280 85 ab a3 bd 78 65 13 3e b0 26 53 bd 2c 20 5e bc
       -0.07991699 0.14394176 -0.051550567 -0.013557475
000290 36 7d 1d bc c2 37 1b 3e cb cc 50 be 64 86 08 3d
       -0.009612372 0.15157989 -0.20390622 0.03333129
0002a0 26 ba 09 be 95 9a f5 3d 5a 02 e9 3c 05 c0 02 3d
       -0.13449916 0.11992375 0.028443504 0.031921405
0002b0 bb 98 fa 3a 8a b7 99 bd d9 26 21 be 01 5c 60 be
       0.0019119004 -0.075057104 -0.15737475 -0.21910097
0002c0 2c 2a 19 3e f3 33 fb 3c a7 71 0a 3e 5c eb 53 be
       0.14957494 0.03066442 0.13519917 -0.20695251
0002d0 35 d9 f2 3d 4b 15 16 3e 60 01 dc 3d f4 51 70 bd
       0.11857835 0.1465656 0.1074245 -0.058671907
0002e0 fd c6 88 3d 55 32 0f 3e 08 56 44 3c 3b 14 e9 3d
       0.06678579 0.13984044 0.011983402 0.11380812
0002f0 c2 d1 20 3c 53 34 b8 3d 99 2d 10 bd e0 a2 18 be
       0.009815635 0.08994355 -0.035199735 -0.14905882
000300 ad 68 e4 3d 9e bb 1c 3e 1b 15 23 be 25 f8 0c 3d
       0.11152778 0.15305945 -0.1592602 0.034416337
000310 a2 9c 16 be 51 02 f6 3d 8a 7e 4d be 57 85 c3 3d
       -0.14708188 0.120121606 -0.20067802 0.09546917
000320 a4 60 b9 bb 5c 3e 08 bc 5b b0 fa bd 86 6e 23 3e
       -0.0056572724 -0.008315649 -0.122406684 0.1596013
000330 75 eb 79 bc fb 54 20 be d8 e4 cb 3d 63 99 ed bc
       -0.015253891 -0.15657417 0.09955758 -0.029003805
000340 2d 6b 9e bd 95 52 a5 bd 23 1b 82 3e 61 8c c9 bd
       -0.07735286 -0.08072392 0.2541133 -0.09841228
000350 fb 76 22 bc 93 c9 81 bd 3a 26 12 3e 5b e8 0a 3e
       -0.0099160625 -0.06337275 0.14272395 0.13565199
000360 9d ff f3 bb 00 c5 47 3e ad 31 ed 3c 4d 76 15 be
       -0.007446243 0.19508743 0.028954351 -0.1459591
000370 d6 20 01 3e 8e 98 97 bd 1b 53 39 bd 3d 42 93 3d
       0.12610182 -0.07402144 -0.04524527 0.07190368
000380 f3 8c c8 bd b6 d7 70 ba 31 60 0a 3e 31 29 de ba
       -0.09792509 -0.0009187417 0.13513257 -0.0016949532
000390 98 16 1a be 06 a8 30 3d 7b 01 90 3d 4f 22 d1 bd
       -0.15047681 0.04312899 0.070315324 -0.10211622
0003a0 ce 70 bb bc 17 42 aa bd 6b 01 45 3e d7 e1 01 be
       -0.022880938 -0.08313387 0.19238822 -0.12683807
0003b0 bc 2a 5b 3e ab 73 32 be 6d ca cd 3d b2 3c d7 3d
       0.2140302 -0.17426936 0.10048375 0.105096236
0003c0 7a f2 40 3c 71 df 1a 3d 59 d9 25 3d 28 06 9b bd
       0.011776561 0.037810747 0.040490482 -0.075695336
0003d0 71 ab 23 3e 00 e4 ff 3c 4b 1f ab 3d 32 c4 6d 3e
       0.15983368 0.031236649 0.08355578 0.23219374
0003e0 b2 a5 30 3e 2f 2f 39 be da cf 63 3e 0a 00 06 be
       0.17250708 -0.18084405 0.22247258 -0.13085952
0003f0 dc 9a 61 3c 5a 5f 9d bd 6f 87 3d bc 3b 49 ef 3d
       0.0137698315 -0.076842025 -0.011567934 0.116838895

phi.0.bias f4 [32]
000000 a4 ba d5 bd 68 23 c3 bd c5 ba 74 3e 77 97 02 be
       -0.104359895 -0.095282376 0.23899372 -0.12753092
000010 d2 5a 6d bc 49 86 c2 bd 54 8f 49 3e a1 44 57 bd
       -0.014486985 -0.09498269 0.19683582 -0.052555684
000020 50 f8 16 3e 9d 8e 1c be 4f f8 4d 3e 6b 7e ef bc
       0.14743161 -0.15288778 0.20114253 -0.029235085
000030 07 07 7a 3d 2d 49 39 bd 3b 2f 52 3e e6 0f 24 b9
       0.061041858 -0.0452358 0.2052583 -0.00015646181
000040 3d 86 58 3d 6c 13 84 bd 11 d4 8b bd 0a 79 42 bd
       0.052862395 -0.06449017 -0.06827558 -0.047478713
000050 dc 63 d4 bd 56 e3 58 3d 39 5d 12 be fb 68 5f 3e
       -0.10370609 0.05295118 -0.14293374 0.2181739
000060 a1 a3 9e 3c 48 0b f4 3d 04 97 ae 3d 2c 30 47 3e
       0.019365134 0.11916214 0.08524898 0.1945197
000070 ab 99 d3 bb 05 48 ab bd ff 9b 92 bd 43 ad 51 3e
       -0.0064575276 -0.08363346 -0.0715866 0.2047625

phi.2.weight f4 [32, 32]
000000 6c 6f 40 3d 3e 01 d9 bd b8 ab 83 3d 71 9c 51 3e
       0.04698126 -0.1059594 0.06429237 0.20469834
000010 fa dd 78 bd 0a 0c 5e bc 5e c3 e0 bc 5e 26 f2 bd
       -0.06075857 -0.013552675 -0.027436908 -0.11823724
000020 4f 6a 97 3d 62 57 34 be b7 ed 9b 3d 51 af 56 bd
       0.07393324 -0.17611459 0.076137 -0.05241329
000030 99 bb 42 3e fb a2 30 be 3b 25 e1 3d 83 e6 36 3e
       0.19016875 -0.17249672 0.10993429 0.1786137
000040 f0 67 49 3e 81 84 3d 3e 8d c9 17 be 87 7b 5f 3e
       0.19668555 0.18507577 -0.1482298 0.21824466
000050 dd b8 25 3e 43 e4 14 be c0 48 7d 3d 60 05 3f 3e
       0.16183801 -0.145402 0.061836958 0.18654394
000060 7b 5a e9 3d 36 79 10 bd 41 54 29 3e f5 9b 56 3e
       0.11394211 -0.035271846 0.16536047 0.2095793
000070 a3 9b 49 3e 7c 52 13 bc 29 92 44 3e 29 23 d2 3d
       0.19688277 -0.008991834 0.1919638 0.102606125
000080 5b b5 48 3e 99 47 dc 3d 50 01 c4 3d 1d 1e fb 3c
       0.19600432 0.10755844 0.09570563 0.030654008
000090 92 ad 2e 3e 25 45 08 3e ce ec 38 bd 12 a9 1c 3d
       0.170584 0.13307627 -0.04514771 0.038247176
0000a0 b9 4d 2a 3e 26 da 40 be 1f 7e bf bd f4 9f 38 3e
       0.16631211 -0.18833217 -0.093502276 0.18029767
0000b0 d7 37 20 3e 38 ee 2b 3e c8 b7 c6 bb c7 6a 5b 3e
       0.15646301 0.16790092 -0.006064389 0.21427451
0000c0 fa eb d1 3d e4 24 08 3d 3c 15 14 be b9 34 4b bb
       0.10250087 0.033238307 -0.14461225 -0.0031006767
0000d0 9a 84 5a 3e b9 ab ef 3d c8 38 a8 3d 16 c0 91 3c
       0.21339646 0.11702675 0.08213955 0.017791789
0000e0 fe a9 19 3c de ee b5 3d f5 b7 fd bd c4 58 27 3e
       0.009378908 0.08883451 -0.12388603 0.16342455
0000f0 d7 58 40 3e 31 85 f2 bd 2e 26 9d 3c c4 7b a5 bd
       0.1878389 -0.118418105 0.019183245 -0.08080247
000100 b2 71 0c bd 37 5c fa 3b 94 45 d5 3d d9 91 dd 3d
       -0.034288116 0.0076403874 0.104136616 0.10818834
000110 b5 26 8e bc fd c7 d6 3d bc 4a 69 bb 4a 0c ac 3c
       -0.017352441 0.104873635 -0.0035597524 0.021001954
000120 4d db 15 bd 22 05 c6 bb c6 28 1e bd 21 07 23 3e
       -0.036586095 -0.0060430923 -0.038613103 0.15920688
000130 d6 16 14 be 29 0e 3f be f5 8b 27 bd d4 31 73 bd
       -0.14461836 -0.18657745 -0.040904958 -0.05937369
000140 eb 97 7d bd 20 20 fc 3d 06 e2 8d 3d 7d e7 1c 3e
       -0.06191246 0.12310815 0.06927876 0.15322681
000150 03 0e 27 3e 00 b5 b9 bd 50 4e 2f bd 53 00 02 3e
       0.16313939 -0.09067726 -0.042799294 0.12695436
000160 7f 62 03 3e da 1b a4 3c 55 56 ee bd c6 26 07 3e
       0.12830542 0.020032812 -0.1163756 0.13198385
000170 f5 0a 15 be 0d 4a f2 bd ec 79 08 3e 32 dd fb bc
       -0.14554961 -0.1183053 0.1332776 -0.030745123
000180 80 35 42 be 23 fd fa bc c3 5b 02 be f1 1a bc bd
       -0.18965721 -0.030638283 -0.12730317 -0.09184826
000190 af d3 83 bd f0 81 30 bd 9f 3a 73 3d e6 69 13 be
       -0.0643686 -0.043092668 0.059382077 -0.14395866
0001a0 3c 79 90 bd 58 fc 98 3d 25 a1 1d be 07 fa bc bd
       -0.070543736 0.07470006 -0.15393503 -0.092273764
0001b0 7b 59 06 3e 87 b4 3a bd ec c4 2e bd cc 00 09 3c
       0.13120072 -0.04558232 -0.042668268 0.008362006
0001c0 3f d8 07 3e f9 60 96 bc 28 a8 32 be a7 5c ea bd
       0.13266085 -0.018356787 -0.17446959 -0.11443453
0001d0 95 4a 1a 3e 2b 70 3f be 51 1f bc bd 99 07 c9 bd
       0.15067513 -0.18695132 -0.09185661 -0.09815902
0001e0 ee 42 f1 bd b1 f4 a9 3c 61 f0 bf bd 32 3a 43 3d
       -0.11780344 0.02074656 -0.093720205 0.04766292
0001f0 6f de 44 bd 7c 34 0a be fe 64 ae bd 34 09 3b bd
       -0.04806369 -0.13496584 -0.085153565 -0.045663074
000200 2b 78 88 3c d2 69 ac bb 80 7a 52 3e b6 8d a8 bd
       0.016658863 -0.005261638 0.20554543 -0.08230154
000210 06 75 cf 3c 63 90 1d 3d bf 23 0d 3e b1 32 02 be
       0.025324356 0.038467776 0.13783167 -0.1271465
000220 6a e2 c5 bd 4f ad 58 3e d1 1a a3 bd 85 12 86 bd
       -0.09662326 0.21159862 -0.07964099 -0.06546501
000230 c5 38 16 be 86 1c 11 bd c4 a3 eb bd dd 6d a8 3d
       -0.14670093 -0.035427593 -0.11505845 0.0822408
000240 45 94 3c be b2 7e 35 bc a9 11 a1 3b bc 84 1c be
       -0.18415935 -0.01107757 0.0049154353 -0.15285009
000250 78 2e 15 3d 95 d5 2c 3d 25 b2 08 3e 36 bf 11 be
       0.03642127 0.042195875 0.13349207 -0.14233097
000260 ab 79 4e 3e 6b 76 4e 3d 10 0c ca 3d 13 a9 43 bd
       0.201636 0.0504059 0.09865582 -0.047768664
000270 20 32 9e bd 93 53 03 3e a5 ad 13 3e 2e e8 bd bb
       -0.07724404 0.1282485 0.14421709 -0.0057955002
000280 04 fc f5 bd 0f 1e 42 3e 93 5d 8a 3d 3b 10 24 3e
       -0.12010959 0.18956779 0.06756129 0.16021816
000290 26 9c db bd 5c d8 fc 3d a8 8c c3 bd 73 e8 79 bd
       -0.10723142 0.12345955 -0.095483124 -0.061012696
0002a0 e3 bb 9f 3d 1f 72 8d bd 8b fd 44 3e 3a f7 a6 bd
       0.077995084 -0.069065325 0.19237344 -0.081526235
0002b0 45 5c 08 3e 28 f0 b9 bd 53 2a 13 bd 75 9a 02 be
       0.13316448 -0.09079009 -0.035929035 -0.12754233
0002c0 10 8e 72 bd 45 17 53 3e ac 26 7a 3d 27 b2 ef bc
       -0.059217513 0.20614345 0.061072037 -0.029259754
0002d0 53 bf a3 bc 3f 21 35 3e bd 9c 44 bd bf 10 53 3e
       -0.019988691 0.17688464 -0.04800104 0.20611857
0002e0 39 86 3e 3e 5d 14 bb 3d 10 09 cc 3d 04 45 84 bd
       0.1860589 0.09134743 0.09962666 -0.06458476
0002f0 7d 66 c9 bc dd 83 30 be 0c 4d 10 3e 6f 0e 04 3e
       -0.024585003 -0.17237802 0.14091891 0.12896131
000300 a4 98 c6 3d 0c 1b 9f 3d 2d fc af 3d cc 71 a9 bd
       0.09697083 0.07768831 0.085930206 -0.08273658
000310 4a cc 4b be c8 60 4a be b9 8c 30 be 01 10 81 3d
       -0.19902149 -0.19763482 -0.17241181 0.06301881
000320 ea ec 37 be 60 b5 ac 3d c6 93 1c be 10 ac fa bd
       -0.1796147 0.08433032 -0.15290746 -0.122398496
000330 7d f6 83 bd a8 15 29 bc 95 12 61 3d a8 48 14 be
       -0.06443498 -0.010320105 0.05494936 -0.14480841
000340 41 7d bc 3d 64 98 c9 bd f5 71 eb 3d b8 28 cb bd
       0.09203578 -0.09843519 0.11496345 -0.09919876
000350 d0 fa 77 bd 9e ec 70 be 06 32 4e bd 65 6d 96 3d
       -0.060541928 -0.23527762 -0.050340675 0.07345084
000360 95 c2 31 3e c8 4a a5 3d 0f f5 72 3d b3 b4 88 bd
       0.17359383 0.08070904 0.059315737 -0.06675091
000370 f2 62 36 be ba e8 2c be e0 51 65 bc 07 fb 22 3d
       -0.17811182 -0.16885653 -0.013996571 0.03979018
000380 40 07 9f 3d 72 22 ce bb d4 81 97 3d 2b 7e 13 be
       0.07765055 -0.0062907273 0.073978096 -0.14403598
000390 e5 14 3a be d4 77 76 be a5 db 02 3e 20 b8 8c 3d
       -0.18172033 -0.24069148 0.127791 0.068710566
0003a0 db 08 98 bc 85 65 be bd 4a a8 b3 3c e5 ba b3 3d
       -0.01855891 -0.09296707 0.021930832 0.08775882
0003b0 5d 79 23 be 21 dc f6 3d a0 a7 10 bd 79 37 54 be
       -0.15964265 0.12053705 -0.03531611 -0.20724286
0003c0 bc 6b 46 be ae 2e c8 3d e8 6c bf 3c 46 f2 af ba
       -0.19377035 0.097745284 0.02336736 -0.0013423644
0003d0 08 6a 5e bb bf 1b 00 3e 1b 2b c3 3d 34 6a a7 3b
       -0.0033937711 0.12510584 0.09529706 0.005109096
0003e0 a1 c8 db bc ed 44 0c be 1e c0 ac 3c bf e0 e8 bd
       -0.026829066 -0.13698168 0.021087702 -0.11370992
0003f0 19 22 1b 3e ea c2 d3 3d c6 06 35 be 00 48 17 be
       0.15149726 0.10339911 -0.17678365 -0.1477356

phi.2.bias f4 [32]
000000 b6 21 63 bd 3e 35 9f bd c9 b7 34 bd 06 90 a7 bb
       -0.05545207 -0.07773827 -0.044120584 -0.0051136045
000010 d8 41 91 bd 42 ca 12 3e 5a 61 80 3d 00 be 70 3b
       -0.07092637 0.14334968 0.06268568 0.0036734343
000020 18 61 37 bd 1d fb da bc f5 2e 96 3d 14 2c a3 3d
       -0.04477033 -0.026731068 0.07333175 0.079673916
000030 95 1f d9 bd b6 73 68 3d ce 24 c1 3c ac d6 dc 3d
       -0.10601727 0.056750976 0.02357712 0.10783133
000040 2c e4 79 3d 76 02 1d 3e 53 2c 2a 3e d3 cf e3 bd
       0.061008617 0.1533297 0.16618471 -0.11123624
000050 c8 0e b8 3d db 48 46 3c 2a fd f8 3d 11 d6 b9 bd
       0.08987194 0.012102331 0.12157662 -0.09074033
000060 e1 3f 29 3d 84 96 0e be 90 6e ce 3d f5 c0 15 3e
       0.041320685 -0.13924605 0.10079682 0.14624389
000070 e7 21 c4 bd c8 f9 a2 3d 5f f6 02 be 41 e3 28 3e
       -0.09576779 0.07957798 -0.12789296 0.1649294

phi.4.weight f4 [28, 32]
000000 b8 73 17 be a7 c6 bd bd f8 12 b5 3d 14 80 8c 3d
       -0.14790237 -0.092664056 0.088415086 0.068603665
000010 ec 58 96 3d 5e b4 f7 bc 85 ea c4 3d 3f 5d 20 3e
       0.07341179 -0.030237373 0.096150436 0.1566057
000020 55 f2 25 bd 64 a8 b6 ba a0 59 60 bd 64 58 47 be
       -0.04051431 -0.0013935682 -0.054772973 -0.19467312
000030 57 f2 d7 bd 35 e9 ba bb 26 8e 9c 3c 2a d1 88 3c
       -0.105442695 -0.00570407 0.01911075 0.0167013
000040 f1 d2 11 bd 4c 31 ce 3d c6 0d d4 bd 02 aa 8c 3d
       -0.03560156 0.100679964 -0.103541896 0.06868364
000050 02 62 96 3d aa 28 21 be a6 b4 2e 3e a2 ea f9 bd
       0.07342912 -0.15738168 0.170611 -0.12202956
000060 bd 12 b5 bc cb 15 9a 3b 3f e6 6d bc 38 23 39 3d
       -0.022103662 0.004702305 -0.014520227 0.045199603
000070 e2 d8 03 3e 89 07 93 bb 0e 5b d6 bd 3e 69 c5 bd
       0.12875703 -0.0044869822 -0.10466586 -0.09639214
000080 7d cb 46 3e ec 40 9c 3d 8b 5c 50 3e 2e 5f 8e bd
       0.19413562 0.0762957 0.20347802 -0.06951748
000090 e3 ad b4 bd 4e 7d 95 bc 09 4d ab 3d 98 34 d7 bd
       -0.08822229 -0.018248226 0.08364303 -0.10508078
0000a0 87 81 b2 3c fb e5 1e 3e 2d 3a 0f 3e 66 e7 6d bd
       0.02179028 0.15517418 0.13987036 -0.058082007
0000b0 48 ba 30 bb a0 44 3c 3e 7b 1c ed 3d da d9 cc bd
       -0.00269665 0.18385553 0.11577698 -0.100024894
0000c0 51 66 9a bd 65 d0 fd bd c2 a1 15 bc 67 76 e9 bc
       -0.075390466 -0.12393264 -0.009132804 -0.028498841
0000d0 66 95 5d bc d0 a6 27 3e 40 6e 96 bd f8 36 b5 3d
       -0.013524389 0.16372228 -0.07345247 0.08848375
0000e0 63 1c 3d 3e 0b f2 c4 bd 1f 33 b4 3d 17 d8 f8 bd
       0.1846786 -0.096164785 0.08798813 -0.12150591
0000f0 b7 ae b6 bc 85 62 4f be d9 d2 22 3e 8d ec 68 3d
       -0.022300107 -0.20252426 0.15900744 0.056866217
000100 42 cb 4a bd b8 3e b3 3c f2 c3 45 3d eb 9a a0 3c
       -0.049510248 0.021880493 0.04828257 0.01960512
000110 6b dc 5b be cb fc 05 3e fc 77 83 3c d6 35 4b 3d
       -0.21470802 0.13084714 0.016048424 0.04961189
000120 3a 82 24 3d 2b 21 25 3e 83 ba 6c bd 66 f4 d2 bd
       0.040163256 0.16125934 -0.05779506 -0.103005216
000130 8f 76 4f be d7 39 1d 3e 44 e3 54 be df a3 a1 bc
       -0.2026007 0.15354095 -0.2078982 -0.01973146
000140 0d e9 c4 3d 6c ce 6e 3d 2a d8 7a 3d 53 8c c3 3c
       0.096147634 0.058302328 0.061241306 0.023870623
000150 3a b1 c0 3c dd cc 12 be 0a 75 83 bc 7b 2d 1c 3e
       0.023522008 -0.14335962 -0.01604702 0.15251724
000160 9e cd 0a 3d a5 a3 35 bd cd ac 37 be 16 dc fe bd
       0.033887498 -0.044345517 -0.17937012 -0.12444322
000170 ff ac be bd 5a 2f ca 3d 79 cf f8 3d dd 39 b4 bd
       -0.0931034 0.09872313 0.12148947 -0.08800099
000180 41 0c c6 3d 6c 10 68 3e 69 ea 0d 3e c8 ad b5 3d
       0.09670306 0.22662514 0.13858952 0.08871037
000190 71 70 92 bd d4 0e 04 be 50 8d 88 3d 26 07 17 3e
       -0.07150353 -0.12896281 0.06667578 0.1474882
0001a0 96 65 82 3d 04 75 0b 3d 89 38 70 bc 22 ba 47 bc
       0.06367032 0.03404714 -0.0146619165 -0.012190374
0001b0 6d 36 28 be 7d d3 a7 3c b8 89 bd 3c b9 c8 e3 bc
       -0.16427012 0.020486588 0.023136958 -0.027805673
0001c0 a3 9a 56 3e fc f9 c7 bd ec 45 ce 3d 8e 69 1b 3e
       0.20957427 -0.097644776 0.1007193 0.15176985
0001d0 b7 ad 6f 3d a9 4c ce 3d f7 80 73 3d be a1 8a bd
       0.058515277 0.100732155 0.059449162 -0.06769131
0001e0 c5 53 84 3d f1 da 2e bd 69 f1 c1 bc 7e 47 82 bb
       0.0646129 -0.042689268 -0.023674684 -0.0039758077
0001f0 2e 84 aa 3d 45 9a c5 bc ff 8c 01 3c 58 40 46 3e
       0.083259925 -0.024121413 0.007907151 0.19360483
000200 00 56 3b bd 2f c1 b8 bd 20 2a f2 3d 87 78 d3 3c
       -0.045736313 -0.09021222 0.11824441 0.025814308
000210 c0 09 64 3d f0 7d e9 bd c2 bc a0 bd c9 64 b9 bd
       0.05567336 -0.11400974 -0.07848503 -0.09052426
000220 6c c2 0c be c6 ca 39 bd 99 fa ff bd ea 84 e6 3d
       -0.13746041 -0.045359395 -0.124989696 0.1125582
000230 17 ad 51 3d cd 76 c8 bd fd 5d b9 3d e6 3d f3 3d
       0.051190462 -0.097882845 0.0905113 0.118770406
000240 3d f4 04 3e dc 2d 22 3e 92 00 2e 3e 8a 4d c5 bd
       0.12983795 0.15837806 0.16992405 -0.0963393
000250 6f 4b ea 3d bf c6 c4 bd 30 5b c9 3d 48 f6 8e bc
       0.11440169 -0.0960822 0.09831846 -0.01745142
000260 6d 4d b5 bd 10 84 09 be 1c 35 2e bd c6 fe 33 3e
       -0.088526584 -0.13429284 -0.042531118 0.17577657
000270 04 7d 2a 3e 10 02 45 3e 83 04 20 bb 4b b1 5f bd
       0.16649252 0.19239068 -0.0024416752 -0.05461244
000280 70 ea b6 bd 58 84 14 3e d3 99 50 be 9e 16 06 be
       -0.08931434 0.1450361 -0.2037118 -0.13094565
000290 a1 c3 32 3e fd a2 fd 3d f8 91 9d bd 5f 18 eb 3d
       0.17457439 0.12384603 -0.07693857 0.11479258
0002a0 c0 ad a2 bc 7d a6 56 bd b9 72 e3 bc 25 4d 00 be
       -0.019858241 -0.05240487 -0.027764665 -0.12529428
0002b0 b1 ac 48 3e 0b c4 a6 bd 22 f7 e6 3d 65 67 91 3d
       0.19597127 -0.08142861 0.112776056 0.07099799
0002c0 e0 cf 4b bd 85 53 7c 3e c4 c4 40 bb 00 be f2 3d
       -0.049758792 0.24641235 -0.0029414156 0.11852646
0002d0 b6 79 91 bd e2 ff 08 be f4 2a 4b 3e 1c 3e 4b be
       -0.07103293 -0.13378862 0.19840604 -0.19847912
0002e0 49 1a bf 3d 65 29 aa 3d 56 a4 05 3e 8c 05 08 3e
       0.09331185 0.08308677 0.1305097 0.13283366
0002f0 cb 8a a4 bd 69 4f 65 3d c7 9b d6 3d ab 13 0b 3d
       -0.08034285 0.055983935 0.10478931 0.033954304
000300 60 20 d4 3c 01 12 8a 3c 10 9e b5 3d e9 3c 63 3c
       0.025894344 0.016854288 0.08868039 0.013869503
000310 1f b2 d9 bd 2a 50 ef 3d 7e 16 f0 3d 24 67 c2 3c
       -0.10629677 0.11685212 0.1172304 0.023730822
000320 a3 4d f9 bb 92 cc 37 3c e5 9c 05 3e 9c d2 bf 3d
       -0.007608132 0.011218207 0.13048132 0.093663424
000330 b7 be c8 bd f7 a5 0a 3e 73 31 61 bd 28 a2 85 3d
       -0.09802001 0.13539873 -0.0549788 0.065250695
000340 39 d5 85 bd 6c 9a 84 3d 0d df e4 3d 00 02 1b bd
       -0.065348096 0.06474766 0.11175356 -0.037843704
000350 f8 fc f1 3c bb c3 c2 bc f7 3d 82 3d a3 ed aa 3d
       0.02953957 -0.023774972 0.06359475 0.08346107
000360 66 6a 27 3e 69 9c af 3d b2 e4 aa 3d 35 5c bf 3c
       0.16349182 0.08574755 0.083444014 0.023359397
000370 9d 65 c5 3d 0b 8f c2 3a b7 84 57 3d 42 49 53 bd
       0.09638522 0.0014843656 0.0526168 -0.051583536
000380 43 d9 d7 3d 94 dc 62 3e e7 2d be bd 13 c8 2d bd
       0.10539486 0.22154456 -0.09286099 -0.042427134
000390 54 74 81 bc c4 3c d8 3c 8e 04 0d bd 5b fc 22 bb
       -0.01580254 0.026396163 -0.03442817 -0.0024869654
0003a0 c8 bf d1 3c 42 ab 52 3d 93 6d cd bd fd 59 3e 3e
       0.025604144 0.051432855 -0.10030665 0.18589015
0003b0 43 3e 02 be d5 dc 68 3d 01 5e ba 3c bd 59 b9 3d
       -0.12719063 0.056851227 0.022749903 0.09050319
0003c0 d8 ef c8 3d c8 40 eb bd aa da d7 bd ea 6d d8 3d
       0.098113716 -0.114869654 -0.10539754 0.105678394
0003d0 a8 d6 ff 3d a8 12 fe 3d 5e f9 60 3d c3 08 20 3e
       0.12492114 0.12405902 0.054925315 0.15628342
0003e0 79 00 27 bd c2 f8 39 3d fc e4 41 bd cb 7c 11 be
       -0.040771935 0.04540325 -0.047337517 -0.14207761
0003f0 c9 63 26 3d 78 3d 99 3c 51 f1 94 3d 55 92 f0 3d
       0.040622506 0.018706068 0.0727259 0.117466606

phi.4.bias f4 [28]
000000 47 2a 1a bd 9e 7f 0d 3d 28 ac b9 3d ee ac 35 3e
       -0.037637975 0.034545533 0.09066039 0.17741749
000010 f0 83 f9 3c 34 ae 45 3e 32 c8 09 be a9 eb a8 bc
       0.03045842 0.19304734 -0.13455275 -0.020620184
000020 d2 ed 80 3d ce 50 3d 3e 14 9f 54 3e d7 86 49 3e
       0.062953606 0.18487856 0.20763808 0.19680344
000030 6e d0 b6 3d f5 d6 b4 3d 87 2d 30 3b 48 b2 bc bd
       0.089264736 0.08830062 0.0026882605 -0.09213692
000040 4b 25 be 3c 22 d0 90 3d a0 f6 32 3e ac 24 1f 3e
       0.023211142 0.07070948 0.17476892 0.15541333
000050 92 3f 17 3e 1d d7 24 be a8 f5 47 3e 33 c7 8b bd
       0.14770344 -0.16097684 0.19527304 -0.068251036
000060 11 7e a6 3d 7b 01 17 3e b5 fd f4 bd cc 45 99 3d
       0.08129514 0.14746659 -0.11962453 0.07484016

phi.6.weight f4 [25, 28]
000000 02 c5 00 3e ac aa 22 be 01 43 30 3c cd 33 27 be
       0.12575153 -0.15885419 0.0107581625 -0.16328354
000010 c1 48 ab bd 70 5a e9 bd 3c b8 2d bd 14 39 4d be
       -0.08363486 -0.11394203 -0.042412028 -0.20041305
000020 c2 d2 ff bd 53 96 e5 3b eb a5 4a 3d 97 c7 19 be
       -0.12491371 0.0070064454 0.049474638 -0.15017544
000030 11 c2 ea bd 77 42 41 bd 4c 00 20 be 3f 9f 32 be
       -0.114627965 -0.047182526 -0.15625113 -0.1744356
000040 07 90 0e bc 79 4c f2 bb f4 13 35 be cb 5e 13 bd
       -0.008701331 -0.00739437 -0.17683393 -0.035979073
000050 6f a6 da bd 59 7f 11 be 05 0f 96 bd 2e d7 50 3d
       -0.10676276 -0.14208736 -0.073270835 0.05098646
000060 18 d8 9a 3d 38 b5 2d 3e 1b 83 e3 bd 0c 61 5a bd
       0.07560748 0.1696366 -0.11108991 -0.053315207
000070 b6 1e 83 bd 13 ab 64 3d c6 a9 45 be 7a 2e 24 bd
       -0.06402342 0.05582721 -0.19303045 -0.040083386
000080 d1 f8 39 bd c4 30 8d bd 16 05 d7 bc 89 92 20 be
       -0.045403305 -0.06894067 -0.026247542 -0.15680899
000090 1d d3 81 3d d5 4d 81 bd 42 f9 af 3d b1 da 0b 3e
       0.06339095 -0.063136734 0.08592464 0.13657643
0000a0 e2 40 5b bd 96 c3 fe 3d 27 7b 88 bc 7c 36 d3 bd
       -0.053528674 0.12439649 -0.016660286 -0.103131264
0000b0 11 ed 6c bc 72 a4 87 bd 99 b0 b6 bd 89 e7 67 3d
       -0.014460818 -0.06623162 -0.08920402 0.056617294
0000c0 e9 4a 2c bd 75 7c 00 be 62 90 fd 3b e9 46 89 3b
       -0.042063627 -0.12547477 0.007738159 0.0041893614
0000d0 72 13 36 be 2f 2e 2c 3e b5 2d 33 be 7e 87 95 bd
       -0.17780855 0.16814493 -0.17497905 -0.07301234
0000e0 e1 68 0c be 08 3a ce bd 37 1e da bc 20 5f 15 3e
       -0.13711883 -0.10069662 -0.026625736 0.14587069
0000f0 4b bd 2f be be d7 60 3d 1d 1a 23 be f5 ed 48 3e
       -0.17162053 0.054893248 -0.1592793 0.19622023
000100 3d 38 35 3e d8 a8 d2 3b bc 4b 39 3e bf 70 a9 bd
       0.17697234 0.006428819 0.18095297 -0.08273458
000110 d5 0e d3 3d ac fe 30 3e 07 87 f7 3d cd fa 1c bd
       0.10305563 0.1728465 0.12086301 -0.03832512
000120 1a b3 1b 3d 1a 04 19 be 3c 65 ef 3d c9 da b8 3c
       0.0380126 -0.14942971 0.11689231 0.022565262
000130 d8 ba 97 3b 7b 46 91 3c ec 75 a9 bd b4 4d f4 3d
       0.004630428 0.017733803 -0.08274445 0.11928883
000140 0a e2 22 3e 23 83 2c be 59 57 34 3e 90 d5 6f 3e
       0.1590654 -0.168469 0.17611445 0.23421311
000150 e3 93 97 bd 8c 52 49 3e cb 72 a1 bc 2f b0 1c be
       -0.07401254 0.19660395 -0.019708058 -0.15301584
000160 24 b2 6e be 2f b7 ac 3d 40 5a 40 3e 7b a8 71 3d
       -0.23310143 0.08433377 0.18784428 0.058998566
000170 c7 38 15 3e e5 8d f9 3d 88 28 16 3e aa c5 8c bd
       0.1457244 0.12185267 0.14663899 -0.06873639
000180 59 58 41 be 41 b6 0f be 31 bd 96 3d 1b b8 c7 bd
       -0.18881358 -0.14034368 0.07360304 -0.09751912
000190 9b cc 01 3d 79 53 80 bd 33 76 8f 3d 32 1c 45 be
       0.031689268 -0.06265921 0.070049666 -0.19249037
0001a0 bb 05 37 bd b4 08 4a 3e 14 b8 14 be 80 00 60 bc
       -0.0446832 0.19729882 -0.14523345 -0.013671994
0001b0 b9 07 54 3c d3 aa 44 be cd 62 76 3c b9 b5 65 3d
       0.012941294 -0.1920579 0.015038204 0.056081507
0001c0 13 86 63 3d d3 d5 c2 3d 6b 9c b3 3d 93 ee 4c be
       0.055547785 0.0951344 0.08770069 -0.20012884
0001d0 a0 73 8b 3d 22 27 2a be f5 92 54 3d 5b 16 10 3e
       0.06809163 -0.1661649 0.05189796 0.14071028
0001e0 df 5f 8a bd 8e a3 6b bd 6c e2 41 ba 0e 8c 26 3d
       -0.06756567 -0.057529025 -0.0007396105 0.04066091
0001f0 ee 8f ef bc 17 22 36 be 12 92 66 bd ee 03 1e 3e
       -0.029243436 -0.17786442 -0.056291647 0.15431187
000200 06 e1 a2 bd f3 a1 e0 bd 1c 7a e8 bd af 42 5d be
       -0.07953076 -0.10968389 -0.113514155 -0.21607469
000210 1c 29 ad bc 0a 0a 52 3e 77 91 1f be e4 ec a2 bd
       -0.021137767 0.20511642 -0.15582834 -0.079553396
000220 80 67 af bd ae a5 7f be 07 02 f6 3d 3a 9b 29 3e
       -0.08564663 -0.24965546 0.120121054 0.1656312
000230 67 26 3b be 7c 0f c6 bd a2 01 98 3b 21 23 b8 3d
       -0.18276368 -0.09670922 0.0046388665 0.08991075
000240 79 4d 02 bd 78 56 69 3e 5d be 0e be ca af 33 bc
       -0.031812165 0.22786891 -0.13939805 -0.010967204
000250 f7 e0 84 3d 5d 96 e8 3b 5a 5e 58 3e d5 ee af 3d
       0.06488221 0.007098003 0.21129742 0.085904755
000260 f5 0d f4 3d 3c 5b 0a 3d cc b4 d4 3d 1d 21 29 3e
       0.119167246 0.033778414 0.10386047 0.16516538
000270 41 3c 50 be ee 2b 04 3e 4a 97 be bd 5f 0d 16 3c
       -0.20335485 0.12907383 -0.093062 0.009158461
000280 02 70 8d 3d ce 02 99 3d 49 84 0c 3e ad 6c 8e bb
       0.069061294 0.07471238 0.13722338 -0.0043464513
000290 9f 37 64 3d 65 04 24 3e d0 16 8c 3d 76 74 f5 3d
       0.055717107 0.16017301 0.06840289 0.11985104
0002a0 96 24 f8 bd ae de d5 bd f5 c0 95 3c 14 ce a4 3c
       -0.12116353 -0.104428634 0.018280486 0.020117797
0002b0 6d bd e8 bd 47 9d 17 be e4 4d af bd e6 66 66 bc
       -0.11364255 -0.1480609 -0.08559778 -0.014062619
0002c0 32 77 48 3e 3b 48 ca bd 3b f3 3c be 67 82 b8 3c
       0.1957672 -0.09877058 -0.1845216 0.022523118
0002d0 49 2b 88 3d d4 a1 98 bd 6e d8 b6 bd e9 d9 0b 3e
       0.06648881 -0.07452741 -0.089279994 0.13657345
0002e0 3e e3 69 3e 15 77 78 be 68 de 39 be ff f7 6d be
       0.22840592 -0.24264176 -0.18151248 -0.23239134
0002f0 37 82 c8 bd 80 39 3c be 86 d7 98 bd 7a 50 88 3d
       -0.097904615 -0.1838131 -0.07462983 0.06655975
000300 9b 6f b5 bc ef 1e 6f be 63 d8 dd 3d fa 83 17 3d
       -0.022147944 -0.23351644 0.10832288 0.036991097
000310 f0 66 47 bd 69 a6 06 be a9 0a af bd c3 5b 2e 3d
       -0.048682153 -0.13149418 -0.08546955 0.04256798
000320 25 59 52 be 8a 4d 3a 3e 55 b1 ae 3d f4 fd f5 3d
       -0.20541818 0.18193641 0.08529917 0.12011328
000330 8a d8 e9 bc 69 11 94 3d fd 99 af bd 95 3f 44 3d
       -0.028545637 0.07229883 -0.08574293 0.0479122
000340 06 0d bd bd 2a 8c 84 3d 2f 06 7d 3b 61 3d 07 bd
       -0.09231 0.06472047 0.0038608422 -0.03301752
000350 e0 2f fa b7 18 0c 84 3b e4 31 8d bd 93 b6 a4 3d
       -2.9824616e-05 0.004029762 -0.068942815 0.08042636
000360 12 90 14 3e 41 9e fe bd 88 86 13 3d 8e a7 fe bd
       0.14508083 -0.12432528 0.03601697 -0.12434302
000370 44 e6 24 3e 8d a4 57 be ff b8 f0 3d e5 f5 42 bd
       0.16103464 -0.21058865 0.11754035 -0.047597785
000380 10 30 da bd 7b 44 13 bd 12 65 47 3d 76 c2 10 be
       -0.106536984 -0.03595398 0.048680373 -0.14136681
000390 47 8f 3e 3e 32 fa 42 3a 0e 62 c6 3d 02 0d 41 be
       0.18609343 0.00074377947 0.09686671 -0.18852618
0003a0 29 da f5 3d ce 6e 44 3e 8e 67 96 bd 97 4b 53 3d
       0.120045014 0.19182894 -0.0734397 0.05158576
0003b0 fe c4 b1 bd 0f a9 58 3e f4 d7 05 3d 45 a7 20 3e
       -0.086801514 0.2115824 0.032676652 0.15688808
0003c0 12 b6 80 bd ed a0 05 3d f6 55 8d bd df e9 9d bd
       -0.06284727 0.032624174 -0.069011614 -0.07710623
0003d0 ca bc f8 bd 5b b3 41 bd c9 bc ff 3d e9 b8 e2 bd
       -0.12145384 -0.047290187 0.1248718 -0.11070425
0003e0 60 e5 93 3d 5c 26 98 3d 6d a6 d9 bd 0d 8b 0b 3e
       0.07221484 0.074291915 -0.10627446 0.13627262
0003f0 9e 50 ce bd 26 34 36 3e dd 00 bb 3d a9 a9 e3 bd
       -0.1007397 0.1779333 0.09131024 -0.111163445

phi.6.bias f4 [25]
000000 da 02 26 be e2 47 ec 3d 45 97 ab bd c8 b6 02 bd
       -0.16212025 0.11537148 -0.08378462 -0.031912595
000010 de 77 c8 3c 69 17 4a 3d 03 7d 8f 3c dd a5 da bd
       0.02447122 0.049338732 0.017515665 -0.10676167
000020 41 17 1e 3e 88 18 9f bc 8c 6e 26 3e d0 7f 62 3d
       0.15438558 -0.019420877 0.16253108 0.055297673
000030 b9 f4 81 3c 2d 82 2d 3d 4e 95 f2 bd 4e 6f 18 be
       0.015863763 0.042360473 -0.11844884 -0.1488621
000040 24 a2 28 be 32 73 61 3d f3 3a 25 3d 85 64 d8 bd
       -0.16468102 0.0550415 0.04033942 -0.105660476
000050 14 44 a5 3d ee 0f 83 bc 22 b5 10 3e 3e a2 fe 3d
       0.080696255 -0.015998807 0.14131597 0.12433289
000060 6a 01 23 3e
       0.15918508

psi.0.weight f4 [128, 26]
000000 4e 3a 86 3d ac bc 40 bd 8e 3e fa ba 3c 41 75 bb
       0.065540895 -0.04705493 -0.0019092129 -0.0037422916
000010 a9 16 93 3c e3 9e 14 3e 6e 5c ba 3c 8b ea 08 3e
       0.017955141 0.14513735 0.022749152 0.13370721
000020 4d 52 19 bd fc 22 fa 3c 47 7d 49 bd fe a0 86 3b
       -0.037432004 0.03053426 -0.04919174 0.0041085472
000030 a8 81 25 3e 3a 3e 1f 3c 01 23 c5 bd e6 e3 d8 3d
       0.16162741 0.009719426 -0.09625817 0.10590343
000040 43 b5 86 bd 48 c7 a8 3d ce da a6 3d 70 73 d8 ba
       -0.06577542 0.08241135 0.081472024 -0.0016513895
000050 1d 9a 89 bc fb fe 94 3c 0c e9 54 be 32 d9 ca 3d
       -0.01679712 0.01818799 -0.20792025 0.09904708
000060 b6 3b ae bd 3b e0 5f bd 4c 55 1b 3e d0 fd 7b bb
       -0.08507483 -0.054657202 0.15169257 -0.0038450845
000070 bb 66 60 3d eb 6d 5b 3d 76 be 10 3e 43 67 a9 3d
       0.05478547 0.053571623 0.14135155 0.08271649
000080 92 92 dd 3b 67 ce fd 3d 36 d3 65 3c 9d b1 84 3d
       0.0067618573 0.12392884 0.014027407 0.064791895
000090 20 b9 93 bd 9e ce c3 bd 3e a5 01 3e 28 35 0e 3e
       -0.07213044 -0.095608935 0.12660691 0.13887465
0000a0 13 34 8a bc 97 8f c0 bd 73 20 24 3e bd b3 87 3a
       -0.016870534 -0.094023876 0.16028003 0.0010353249
0000b0 87 35 ae bd a9 59 06 3e ef f6 0d be dd 94 72 bc
       -0.08506303 0.1312014 -0.13863729 -0.014806
0000c0 54 36 f9 bd 7c b0 00 3e c5 5b fc bd ed 40 56 3e
       -0.121685654 0.12567323 -0.12322191 0.20923205
0000d0 6c b3 fa bd 66 3c 82 bb ab e9 25 3e 72 41 b8 3d
       -0.12241253 -0.003974485 0.16202419 0.08996858
0000e0 28 f4 52 be 0f 40 07 3e e1 07 ea bd e8 12 11 be
       -0.2060095 0.1320803 -0.11427284 -0.14167368
0000f0 e0 3b 5c 3e 88 3e e5 3d c3 f3 6a 3e 9e 4b 8f 3d
       0.21507215 0.111935675 0.2294455 0.06996845
000100 a6 40 a2 3c eb a4 9b 3d 04 18 57 be f6 67 89 bd
       0.019806217 0.07599815 -0.21005255 -0.06709282
000110 10 71 4e bd 37 52 38 bc b9 7d 39 be 31 01 01 3d
       -0.050400794 -0.01125007 -0.18114366 0.031495277
000120 63 6d 58 be 8b 46 0c be 02 93 fc bd 3d 59 e5 bd
       -0.21135478 -0.13698785 -0.12332727 -0.111986615
000130 c2 7d 0d be 2f ef 94 bd 12 4b 3c be 48 96 6b be
       -0.13817504 -0.07272183 -0.18388012 -0.23006546
000140 c9 c7 82 bc 3c ec 30 be 23 72 ce 3d 1d f1 94 bd
       -0.015964406 -0.17277616 0.100803636 -0.07272551
000150 e4 37 05 be 52 dd 87 3d f5 65 07 be 7e 79 1f 3e
       -0.13009602 0.066340104 -0.13222487 0.1557369
000160 c4 fe 3c be 75 ff cf bd f4 00 b2 3d e9 38 59 3e
       -0.1845656 -0.101561464 0.08691588 0.21213116
000170 dd 98 ec bd b8 ce 04 bd e6 2f d8 bd 6c 2e e4 bd
       -0.11552594 -0.032423705 -0.10556011 -0.11141667
000180 09 ca 9e 3d dc 54 0b bd 1e 3e 1e be 0b 0f 9c bc
       0.07753379 -0.034016475 -0.15453383 -0.019050142
000190 c3 66 9b bb 29 0e 0a 3d 7a fb f8 bc 3c e1 0d 3e
       -0.0047424748 0.03370491 -0.03039335 0.13855451
0001a0 5e 14 b3 3b ee 51 91 3d 49 4c f4 bd 5c c7 07 3e
       0.0054650744 0.07095705 -0.11928613 0.13259643
0001b0 56 06 1e 3e c2 77 8b bd c6 c1 51 bd fc 99 3f 3e
       0.15432104 -0.06809951 -0.051210187 0.18711084
0001c0 54 82 1f bd 33 df 34 3e f5 81 2e 3c 47 db 39 be
       -0.03894265 0.17663269 0.010651101 -0.18150054
0001d0 53 03 8e 3c cf 5c 8d 3d 24 0d 22 bd 23 43 3f be
       0.01733557 0.069024675 -0.039563313 -0.18677954
0001e0 a6 90 ae bc 70 c2 fa 3d f4 a4 d3 bd 3b 50 ca bd
       -0.021309208 0.12244117 -0.10334197 -0.09878584
0001f0 c7 fb ac 3d 85 e0 f9 bd a9 4f 38 be 6b a2 66 bd
       0.0844646 -0.12201027 -0.17999138 -0.056307238
000200 8e 51 f5 bd 0a 83 01 be 05 9b 23 bd 0e cc b9 bc
       -0.11978446 -0.12647644 -0.03994276 -0.022680309
000210 88 21 25 3d ea 97 38 3e 3e 14 27 3e 85 35 1f be
       0.04031518 0.180267 0.16316316 -0.1554776
000220 fe 32 b3 bd e5 02 17 3d 33 56 ac 3d a5 56 ac 3d
       -0.0874996 0.036867995 0.08414879 0.08414964
000230 39 71 5a be 80 56 d4 3d c2 1d 03 3c 9e 2a d0 bb
       -0.21332254 0.10368061 0.0080027 -0.0063527366
000240 aa 34 35 3e ce e9 8b bd 98 03 08 3e 80 e6 24 bd
       0.17695871 -0.06831704 0.13282621 -0.040258884
000250 9f 17 0b be 6d c6 02 3c 01 c6 18 3e dd 77 33 3e
       -0.1358323 0.007981879 0.14919282 0.17526193
000260 26 9b f5 bd a1 2d 69 be e7 a3 0c be a7 da 94 3d
       -0.11992483 -0.22771312 -0.13734399 0.07268267
000270 f8 39 ca 3d e5 e7 16 bc 8f 3b a3 3c 7a e6 c9 bd
       0.09874338 -0.009210561 0.01992586 -0.09858413
000280 0b b3 55 be 69 07 83 3d 91 7c 75 be 65 34 0a be
       -0.2086908 0.06397898 -0.239733 -0.1349655
000290 9d 9a 00 3d dd 0c 02 3e 51 b0 a5 bd db 0b 0e be
       0.03139745 0.1270022 -0.0809027 -0.1387171
0002a0 8a 1e 06 3e 16 4e 0d be c4 4b 0c be 2d f3 15 bd
       0.13097587 -0.13799319 -0.13700777 -0.036608864
0002b0 b6 32 68 be ab bd 0c 3e 10 e7 93 bd 4f 76 11 3d
       -0.22675595 0.13744228 -0.07221806 0.03551322
0002c0 9d 88 a7 3d 24 77 25 be a1 5c 47 bc 67 4f 71 bd
       0.08180354 -0.1615873 -0.012168081 -0.058913615
0002d0 47 3b 88 bc f4 78 3a be f2 59 ee 3c 3e cd de bd
       -0.016629828 -0.18210202 0.029095624 -0.108789906
0002e0 76 d4 33 3e e0 e1 2b 3e 50 1d f6 bd 85 c4 bb 3d
       0.17561516 0.16785383 -0.1201731 0.091683425
0002f0 60 89 25 3e 56 a8 a9 3d 75 a2 4a 3d e2 87 3b 3e
       0.16165686 0.08284061 0.049471337 0.18313554
000300 d0 ae 29 3d b1 31 fb 3d b0 eb d7 bd b2 a7 1b 3b
       0.04142648 0.12265337 -0.10543001 0.0023751077
000310 43 6c a6 bd 45 27 45 bd 9b 5c 5d 3e bc be e3 3d
       -0.08126118 -0.048133153 0.21617357 0.11120364
000320 de fd 3c bd dd c7 d0 bd 8b f2 65 3d 19 9f 77 bd
       -0.046140544 -0.10194371 0.05613951 -0.06045446
000330 f4 97 c3 3d 9d aa db 3d 27 42 a2 bc 8d 7c 08 3e
       0.09550467 0.10725901 -0.019806935 0.13328762
000340 5b b5 e0 bc bb 5c d5 bd d1 0c 73 3d 5a a4 82 bd
       -0.027430227 -0.104180776 0.059338395 -0.06379004
000350 61 78 f5 bd 9e b0 26 be 79 13 d6 3b e3 35 2b 3e
       -0.11985851 -0.16278312 0.006533083 0.16719775
000360 26 c4 80 bd cb 4b 09 3d d7 bb a9 3c 1b 64 d2 bc
       -0.06287412 0.033519547 0.020719452 -0.0256825
000370 90 7a db 3d cf e0 24 3e 21 bb ca 3c ed c5 06 3e
       0.10716736 0.16101383 0.024747433 0.1316144
000380 f8 82 fc 3d 9b b4 59 bd 2b 82 1c be e4 b9 3b bd
       0.12329668 -0.053150754 -0.1528403 -0.045831576
000390 fb 48 a3 3c 3d ca 9c bd b5 54 d8 bc 1e cb d0 3c
       0.01993226 -0.076557614 -0.026407579 0.025487479
0003a0 07 11 0e 3e b6 e9 1b be b8 07 8a bd 68 f6 25 3e
       0.13873683 -0.15225872 -0.067397535 0.16207278
0003b0 59 50 04 be ce 92 01 be de 4d 55 be 0f 5f 7b 3d
       -0.12921275 -0.12653658 -0.20830485 0.06136995
0003c0 ea 68 52 bd ea 47 02 3e 0b cd c7 3d b0 a1 b3 bc
       -0.051369585 0.12722746 0.09755906 -0.021927685
0003d0 f4 2e 99 3d 1e ac fb bd 24 cf 88 bd 84 d8 82 bd
       0.07479659 -0.12288688 -0.06680134 -0.06388953
0003e0 b2 ce 28 be bc 31 88 bd 8f 82 21 3d ea 25 cf 3d
       -0.16485098 -0.06650111 0.03943115 0.101146534
0003f0 3b 7f 90 bd 11 2c f5 3d f7 bd 8d 3d 08 af 95 bd
       -0.07055517 0.119712956 0.069209985 -0.07308775

psi.0.bias f4 [128]
000000 dd 63 f5 bd bd 1a 28 3e da 5e 24 3e d5 e5 07 3e
       -0.11981938 0.1641645 0.16051808 0.13271268
000010 ba bd 53 3c 17 b8 35 be ea 1d 43 3e 9f 9a b0 3d
       0.012923652 -0.17746006 0.1905438 0.08623242
000020 60 2f 0d 3e 9d 49 c8 3d f0 03 23 be 66 19 f2 3a
       0.13787603 0.097796656 -0.15919471 0.0018470704
000030 e6 ad 62 bc 57 65 36 3e b5 f8 58 3e 3e b9 9b bb
       -0.013835406 0.17812096 0.21188624 -0.004752307
000040 01 e5 49 be 8d 76 b8 bd 9e 6c 34 3e 76 c5 57 be
       -0.19716264 -0.09006987 0.17619559 -0.21071419
000050 5a 0c b9 bd 21 0b 17 3e 2e 72 58 3e b7 77 f7 bd
       -0.09035559 0.14750339 0.21137306 -0.12083381
000060 c7 f8 69 3d c2 05 37 3e cf 26 30 be a7 ce 54 be
       0.05712202 0.1787329 -0.17202304 -0.20781957
000070 20 88 1b 3e dc 8a 2d be fa a2 3d 3e 04 37 18 3e
       0.15188646 -0.16947502 0.18519202 0.14864737
000080 74 d1 18 3e dc dd 28 be c0 d1 30 3e 84 a6 35 be
       0.1492365 -0.16490883 0.17267513 -0.17739302
000090 37 4d 58 be fd ac 39 3e 5c 89 5d be 29 9f f8 bd
       -0.21123205 0.18132396 -0.2163443 -0.121397324
0000a0 06 2a db bd 55 c0 dd 3d 22 26 e7 bd e3 65 d1 3d
       -0.10701375 0.108277 -0.1128657 0.102245115
0000b0 99 10 b4 3d e4 41 22 be 48 03 ad bd c1 25 f3 3d
       0.08792228 -0.15845448 -0.084478915 0.11872435
0000c0 47 7b 5f be ff 4d f6 3d f9 6f 5d bd 33 9b 12 3e
       -0.2182437 0.12026595 -0.054061864 0.14317016
0000d0 3d cd 58 3e 14 51 74 3d ed 36 1c be 92 df b8 bd
       0.21172042 0.059647635 -0.15255328 -0.09027018
0000e0 54 a5 fc bc 83 8d bc bd 1c 5b 0d 3e 72 2e a6 bd
       -0.030840553 -0.09206679 0.13804287 -0.081143275
0000f0 f2 f1 e8 3d 7c 07 04 be 37 9f 6a be a8 40 43 be
       0.113742724 -0.1289348 -0.22912298 -0.19067633
000100 c8 20 0a be d0 c6 d6 3c bd ae e3 3d 64 0b d9 3d
       -0.13489068 0.026217848 0.11117313 0.10597876
000110 4c c2 30 bd 44 6c 94 bd 7c 21 a2 bd 93 a0 da 3c
       -0.043154046 -0.072472125 -0.07916543 0.026687896
000120 f9 a8 3a be 94 dd a2 3d 26 36 30 be ba b5 32 3e
       -0.1822852 0.07952419 -0.17208156 0.17452136
000130 06 50 e3 3b 3d 3d 7b bd db 2d 2a 3e 49 c1 15 3d
       0.00693703 -0.0613377 0.16619055 0.036561284
000140 3b 6f 98 3d 84 50 89 bd a1 d0 db bd 91 86 b4 3d
       0.074430905 -0.0670481 -0.10733152 0.08814729
000150 ec 7a e8 bd 58 2f 0f be ad 93 02 be e4 d8 0f be
       -0.113515705 -0.13982904 -0.12751646 -0.14047581
000160 c8 40 62 be 55 a9 ad bd 73 3c 33 be d6 80 04 3e
       -0.22095025 -0.08479563 -0.17503528 0.12939772
000170 d1 09 95 bc 6d fc bd 3d d1 f5 a7 bc 42 f7 40 3e
       -0.018193157 0.09276662 -0.020502957 0.18844321
000180 ed f4 66 bd 42 f7 07 bc af f6 1d 3e 02 a5 b6 3d
       -0.056385923 -0.008298697 0.15426134 0.089181915
000190 73 a1 3a be 74 19 34 bd fe 33 84 bd 14 97 ea 3d
       -0.1822565 -0.043969586 -0.06455229 0.11454597
0001a0 65 d6 d3 bd c1 13 2d be 28 09 fe 3d 3a a5 9b bb
       -0.10343627 -0.16902067 0.1240409 -0.004749921
0001b0 84 e2 2f be f7 d4 33 3e 93 ad 06 3d df 70 09 3e
       -0.17176253 0.17561708 0.032880377 0.13421963
0001c0 b2 07 06 be 80 f7 2c 3e bb 46 40 3e 92 ff a9 bd
       -0.13088873 0.16891289 0.18776982 -0.08300699
0001d0 a0 0a db 3d 08 e7 db 3d 73 35 c6 3d cf d4 91 3d
       0.10695386 0.10737425 0.096781634 0.07120668
0001e0 45 de 08 3e 41 06 bc 3d bd 67 e8 3c 95 9a 08 3d
       0.13366039 0.0918088 0.028369779 0.033350546
0001f0 dd 91 46 be 50 36 0e 3d 54 f3 d4 3d e8 31 f4 bd
       -0.1939158 0.034719765 0.10397974 -0.11923581

psi.2.weight f4 [128, 128]
000000 32 e1 d2 bc 29 17 d2 bb a2 78 66 3d 4b 7d 38 bd
       -0.025742147 -0.0064114523 0.05626739 -0.045041364
000010 af 0e f3 3c c2 0f 51 3d b9 91 a6 bc d3 24 97 3d
       0.029670088 0.05104042 -0.020333158 0.073800705
000020 ec 1c 85 bd 50 d0 9c 3d 99 42 34 3b 36 34 b8 3d
       -0.06499657 0.0765692 0.0027505516 0.089943334
000030 4c ba 8e bd e0 d7 34 3d 39 15 08 bd cf c0 d1 3d
       -0.06969127 0.044151187 -0.033223365 0.102418534
000040 8b 32 d5 bd 8f 4c 2d 3c b7 4b d3 bd a8 8a f0 3c
       -0.10410031 0.010577335 -0.10317176 0.029362991
000050 96 65 29 3a 53 b3 a9 3d cf 3c cd 3c 4e 7e a4 3c
       0.0006461976 0.082861565 0.02505341 0.020079758
000060 a2 47 5a bd 54 06 2b bc 6a 15 96 bc bf 45 5c bb
       -0.05329097 -0.01043852 -0.018320758 -0.0033610908
000070 fd 53 9a 3d 49 ea 3b 3d 39 df 55 3d 32 35 8d bd
       0.07535551 0.04587773 0.052214835 -0.06894912
000080 db ee c7 3d eb 26 91 bd d8 fb a8 3d 88 c4 28 3d
       0.09762355 -0.07087501 0.082511604 0.04120305
000090 95 17 a1 3b b3 70 b3 3b 1d f3 e1 3c 3a c5 83 bc
       0.0049161413 0.0054760813 0.027581746 -0.016085256
0000a0 06 fd e7 bc 9b 9f ae bd 81 33 06 3b fa 9d b4 bb
       -0.028318893 -0.08526536 0.0020477476 -0.0055119963
0000b0 80 43 86 bd 2b 7b c0 3c 56 89 a6 bc 56 4a 4b bc
       -0.06555843 0.023496231 -0.020329159 -0.01240786
0000c0 34 e0 b0 bd e7 87 ad 3c 63 a4 ee 39 c0 7b af 3b
       -0.08636513 0.021182967 0.00045517375 0.0053553283
0000d0 d9 9a ac 3d 3e 46 b8 3d 68 8a b4 3d ef 2b 05 3d
       0.08427972 0.08997773 0.088154614 0.0325126
0000e0 14 d3 d4 3d 5b 1a 43 bd 9e 62 b3 3d e4 3e 26 3d
       0.103918225 -0.047632556 0.08759044 0.04058732
0000f0 e8 d4 06 3e 42 08 0f bd a3 20 eb 3c 77 5d a5 bd
       0.13167155 -0.034919985 0.028702086 -0.08074468
000100 dd 31 6f bd ce 86 a7 bd ed 7c 91 bd 4a d8 8c 3d
       -0.058397163 -0.08180009 -0.07103906 0.06877191
000110 b1 40 1e bb 68 fd 3f bd f2 d0 ca bd e3 d6 86 bd
       -0.0024147446 -0.046872526 -0.099031344 -0.06583955
000120 8f 87 39 3c 19 0c ed 3c 93 88 ef 3c 4f 66 7b 3d
       0.011323824 0.028936433 0.029239928 0.061376866
000130 13 7a c2 3b d5 77 69 3a 4a a4 90 3d 79 16 b0 3d
       0.0059349625 0.0008906101 0.07062586 0.08598036
000140 ae 28 0a 3d 1e e5 16 3c 3a 43 b9 bd b6 70 f7 3d
       0.0337302 0.009209899 -0.090460256 0.12082045
000150 fb 69 18 3d bb fd 69 bb e8 29 e8 bd b8 29 2b 3d
       0.037210446 -0.0035704214 -0.11336118 0.041787833
000160 5f cf ae 3a b3 cf f9 3d 85 b7 c3 bd f6 34 a3 3d
       0.0013336948 0.121978186 -0.09556488 0.07969086
000170 3f e9 41 3d 94 c8 76 3b 4f f2 f5 3d d8 64 df 3d
       0.04734158 0.0037656175 0.12009107 0.10907906
000180 af 60 ab 3c 79 4d e8 bb 28 2d 35 bc c8 81 08 3e
       0.020920126 -0.0070893136 -0.011058129 0.13330758
000190 15 41 71 3d 70 43 52 3c ef 35 68 3b c3 c2 9c 3d
       0.058899958 0.012833461 0.0035432538 0.07654335
0001a0 98 cb b4 3d a9 71 07 be 18 4b b9 bd d1 a2 76 3d
       0.08827895 -0.13226952 -0.09047526 0.060213868
0001b0 8a 8c fa bc 8d 75 1a bc 17 c5 31 3d 42 c9 b5 bd
       -0.030584592 -0.00942744 0.04340085 -0.088762775
0001c0 e0 32 94 3c cc 6b 4f 3b ed 90 1a bb 0d 71 ea 3d
       0.018090665 0.0031649945 -0.0023584918 0.11447344
0001d0 3b b3 46 bd 43 20 88 3d 34 78 1f 3d 09 0e 57 3d
       -0.04851077 0.066467784 0.038932994 0.05250362
0001e0 d9 3d 4e 3b f1 9c 77 3d ae a7 85 bd c7 d6 f4 3d
       0.003146997 0.060452405 -0.06526123 0.11955028
0001f0 73 4c 8f 3c fa a4 7a 3d 4d 34 a7 3d 19 bc 89 bd
       0.017492509 0.06119249 0.081642725 -0.0672533
000200 c1 dd 2a bd ad 1b 4f bd ef 2a 3a bd 05 33 c1 3d
       -0.041715387 -0.050563503 -0.0454511 0.09433559
000210 eb 94 c6 bd 28 e1 01 3d d5 8b d8 3d e8 e9 a4 3d
       -0.096963726 0.031708866 0.10573546 0.080524266
000220 a2 d7 40 bd d3 bf 8b bd 18 81 1b bd a9 2b 28 3c
       -0.047080643 -0.06823697 -0.03796491 0.010264316
000230 ca 2b 14 3d 24 7a 81 bd 5a ea 95 3c 50 c3 88 3d
       0.036174573 -0.063221246 0.018300224 0.06677878
000240 2d f6 56 bd ff cd 95 bc fc 14 78 3d 8c 11 6d bd
       -0.052480865 -0.018286703 0.060566887 -0.057878062
000250 9c b3 e1 3c 5f ef 74 bd bf 11 b0 3c 85 1c 95 bd
       0.027551465 -0.059798595 0.021492837 -0.0728083
000260 cb b3 c4 3d 9b 73 80 3d 77 38 4f bd 6d 1e 9f bd
       0.09604605 0.0627205 -0.05059096 -0.07769475
000270 29 d5 e5 3b 77 19 f5 ba 44 a8 7b 3a ec 1c ee 3d
       0.007013936 -0.0018699606 0.00095999637 0.1162661
000280 9d 90 64 bd 03 f7 5b 3d 31 a1 0d bd 7f 7d c5 bd
       -0.055801976 0.053702366 -0.034577552 -0.09643077
000290 c1 03 83 bd 3a cf e4 3c 9d 46 9d 3c dd 18 6d 3c
       -0.063972004 0.027930845 0.01919871 0.01447126
0002a0 48 07 2e bd ee 3c bf 3d c3 2c 11 bd 90 86 28 3d
       -0.042487413 0.09337793 -0.03544308 0.041143954
0002b0 85 49 df 3d f3 17 44 bd 84 f6 7a 3d b5 dc 78 bd
       0.109026946 -0.047874402 0.061270252 -0.060757358
0002c0 04 9b 8d bc 3f 21 94 bd 37 12 84 3d 40 4b 27 3d
       -0.017285831 -0.07232904 0.06448787 0.04084325
0002d0 d6 d1 2c 3c 23 b7 28 bd f1 33 a9 bd 0e ed ad bc
       0.010548076 -0.041190278 -0.0826186 -0.0212312
0002e0 06 12 4d 3d da 3a d7 bd ff dc 18 bd 23 d1 46 bd
       0.050066017 -0.10509272 -0.037320133 -0.048539292
0002f0 c3 d0 e7 3c 82 93 06 3d 99 2f 4f bd bd dc 82 bd
       0.028297788 0.03285552 -0.050582502 -0.06389759
000300 94 74 af 3b d9 ef a2 bc 94 44 6e 3d 87 fa 1b bd
       0.0053544734 -0.019889759 0.05817087 -0.03808072
000310 26 e0 5a 3c 0a 2d 73 bd 94 fb 8e bd 69 47 09 3b
       0.013359105 -0.059369124 -0.069815785 0.0020947105
000320 f1 d5 0c 3d dd bb 22 3d ee cd b5 bd 94 b9 87 bd
       0.034383718 0.03972994 -0.088771686 -0.06627193
000330 a5 3f 58 bd 25 ec 3d 3d af cd 36 3d 3d 74 82 3d
       -0.05279507 0.046367783 0.04462975 0.06369827
000340 95 d5 c9 3c 95 4e 4e bd ca 73 8a 3c 44 ac 90 bd
       0.024637977 -0.05036791 0.016900916 -0.07064107
000350 67 90 51 3d 0e a5 ef 3c 43 7d a0 3c 7c 0a e9 bc
       0.051163103 0.029253509 0.01959098 -0.028447382
000360 9f 01 dd bd 85 d9 b7 3d 2f eb b9 bc d5 78 e1 bc
       -0.10791325 0.089770354 -0.022695152 -0.027523438
000370 d7 5d 74 3b 69 17 f3 bb 57 46 47 bd 02 5f 84 3d
       0.0037287378 -0.007418562 -0.048651066 0.06463434
000380 cf a8 be bd a0 89 94 bd 3d 5b 7e 3d 1a df 94 bd
       -0.093095414 -0.072528124 0.06209873 -0.07269116
000390 78 52 5e 3c a9 8d 55 3d 6c 46 92 bd 92 94 f5 bc
       0.013569467 0.05213705 -0.07142338 -0.02997807
0003a0 6d 28 f8 bc fd 2a e5 bb ff 4b 90 3d 24 fe 8a bb
       -0.030292714 -0.00699365 0.07045745 -0.0042417217
0003b0 6a 7d 6e 3b 5e 6b ec 3d fd 62 a8 3c 9e a5 65 bd
       0.003639067 0.11543916 0.020555014 -0.056066148
0003c0 9b 5d ac 3a 65 4c e9 3d 41 54 a9 3d 08 93 58 3d
       0.0013150455 0.11391524 0.08268023 0.052874595
0003d0 3f 46 c1 3c e8 25 fb 3c fb b5 35 3d 61 9b d9 3d
       0.023593066 0.030657724 0.044363003 0.10625339
0003e0 1b f6 96 bc d5 d2 84 3d 0a db ab bd 2c e4 8c 3d
       -0.0184279 0.064855255 -0.08391388 0.06879458
0003f0 34 15 c8 bd 08 b1 6d bd df dc c0 bc 14 4b a7 3d
       -0.09769669 -0.05803016 -0.02354282 0.08168617
