classcaus/weight_checkpoint_2022-4-12_1-45-55_IgBsZ52h8QPazDBSAgNr.pt (torch, 125375 bytes, 15 tensors)

phi.0.weight f4 [32, 25]
0.016501458 0.034211926 -0.03966515 -0.19763392 0.11073986 0.15866947 -0.012676158 0.048112437
0.027506573 0.019070087 -0.00078708556 -0.21929547 0.07339638 0.0821331 -0.16190185 -0.07386642
-0.14329924 0.07500969 0.056158405 -0.020392632 -0.22039613 -0.14987163 0.056486942 -0.074796475
-0.19202298 0.14417143 -0.046996094 -0.07783109 0.07803376 0.078554496 -0.18437971 -0.15995422
0.08392718 -0.048572976 0.20163545 -0.17995937 -0.01238552 0.17225276 0.045600276 0.09920234
-0.06482559 0.033430446 0.14796856 -0.13337518 0.16079327 0.021521257 -0.02585735 0.1613848
0.055948578 0.057946373 0.040046453 0.22552453 0.11269551 0.051243324 -0.041164294 -0.058169145
-0.050913967 -0.16934639 0.077105895 0.14136231 -0.19705287 0.1510154 0.023847535 0.10088032
0.1557122 -0.12249379 -0.02791346 -0.13029933 0.05788587 0.2014216 -0.13759866 -0.14829066
0.0822443 0.12522306 -0.021454303 -0.0943037 0.033446174 -0.11665334 0.10094118 0.12656713
0.077841654 0.17328599 -0.050488707 0.07745555 0.11036228 0.13782398 -0.18067472 0.017960003
0.05783831 -0.16461346 -0.13840747 -0.18073638 -0.059240095 -0.03537079 -0.10629283 -0.10189979
-0.004219838 -0.13553615 0.15273874 -0.072979234 0.11871811 0.035863835 0.10972531 0.12050681
-0.16220991 0.079161 0.21201627 0.018333651 0.027591059 -0.19731955 -0.0039038106 0.02690434
0.038588896 -0.07265739 -0.11088974 -0.02778001 0.07710613 0.104559205 -0.04511441 -0.20966527
0.02380583 -0.009145685 0.079722 0.10924609 0.08634997 0.15340637 -0.118832745 -0.06859969
-0.20878191 0.052950118 -0.064507954 0.0658278 0.08529946 -0.010546493 -0.09083544 0.039560538
-0.15600824 -0.039949827 -0.053111896 -0.03599863 0.11943885 -0.16801178 -0.042548053 -0.13112007
0.096423924 -0.04695959 0.15157416 0.102110684 0.13078126 -0.15681146 -0.07929146 0.024641056
0.15768489 0.21160854 0.2356575 -0.19567558 -0.12720232 0.02071763 -0.01631017 0.15311126
0.08878256 -0.08265535 -0.1701071 -0.17090522 -0.09891416 0.11407348 -0.16101049 -0.0866186
0.18733828 0.021394372 -0.021369781 -0.10790627 -0.09784181 -0.020540215 0.06395374 -0.017550752
-0.17036925 0.08778111 -0.030923638 -0.13390349 0.097234644 0.1926332 -0.16581048 -0.16141513
0.17096804 -0.049505178 -0.17253797 0.15568171 0.12637581 -0.062040433 -0.081290215 0.0010306744
0.09070181 0.020977112 0.061455805 -0.021214837 0.040261716 -0.17841665 0.025683258 0.10773533
-0.0072037345 0.16379157 -0.13656038 0.15729466 0.08622923 -0.14363226 -0.0012769933 -0.0635741
-0.04034351 -0.0187461 0.11270146 -0.11307091 0.1370515 -0.054108214 -0.085594356 0.19357513
-0.04469468 -0.13164394 0.086966075 0.0045896303 0.12618914 0.13816975 -0.050295092 0.07209645
-0.15511817 -0.034603994 0.10686406 0.07200874 0.018886993 -0.08868722 0.05946595 0.08722555
-0.095065765 -0.027808689 0.10933365 0.14521462 -0.105501465 -0.10148301 0.08513098 0.04370803
0.123779655 0.13252664 -0.1546905 0.09075441 0.15157282 -0.040075738 -0.13977115 -0.11884585
0.02960794 0.20252173 -0.13522103 0.052921783 0.027094517 -0.12955649 -0.1787692 -0.066486806
00000000: 112e 873c ce21 0c3d ed77 22bd 8c60 4abe
00000010: 94cb e23d 407a 223e a9af 4fbc 8c11 453d
00000020: 7755 e13c df38 9c3c 6b54 4eba fe8e 60be
00000030: d750 963d 6635 a83d 99c9 25be 4747 97bd
00000040: 09bd 12be ae9e 993d 5b06 663d 730e a7bc
00000050: 86af 61be f377 19be da5e 673d e52e 99bd
00000060: aca1 44be ada1 133e fa7e 40bd e865 9fbd
00000070: 2ad0 9f3d 2ee1 a03d 09ce 3cbe 0acb 23be
00000080: 03e2 ab3d 75f4 46bd 8679 4e3e 4547 38be
00000090: a3ec 4abc 0763 303e 5bc7 3a3d 992a cb3d
000000a0: 47c3 84bd 5dee 083d 1285 173e 8193 08be
000000b0: fea6 243e 594d b03c cbd2 d3bc 0f42 253e
000000c0: 562a 653d 2d59 6d3d c007 243d e7ef 663e
000000d0: e7cc e63d 85e4 513d e49b 28bd c542 6ebd
000000e0: 2a8b 50bd 2469 2dbe b2e9 9d3d 48c1 103e
000000f0: 3ac8 49be c8a3 1a3e e85b c33c 579a ce3d
00000100: 0573 1f3e 06de fabd c5aa e4bc 306d 05be
00000110: bc19 6d3d 7741 4e3e aae6 0cbe 82d9 17be
00000120: b36f a83d 793a 003e efc0 afbc 4c22 c1bd
00000130: dbfe 083d f2e7 eebd 40ba ce3d d09a 013e
00000140: 726b 9f3d e271 313e 3fcd 4ebd 04a1 9e3d
00000150: 9e05 e23d bb21 0d3e cb02 39be db20 933c
00000160: dde7 6c3d 6e90 28be b0ba 0dbe f512 39be
00000170: bea5 72bd f6e0 10bd 0eb0 d9bd d6b0 d0bd
00000180: 9146 8abb fdc9 0abe 8b67 1c3e 2376 95bd
00000190: 7b22 f33d f5e5 123d aab7 e03d 46cc f63d
000001a0: 5b1a 26be 2a1f a23d cb1a 593e 7430 963c
000001b0: a506 e23c 230e 4abe 13d7 7fbb 7e66 dc3c
000001c0: 640f 1e3d 66cd 94bd 291a e3bd e792 e3bc
000001d0: d2e9 9d3d 2323 d63d e3c9 38bd 7eb2 56be
000001e0: 7204 c33c c8d7 15bc 4a45 a33d 6abc df3d
000001f0: 41d8 b03d 8f16 1d3e 955e f3bd ff7d 8cbd
00000200: edca 55be 39e2 583d bf1c 84bd bad0 863d
00000210: 7cb1 ae3d 33cb 2cbc ee07 babd 3b0a 223d
00000220: a0c0 1fbe 6ea2 23bd dc8b 59bd 4d73 13bd
00000230: 5b9c f43d 480b 2cbe de46 2ebd 5744 06be
00000240: e879 c53d b358 40bd 4236 1b3e 681f d13d
00000250: 86eb 053e 2f93 20be 9063 a2bd 0adc c93c
00000260: 2678 213e e9af 583e 3350 713e 2e5f 48be
00000270: 5341 02be 05b8 a93c e89c 85bc 33c9 1c3e
00000280: a1d3 b53d 3547 a9bd 8e30 2ebe c701 2fbe
00000290: 8293 cabd 5b9f e93d efdf 24be 1865 b1bd
000002a0: 9bd5 3f3e 4043 af3c ae0f afbc f6fd dcbd
000002b0: 4961 c8bd f443 a8bc 2efa 823d 98c6 8fbc
000002c0: 4775 2ebe 95c6 b33d 9253 fdbc ff1d 09be
000002d0: f522 c73d a341 453e 39ca 29be 024a 25be
000002e0: 3f12 2f3e f1c5 4abd cbad 30be 076b 1f3e
000002f0: a968 013e 1c1e 7ebd 7c7b a6bd b217 873a
00000300: dfc1 b93d 31d8 ab3c 15b9 7b3d bdca adbc
00000310: 78e9 243d dbb2 36be b265 d23c 57a4 dc3d
00000320: 4e0d ecbb fab8 273e 7cd6 0bbe da11 213e
00000330: f398 b03d 5614 13be c960 a7ba 2333 82bd
00000340: 3d3f 25bd 6c91 99bc 06d0 e63d b991 e7bd
00000350: 3a57 0c3e 93a0 5dbd 184c afbd 8f38 463e
00000360: c511 37bd abcd 06be 451b b23d 9c64 963b
00000370: ba37 013e 5f7c 0d3e 3a02 4ebd 4ea7 933d
00000380: 4cd7 1ebe ebbc 0dbd 8bdb da3d 5179 933d
00000390: e5b8 9a3c a5a1 b5bd 9192 733d 4fa3 b23d
000003a0: d7b1 c2bd 0ccf e3bc 52ea df3d 24b3 143e
000003b0: 2711 d8bd 53d6 cfbd 2759 ae3d 3107 333d
000003c0: 3080 fd3d 10b5 073e 3067 1ebe 73dd b93d
000003d0: e835 1b3e 7526 24bd 2b20 0fbe 7465 f3bd
000003e0: 5a8c f23c db61 4f3e 6277 0abe 83c4 583d
000003f0: 52f5 dd3c 75aa 04be 460f 37be 3c2a 88bd

phi.0.bias f4 [32]
-0.17051803 -0.13690789 -0.021171948 -0.08879908 0.060811672 -0.0633198 -0.020726793 0.095790185
0.07784098 0.11320316 -0.13676687 -0.042113043 0.007332236 0.039235886 0.022967331 0.073592134
-0.054337174 0.10004417 -0.11977547 0.105946116 0.13278969 -0.035873614 0.0852518 -0.06313191
0.08241894 0.15345153 0.18628897 -0.12589556 0.013860347 -0.092528746 -0.13312177 -0.023999937
00000000: 479c 2ebe 9531 0cbe cb70 adbc 4bdc b5bd
00000010: a915 793d d0ad 81bd 3ccb a9bc a52d c43d
00000020: 176b 9f3d 0fd7 e73d 9d0c 0cbe ba7e 2cbd
00000030: 4143 f03b cfb5 203d fc25 bc3c 79b7 963d
00000040: a890 5ebd f5e3 cc3d d74c f5bd 47fa d83d
00000050: 05fa 073e 36f0 12bd 7f98 ae3d 4e4b 81bd
00000060: 43cb a83d 6622 1d3e 89c2 3e3e c4ea 00be
00000070: 8216 633c b67f bdbd 1351 08be 849b c4bc

phi.2.weight f4 [32, 32]
0.14755924 -0.00028576067 0.054132096 0.10245454 0.033337716 0.062991016 -0.08674198 0.11909715
-0.08232564 0.10770443 -0.12956266 -0.053289223 -0.027285848 0.08547911 -4.281843e-05 -0.06415961
0.06784573 0.029479168 0.11992477 -0.19384001 -0.1521397 0.12901878 0.11150269 -0.16966794
-0.04582623 0.104931384 0.021609347 -0.11282275 0.1658252 -0.1498064 0.11679896 0.08390993
0.05542422 -0.17159536 -0.13686176 0.04930511 0.00742265 -0.08764355 0.0926759 0.11530609
-0.14356633 0.0503909 0.10915553 -0.1697476 -0.16539921 -0.07140426 0.15035722 0.011867182
-0.13879244 0.091951065 0.04121142 -0.01468805 0.06118104 -0.015712302 -0.032552622 0.15871133
-0.063399754 -0.12212532 0.05054897 -0.12127661 0.07820763 -0.14315708 -0.007170759 -0.16041856
0.03615616 0.14325811 -0.1350239 -0.05879136 -0.028611127 0.106621 -0.12888739 -0.108733974
-0.14868769 -0.0732669 -0.099771254 -0.12237918 0.15577109 0.048083074 -0.019540587 -0.08579753
-0.15380982 0.08573111 -0.07274626 -0.12582365 0.009987941 -0.18775369 0.13129511 0.031069867
0.023275059 -0.11669317 0.026292447 -0.016739244 -0.10402413 -0.06638291 0.14060901 -0.1245906
0.016499104 -0.04419691 -0.011041704 0.15912537 0.15316728 0.052928012 0.17380176 -0.09666924
0.14350492 0.02611271 0.14234066 -0.102895185 0.13893221 -0.13800018 0.08161147 0.017494438
-0.049131863 -0.0979083 -0.08365882 0.026874362 -0.09337922 -0.022474246 0.10470741 -0.15363067
-0.04210174 -0.006265469 -0.045321137 0.098533265 -0.006715535 -0.08377525 -0.006219493 -0.071005166
0.029860286 0.016419431 -0.14521235 -0.1730512 0.015729416 -0.15177247 0.1197369 -0.07928666
0.17166883 0.16631 0.08972478 -0.04342544 0.092817344 -0.06984074 -0.022929884 -0.10437683
0.04030145 -0.020246908 0.15963095 0.1674967 -0.13727479 -0.15413573 0.048371617 0.15431914
0.02218702 -0.103379354 0.18144247 0.18798906 -0.078956865 0.13296077 -0.065165594 -0.13755997
-0.042686317 -0.12276192 -0.1003308 -0.078108884 0.051394302 0.18742688 -0.013274909 0.030369105
0.07996127 0.04582766 -0.018110039 -0.1446702 0.011382934 -0.15621309 -0.075253926 -0.14272551
0.04325109 0.14023507 0.0037158695 -0.15200523 -0.15647464 -0.03880252 0.029245337 0.1300546
-0.0008493608 0.138878 0.12903206 0.06717276 -0.07789897 0.188018 -0.07099936 0.054952186
0.009983863 -0.11982789 -0.11672718 0.13808937 -0.089723 -0.18083948 0.20630608 -0.0593294
-0.044502478 0.018646734 -0.10147741 -0.05385353 0.031561524 0.051048636 -0.07708806 -0.16279134
-0.10922686 -0.1350727 -0.090035655 -0.055945255 -0.13068628 -0.04132556 0.17742954 -0.028418582
-0.11293769 -0.062376935 0.006953224 0.13800009 0.09292631 -0.105854034 -0.1180044 -0.112803504
-0.027726913 -0.088308334 -0.0006824913 0.15043226 -0.08686365 0.033139646 0.093317494 0.021204779
-0.07248452 -0.11215379 0.13381872 0.1351415 -0.19825308 -0.06313987 0.14100224 -0.146515
0.18002045 0.14435206 0.17190008 -0.10196294 -0.18675013 0.12876795 0.006375006 -0.013889021
0.0976694 0.016713738 0.079148635 -0.022362681 0.048870392 0.06480032 -0.053832263 0.06553924
00000000: c519 173e 26d2 95b9 9eb9 5d3d b0d3 d13d
00000010: 218d 083d 6f01 813d c7a5 b1bd 35e9 f33d
00000020: 589a a8bd 2494 dc3d 13ac 04be cd45 5abd
00000030: 9286 dfbc ac0f af3d f097 33b8 1d66 83bd
00000040: b4f2 8a3d 4c7e f13c 1e9b f53d ff7d 46be
00000050: 82ca 1bbe 801d 043e 865b e43d 6fbd 2dbe
00000060: 49b4 3bbd 44e6 d63d 1606 b13c 9d0f e7bd
00000070: 15ce 293e d966 19be 4b34 ef3d f8d8 ab3d
00000080: 8204 633d b2b6 2fbe 7d25 0cbe 28f4 493d
00000090: b339 f33b 767e b3bd ddcc bd3d 9925 ec3d
000000a0: 0d03 13be b066 4e3d ef8c df3d 51d2 2dbe
000000b0: 695e 29be 663c 92bd 3ef7 193e 926e 423c
000000c0: 9b1f 0ebe d750 bc3d 4ecd 283d 26a6 70bc
000000d0: f898 7a3d 16b7 80bc e655 05bd 3985 223e
000000e0: bbd7 81bd d71c fabd 700c 4f3d df5f f8bd
000000f0: 522b a03d c597 12be b0f8 eabb c344 24be
00000100: 7b18 143d 41b2 123e b543 0abe 36cf 70bd
00000110: e261 eabc 1c5c da3d 0efb 03be ebaf debd
00000120: 9641 18be f50c 96bd df54 ccbd efa1 fabd
00000130: 7582 1f3e c2f2 443d 9513 a0bc 9eb6 afbd
00000140: 5280 1dbe cb93 af3d fefb 94bd ead7 00be
00000150: 76a4 233c 8142 40be 3a72 063e 3c86 fe3c
00000160: 56ab be3c d4fc eebd 4263 d73c bd20 89bc
00000170: 9a0a d5bd c3f3 87bd cffb 0f3e 5b29 ffbd
00000180: 2129 873c d207 35bd 43e8 34bc c3f1 223e
00000190: e2d7 1c3e 0bcb 583d 17f9 313e 86fa c5bd
000001a0: f4f2 123e 52ea d53c c0c1 113e b6ba d2bd
000001b0: 3f44 0e3e eb4f 0dbe ea23 a73d 7f50 8f3c
000001c0: 7e3e 49bd 2684 c8bd 5155 abbd 9f27 dc3c
000001d0: 9b3d bfbd e91b b8bc d770 d63d 5c51 1dbe
000001e0: e072 2cbd 904e cdbb a8a2 39bd cfcb c93d
000001f0: fe0d dcbb 5c92 abbd e4cc cbbb 286b 91bd
00000200: 8f9d f43c 0b82 863c 8cb2 14be 5534 31be
00000210: fada 803c 3e6a 1bbe 9f38 f53d 0b61 a2bd
00000220: f4c9 2f3e 2b4d 2a3e a0c1 b73d e0de 31bd
00000230: 0517 be3d a908 8fbd 74d7 bbbc 85c3 d5bd
00000240: 2213 253d d8dc a5bc 4c76 233e 4184 2b3e
00000250: c391 0cbe c2d5 1dbe 5121 463d d605 1e3e
00000260: 8ec1 b53c 8eb8 d3bd 0ecc 393e 3480 403e
00000270: 23b4 a1bd de26 083e 8a75 85bd 85dc 0cbe
00000280: d9d7 2ebd 9a6a fbbd 3c7a cdbd 8df7 9fbd
00000290: d582 523d d5ec 3f3e 017f 59bc a1c8 f83c
000002a0: bcc2 a33d c9b5 3b3d 815b 94bc 6d24 14be
000002b0: 7c7f 3a3c 53f6 1fbe bb1e 9abd a326 12be
000002c0: 0e28 313d c899 0f3e f285 733b 42a7 1bbe
000002d0: e33a 20be 64ef 1ebd eb93 ef3c 082d 053e
000002e0: a3a7 5eba 0936 0e3e fb20 043e df91 893d
000002f0: 7f89 9fbd ca87 403e 1d68 91bd 8b15 613d
00000300: 5b93 233c 5368 f5bd a90e efbd 4d67 0d3e
00000310: b1c0 b7bd fc2d 39be e741 533e 6303 73bd
00000320: 3b48 36bd 09c1 983c 63d3 cfbd 8595 5cbd
00000330: a846 013d 6018 513d 58e0 9dbd c6b2 26be
00000340: 55b2 dfbd 7f50 0abe 9d64 b8bd da26 65bd
00000350: a0d2 05be fe44 29bd 17b0 353e 16ce e8bc
00000360: e04b e7bd f57e 7fbd dfd7 e33b e54f 0d3e
00000370: 2650 be3d 00ca d8bd 4aac f1bd 8605 e7bd
00000380: 8d23 e3bc 00db b4bd 37e9 32ba ea0a 1a3e
00000390: 92e5 b1bd 70bd 073d 3e1d bf3d a5b5 ad3c
000003a0: c472 94bd e3b0 e5bd c607 093e 8962 0a3e
000003b0: db02 4bbe 7a4f 81bd e462 103e 0708 16be
000003c0: 4857 383e 07d1 133e 9306 303e f2d1 d0bd
000003d0: 6d3b 3fbe bfdb 033e 6de5 d03b c78e 63bc
000003e0: e506 c83d 40eb 883c ae18 a23d f131 b7bc
000003f0: 522c 483d 08b6 843d 387f 5cbd 7039 863d

phi.2.bias f4 [32]
0.08904058 -0.12419913 0.119413935 -0.054711863 -0.06254593 0.10672863 0.03431125 0.06571039
0.104678474 0.14734359 -0.034643553 0.031811483 0.10711275 -0.06292823 0.058469873 -0.01761875
0.11045208 0.09608221 -0.1550855 0.10946608 -0.025478248 -0.017591884 0.06907433 0.17063263
-0.09759471 0.057674434 -0.014485559 0.1674609 0.090471715 -0.11697071 0.09541423 -0.07005449
00000000: e85a b63d 1d5c febd 4b8f f43d 8c19 60bd
00000010: 1518 80bd 8a94 da3d f489 0c3d 2b93 863d
00000020: ab61 d63d 3de1 163e 66e6 0dbd c24c 023d
00000030: ee5d db3d 84e0 80bd 1b7e 6f3d 3255 90bc
00000040: b334 e23d c0c6 c43d bcce 1ebe c12f e03d
00000050: c2b7 d0bc db1c 90bc d876 8d3d 52ba 2e3e
00000060: bcdf c7bd 073c 6c3d d754 6dbc df7a 2b3e
00000070: 3c49 b93d 578e efbd 8968 c33d ba78 8fbd

phi.4.weight f4 [28, 32]
-0.01803218 0.14211239 -0.060936946 -0.031120474 -0.08144733 0.05209507 0.06891347 -0.08321819
0.14881082 0.0014785852 0.07831601 -0.06339668 -0.1280378 -0.03675809 -0.15223444 0.071367286
-0.05620414 -0.14354368 0.05319999 -0.051207416 -0.08037344 0.10445551 -0.122690216 0.053207353
0.14739965 0.054196548 -0.09761409 -0.0009085518 0.0053753396 -0.040712137 0.096443675 0.1509212
-0.019412657 0.023620842 -0.119234085 -0.06284316 -0.072620586 0.17816675 0.18625319 -0.07631014
-0.0891028 -0.004403826 -0.06960483 0.11717063 0.042892367 -0.07157423 0.015686814 -0.11103734
-0.13952959 0.058775302 0.14529996 0.11834325 0.09926384 -0.025091419 -0.05126943 0.0040580323
0.056952816 0.18038227 -0.1904381 0.123422116 0.06956256 0.0519692 0.17261706 0.040163137
0.14991777 -0.055841498 0.07650785 0.08270117 -0.040788487 -0.022573944 0.21876092 0.125801
0.1731051 -0.010350211 -0.07606179 0.12162405 -0.098571755 0.048796304 -0.045053635 -0.10071873
0.16277291 -0.03308967 -0.024767382 0.04047826 0.18948603 0.0128434505 -0.15228698 0.1481977
0.17093664 -0.020057077 -0.15382123 -0.006163539 -0.053554323 -0.08040263 -0.0811133 0.10111563
0.13242628 0.14282656 0.069934286 -0.16907638 0.00022353063 -0.049758974 -0.18883954 -0.07367421
0.10568219 -0.014263309 0.02276748 0.07127448 0.057767812 -0.060039286 -0.00236495 -0.09519008
-0.14220652 0.087749794 -0.13039745 -0.20106657 -0.19025683 -0.15070796 0.010410003 -0.032413054
0.006552034 -0.063540675 0.02489419 0.10861173 0.003415523 0.099041075 0.103127345 0.0020064057
-0.08450388 0.007970897 -0.1026981 -0.051017188 0.16874343 0.11119003 -0.05366721 0.03317068
0.16334303 0.14908415 0.13888021 0.047965553 0.08213618 0.006017283 0.041825388 -0.12935518
0.1469334 0.081672594 -0.03996705 0.05041366 -0.028081767 -0.049178474 -0.068127826 0.037374243
0.14838995 -0.1013816 0.02895308 -0.08478999 0.08041173 0.154111 -0.090937704 -0.12659018
0.066612765 -0.10699005 0.05067648 0.017854003 -0.021178523 -0.050444346 -0.093104206 0.10677978
0.069359824 -0.108541384 0.10361407 0.19163571 0.07881824 -0.10151456 0.16000116 0.22618827
0.17889626 -0.14811867 0.04484195 0.03580634 0.16824067 0.11153115 0.038774632 -0.15258421
-0.13731894 0.10681437 0.057886004 0.14465517 0.16648518 0.1114677 -0.07073664 -0.06514051
0.12447574 0.1484719 0.1044563 -0.1831851 -0.034110006 -0.07776964 0.09918296 0.048858684
-0.013949147 0.042377744 0.002602412 -0.1115405 -0.079670615 -0.0632852 0.05483785 0.059626304
-0.02497664 0.0491608 0.13198195 0.03541934 -0.19043459 -0.21291798 0.075196296 0.08468012
0.104159586 -0.14370462 -0.096652105 0.11170679 -0.03325136 0.10624341 0.05745537 -0.04916566
-0.11192024 0.052667122 -0.05512437 -0.10838036 -0.008851652 -0.08122111 0.18217212 -0.032032654
0.08364157 -0.003347769 0.10896508 0.026029574 0.17257254 -0.030440187 0.115341164 0.18343006
-0.068731345 0.18434882 0.19199112 0.04739186 0.049183987 -0.11545958 -0.12899105 0.18996471
0.07992022 -0.021640237 -0.04954052 0.18851845 0.18318947 0.108296156 -0.003405285 0.084865496
00000000: 39b8 93bc e985 113e 0599 79bd 5df0 febc
00000010: dccd a6bd a461 553d 8122 8d3d 4c6e aabd
00000020: dd61 183e 16cd c13a 2564 a03d 1ed6 81bd
00000030: 571c 03be a78f 16bd 58e3 1bbe 0329 923d
00000040: 5036 66bd 1dfd 12be 3ce8 593d debe 51bd
00000050: d59a a4bd c5ec d53d 0245 fbbd f4ef 593d
00000060: efef 163e 33fd 5d3d e5e9 c7bd e12b 6eba
00000070: 9e23 b03b c5c1 26bd 4384 c53d 168b 1a3e
00000080: 4b07 9fbc 7f80 c13c 0031 f4bd eab3 80bd
00000090: 1aba 94bd 5871 363e 28b9 3e3e 7e48 9cbd
000000a0: 877b b6bd f84d 90bb fa8c 8ebd 28f7 ef3d
000000b0: e8af 2f3d 8395 92bd a281 803c 8b67 e3bd
000000c0: d8e0 0ebe 5fbe 703d 83c9 143e f25d f23d
000000d0: d74a cb3d 858c cdbc e5ff 51bd 3ef9 843b
000000e0: 5b47 693d 21b6 383e 3502 43be bcc4 fc3d
000000f0: d176 8e3d a8dd 543d 87c2 303e 1a82 243d
00000100: 0b84 193e 0eba 64bd 26b0 9c3d 3b5f a93d
00000110: d411 27bd feec b8bc dd02 603e fad1 003e
00000120: 7742 313e ee93 29bc 49c6 9bbd 0816 f93d
00000130: fddf c9bd a2de 473d 298a 38bd 9f45 cebd
00000140: f1ad 263e 0989 07bd f7e4 cabc 88cc 253d
00000150: a008 423e 566d 523c 1ef1 1bbe 23c1 173e
00000160: 040a 2f3e bd4e a4bc 5083 1dbe 83f7 c9bb
00000170: c75b 5bbd 22aa a4bd bb1e a6bd b615 cf3d
00000180: c19a 073e 2041 123e b539 8f3d 5c22 2dbe
00000190: 8c63 6a39 11d0 4bbd 275f 41be 81e2 96bd
000001a0: e76f d83d a7b0 69bc de82 ba3c 5bf8 913d
000001b0: f19d 6c3d c1eb 75bd 47fd 1abb 04f3 c2bd
000001c0: 969e 11be 2ab6 b33d e986 05be 65e4 4dbe
000001d0: b0d2 42be 3053 1abe b88e 2a3c 8dc3 04bd
000001e0: 72b2 d63b 9d21 82bd e6ee cb3c d46f de3d
000001f0: f8d6 5f3b 0cd6 ca3d 6e34 d33d e77d 033b
00000200: 5f10 adbd 5d98 023c 6253 d2bd 66f7 50bd
00000210: 14cb 2c3e 99b7 e33d 26d2 5bbd fbdd 073d
00000220: 6543 273e 84a9 183e 9d36 0e3e 8777 443d
00000230: 0337 a83d a12c c53b 1951 2b3d af75 04be
00000240: b675 163e f643 a73d 7db4 23bd 8e7e 4e3d
00000250: bc0b e6bc 5e6f 49bd 9a86 8bbd bc15 193d
00000260: 89f3 173e 28a1 cfbd 022f ed3c 60a6 adbd
00000270: e8ae a43d 46cf 1d3e 8c3d babd dba0 01be
00000280: 466c 883d 991d dbbd 2492 4f3d 8f42 923c
00000290: 957e adbc bb9e 4ebd 6bad bebd 5baf da3d
000002a0: 860c 8e3d f24a debd 9d33 d43d 273c 443e
000002b0: 756b a13d dee6 cfbd 58d7 233e e69d 673e
000002c0: 9530 373e 6cac 17be 31ac 373d aba9 123d
000002d0: 4847 2c3e 726a e43d 26d2 1e3d 093f 1cbe
000002e0: 569d 0cbe 7ec1 da3d e019 6d3d 7c20 143e
000002f0: 177b 2a3e 2d49 e43d 5fde 90bd 6368 85bd
00000300: 23ed fe3d 0509 183e 2fed d53d e094 3bbe
00000310: efb6 0bbd b045 9fbd 7020 cb3d 0b20 483d
00000320: f78a 64bc 4994 2d3d 3a8d 2a3b 586f e4bd
00000330: 592a a3bd ac9b 81bd a79d 603d b63a 743d
00000340: cf9b ccbc d65c 493d 4726 073e df13 113d
00000350: 4901 43be 2c07 5abe 8400 9a3d c56c ad3d
00000360: 9f51 d53d 4e27 13be 8af1 c5bd 88c6 e43d
00000370: 9432 08bd 2596 d93d 5256 6b3d ee61 49bd
00000380: 7036 e5bd 7bb9 573d 17ca 61bd 86f6 ddbd
00000390: 8506 11bc 4157 a6bd 548b 3a3e ac34 03bd
000003a0: 454c ab3d 3e66 5bbb 1529 df3d f93b d53c
000003b0: dbb6 303e b35d f9bc fd37 ec3d 17d5 3b3e
000003c0: 05c3 8cbd f0c5 3c3e 5299 443e f81d 423d
000003d0: 2675 493d 1376 ecbd 3b16 04be 1c86 423e
000003e0: 36ad a33d de46 b1bc 00eb 4abd fb0a 413e
000003f0: 0596 3b3e 60ca dd3d 342b 5fbb f6cd ad3d

phi.4.bias f4 [28]
-0.019354336 0.17627992 0.13734697 -0.18136962 0.08991836 -0.0065500904 -0.1772546 0.03214134
-0.104826346 -0.04680471 -0.057178717 0.037853394 -0.10870303 0.014502981 -0.05220836 -0.055972684
-0.1522051 0.09879498 -0.1957055 0.13533916 0.014743371 0.074939065 -0.031553935 -0.14648545
-0.04605736 -0.08936819 -0.06428295 -0.16972351
00000000: fc8c 9ebc b982 343e afa4 0c3e f5b8 39be
00000010: 1e27 b83d 24a2 d6bb 3b82 35be a3a6 033d
00000020: 32af d6bd 4cb6 3fbd 3b34 6abd 290c 1b3d
00000030: b29f debd e99d 6d3c 6fd8 55bd 9d43 65bd
00000040: a7db 1bbe 0655 ca3d 0667 48be 5996 0a3e
00000050: 2e8e 713c a779 993d b33e 01bd 4800 16be
00000060: a4a6 3cbd ab06 b7bd c7a6 83bd 00cc 2dbe

phi.6.weight f4 [25, 28]
-0.08876989 -0.019370828 -0.024341246 -0.042845935 -0.048802108 -0.105443165 -0.04183175 0.2027969
0.15723483 -0.060366996 0.00494609 0.04131745 -0.13775428 0.13180158 0.050049625 -0.14982541
-0.035608795 -0.046830095 -0.17631379 -0.15789683 -0.12927979 0.166231 0.12373939 -0.041707907
-0.17588896 -0.067051284 0.12598146 -0.10186375 0.04480355 -0.16695991 -0.10771159 -0.0623951
-0.06603288 0.0125091495 0.124155276 0.092798814 0.14067392 0.136341 0.014606351 0.06459397
0.044494182 -0.09263703 0.07895787 -0.03580426 0.06456848 0.05925968 0.035121836 0.1567181
-0.09346312 0.11295848 -0.15087444 0.14765105 0.09070001 -0.19224566 0.17235735 -0.15599805
0.12415625 -0.010807437 0.081946835 -0.03247659 0.18013582 -0.17395675 0.1476667 0.11996939
-0.061416622 0.002704072 0.029685 0.002000368 0.10957807 0.13759267 -0.06735915 -0.13629806
0.082925655 0.19371694 -0.14788738 -0.08745172 0.026494006 -0.00883351 -0.054359507 0.031651244
0.049702756 -0.07192132 -0.22176978 -0.0024515528 0.09086823 -0.09443684 -0.11197017 -0.10468629
-0.18384264 0.13123298 0.2211214 0.14045247 0.13391376 -0.18614571 -0.11416044 -0.16650188
0.12912588 -0.04274908 -0.13135774 0.13779616 -0.11011144 -0.05448479 0.20877118 -0.14695323
0.057887185 0.07372956 -0.13193579 0.111985244 -0.1613038 0.102146804 -0.012631696 0.11625718
-0.143491 0.15646638 0.09905167 0.14716776 0.15201588 -0.07003913 -0.12928519 -0.12092429
-0.06314492 -0.1641822 0.037309878 -0.17625253 -0.122089826 -0.21390112 -0.062236555 -0.13734682
0.104273036 0.012601321 -0.08435022 -0.16466387 -0.040778965 -0.20021199 -0.1584113 0.13112082
-0.06677294 -0.10384873 0.18297973 0.17851266 0.13969016 -0.011052507 0.09904907 -0.021540092
-0.14119282 -0.11158891 0.09802945 -0.10265168 -0.088309176 -0.04055066 0.15281202 0.014953673
0.03589438 -0.053737454 0.17968985 0.11339962 0.11828414 -0.08830258 0.010283929 -0.056227326
-0.0715357 -0.12453103 0.13718389 -0.15248479 -0.09397358 -0.12331996 -0.021202091 0.14131628
0.004901703 -0.057528257 0.041490193 -0.039271694 0.039557155 -0.07139537 -0.03598808 0.05407176
0.019618576 0.18981633 0.10571514 0.13891254 -0.1683746 0.122439034 0.12454372 0.019993056
-0.09157709 -0.16214216 -0.0032315722 -0.108707584 0.005223837 -0.17327033 0.03977096 -0.16803598
0.15947253 0.07629228 0.09617002 0.16316943 0.16519038 -0.023607159 0.07184296 -0.063844755
-0.14587492 0.13060574 0.14754707 0.122870505 0.012907496 -0.16600299 -0.040032968 0.035752237
-0.17283379 -0.07605678 -0.033178847 0.093712375 0.0774521 -0.14521049 0.029637178 -0.07659139
0.065039486 0.16559243 0.14370696 -0.07293506 0.005784465 0.08197655 0.0068592876 -0.046841193
0.16585849 0.026572369 -0.0884313 -0.14255369 -0.07500452 0.1824645 0.20534979 -0.16263036
-0.13137126 0.10696393 0.06229524 0.17367849 -0.09790454 -0.040959943 0.010978873 -0.20439203
0.0034934054 0.11219934 -0.004416912 -0.14324841 0.1693352 -0.018388622 -0.018858925 -0.05215331
-0.0795551 -0.055392478 -0.13516192 0.13326374 -0.052156553 -0.09050911 0.036670707 0.18963805
00000000: fdcc b5bd 92af 9ebc 4b67 c7bc 387f 2fbd
00000010: b8e4 47bd 96f2 d7bd c557 2bbd fea9 4f3e
00000020: 2b02 213e 6243 77bd cf12 a23b 7d3c 293d
00000030: 750f 0dbe fef6 063e d600 4d3d d56b 19be
00000040: 87da 11bd ead0 3fbd 9a8b 34be b5af 21be
00000050: ec61 04be 7638 2a3e 146b fd3d e9d5 2abd
00000060: 3c1c 34be 2f52 89bd 4901 013e f19d d0bd
00000070: ed83 373d 8af7 2abe e597 dcbd 0192 7fbd
00000080: 3f3c 87bd 2df3 4c3c 1f45 fe3d 4e0d be3d
00000090: d30c 103e fa9c 0b3e 7a4f 6f3c d849 843d
000000a0: 883f 363d 7cb8 bdbd aab4 a13d 7da7 12bd
000000b0: 7b3c 843d 47ba 723d eadb 0f3d b67a 203e
000000c0: 9869 bfbd c756 e73d d47e 1abe d631 173e
000000d0: edc0 b93d 0cdc 44be 727e 303e f4bd 1fbe
000000e0: a245 fe3d ad11 31bc bed3 a73d 2c06 05bd
000000f0: 8675 383e b821 32be f035 173e 83b2 f53d
00000100: ff8f 7bbd cd36 313b f52d f33c 9b18 033b
00000110: 786a e03d 18e5 0c3e 98f3 89bd b891 0bbe
00000120: edd4 a93d bc5d 463e ca6f 17be e319 b3bd
00000130: f509 d93c 6dba 10bc 13a8 5ebd bca4 013d
00000140: 1e95 4b3d 7c4b 93bd 9e17 63be 3baa 20bb
00000150: 1f19 ba3d 1a68 c1bd 9e50 e5bd c465 d6bd
00000160: 3f41 3cbe f061 063e a66d 623e c6d2 0f3e
00000170: b020 093e fb9c 3ebe f3cc e9bd 787f 2abe
00000180: 9339 043e a919 2fbd a582 06be 701a 0d3e
00000190: 1b82 e1bd 712b 5fbd 1dc8 553e e87a 16be
000001a0: 1d1b 6d3d 86ff 963d 2d1a 07be 8558 e53d
000001b0: d32c 25be 5832 d13d 2cf5 4ebc 3f18 ee3d
000001c0: 4eef 12be b938 203e 9adb ca3d 25b3 163e
000001d0: 0daa 1b3e ad70 8fbd 5663 04be 27a7 f7bd
000001e0: 2052 81bd 611f 28be 3ed2 183d 8b7b 34be
000001f0: 3b0a fabd e508 5bbe c2eb 7ebd a5a4 0cbe
00000200: 1a8d d53d c575 4e3c cfbf acbd a59d 28be
00000210: d807 27bd 5f04 4dbe 9236 22be 8944 063e
00000220: 40c0 88bd a5ae d4bd 0a5f 3b3e 06cc 363e
00000230: f00a 0f3e 9315 35bc 3dda ca3d d974 b0bc
00000240: da94 10be ba88 e4bd aac3 c83d 0b3b d2bd
00000250: 71db b4bd 7318 26bd c17a 1c3e 4000 753c
00000260: fc05 133d ce1b 5cbd 9e00 383e 0f3e e83d
00000270: f53e f23d fcd7 b4bd ed7d 283c a04e 66bd
00000280: 4f81 92bd 200a ffbd ef79 0c3e f924 1cbe
00000290: 3875 c0bd 2d8f fcbd 02b0 adbc 37b5 103e
000002a0: 779e a03b c0a2 6bbd 9ff1 293d 5bdb 20bd
000002b0: af06 223d bc37 92bd 3d68 13bd 5a7a 5d3d
000002c0: 23b7 a03c 365f 423e 2e81 d83d 173f 0e3e
000002d0: 646a 2cbe 51c1 fa3d c710 ff3d 7ac8 a33c
000002e0: c58c bbbd 9808 26be c9c8 53bb 15a2 debd
000002f0: b92c ab3b c76d 31be e0e6 223d a011 2cbe
00000300: c44c 233e 203f 9c3d caf4 c43d e315 273e
00000310: ab27 293e cd63 c1bc 6722 933d 0ac1 82bd
00000320: 3c60 15be 83bd 053e 9416 173e 88a3 fb3d
00000330: f679 533c b0fc 29be 9cf9 23bd f070 123d
00000340: 57fb 30be a8c3 9bbd 8be6 07bd 46ec bf3d
00000350: 359f 9e3d 0fb2 14be abc9 f23c f2db 9cbd
00000360: 6c33 853d 1091 293e eb27 133e fa5e 95bd
00000370: 9c8b bd3b 52e3 a73d e0c3 e03b 8ddc 3fbd
00000380: cfd6 293e 4cae d93c 781b b5bd 98f9 11be
00000390: f89b 99bd f9d7 3a3e 3747 523e 9388 26be
000003a0: 3086 06be e80f db3d 4b29 7f3d c6d8 313e
000003b0: 2d82 c8bd 9dc5 27bd bbe0 333c 254c 51be
000003c0: 9ef1 643b c4c8 e53d bebb 90bb b6af 12be
000003d0: 3566 2d3e bca3 96bc 087e 9abc b69e 55bd
000003e0: c9ed a2bd 39e3 62bd e367 0abe 4a76 083e
000003f0: 1ca2 55bd d75c b9bd 0634 163d 7a30 423e

phi.6.bias f4 [25]
-0.15130952 0.061744556 0.054025743 0.14724304 0.09822745 -0.10325182 0.16610254 0.17129895
-0.15028836 0.052870344 -0.010027725 0.14231151 -0.002807973 -0.17699288 0.019455265 -0.17886207
0.0760424 0.17029487 -0.07929059 -0.16862288 -0.05754223 0.19624929 0.16180973 0.05565914
0.08498152
00000000: e2f0 1abe dce7 7c3d 194a 5d3d e1c6 163e
00000010: 792b c93d b175 d3bd c916 2a3e fe68 2f3e
00000020: 31e5 19be 938e 583d 544b 24bc 1cba 113e
00000030: f805 38bb 9f3d 35be a660 9f3c 9e27 37be
00000040: 1ebc 9b3d c761 2e3e 1b63 a2bd 7aab 2cbe
00000050: 67b1 6bbd 93f5 483e 73b1 253e d7fa 633d
00000060: cb0a ae3d

psi.0.weight f4 [128, 26]
0.04457743 0.1614845 0.14440344 0.1313336 0.058579177 0.1384212 -0.054969702 0.06882425
0.1436196 0.10881367 -0.1562274 -0.046339657 -0.035156254 0.011708613 0.04931601 0.14490418
0.09642841 0.2040407 0.05148368 -0.15697896 0.17832014 0.1682511 0.068345435 -0.1566094
-0.07243349 0.15033334 0.134987 -0.17817408 0.028350476 0.118043624 -0.06517866 0.014975188
0.082218915 0.07757947 0.117702805 -0.052331775 -0.10748374 -0.1349466 -0.12706576 0.07280774
0.13401748 -0.04775307 0.067298084 -0.18857418 0.033159252 -0.1771264 0.033984452 -0.19525138
0.035258383 -0.061206687 0.18380882 0.23903205 0.068281576 -0.024322266 0.066612996 0.07504999
-0.06869317 -0.05236995 0.06578847 0.23112315 -0.20433621 -0.0045729964 0.09720283 -0.06821865
-0.029822744 0.035449684 0.037757237 -0.07467859 0.0726138 -0.0018302929 0.057801336 -0.21781531
-0.035676133 -0.063262515 0.15753756 0.1844227 0.068287745 -0.105990954 -0.128202 0.19268847
-0.0659604 -0.037512686 0.09486858 -0.15990676 0.0411331 0.051104933 -0.20221785 -0.07837231
-0.120438665 0.07027239 0.11447739 0.01670918 -0.011856806 -0.15934496 -0.12146652 0.14855415
-0.027662922 0.0057396796 0.18285775 0.05788791 -0.055345457 -0.08375504 -0.062401712 0.010028853
-0.05758949 -0.060189888 0.0061591095 -0.09404595 -0.07389715 0.09621687 0.05297648 -0.14600572
0.0029391223 -0.16308999 0.110282995 0.16087785 0.15288064 -0.061066262 0.05674951 0.16675945
-0.093504116 0.038540203 -0.19001186 -0.09872951 0.1665971 0.027201232 -0.048295636 0.17012581
0.095553 -0.1684992 -0.0771636 -0.081325404 -0.14514516 -0.11507762 -0.15060686 0.11208497
0.027877066 -0.18715078 0.035872087 0.18230978 -0.016868765 0.1019691 -0.13428232 0.016602933
0.0602769 -0.17047973 -0.07598592 -0.048190407 -0.1431723 -0.06781629 -0.06427593 0.19183564
-0.027132083 -0.042620234 -0.1955164 -0.051297907 0.12793969 -0.01572908 0.12316751 0.08278069
0.14759898 -0.09436361 -0.084172204 0.045483682 0.17787667 -0.02501702 0.00092787854 -0.04333507
0.018399019 -0.15531033 0.11328081 0.11896988 0.0115062045 0.16021422 0.21009336 0.14750148
0.053628057 0.09046393 -0.04382678 -0.031625353 0.10073077 0.13957117 -0.05105883 0.11513282
-0.18287429 0.12146565 0.0504981 -0.0016303346 -0.15813912 -0.13358946 0.1490457 0.15256673
0.1855725 -0.081861585 -0.0058822385 -0.12383202 -0.14706752 0.06489564 0.037917215 -0.18098892
0.13405494 -0.11449089 0.09765608 0.16775489 0.01787217 0.13927071 0.025715206 -0.22937272
0.18184574 0.047473215 0.18014005 0.11636896 0.19795328 -0.08806456 -0.06563208 -0.020818125
0.09701568 0.07229453 0.042311113 0.045166343 0.15710108 -0.15987906 0.14921346 0.13064055
0.07298427 -0.17407987 -0.1393875 0.16023834 -0.07938453 0.15461484 0.078262605 0.19288597
0.108001634 -0.10886004 0.07640181 0.1097415 -0.025408514 0.008445604 0.022172093 -0.1068981
0.13448118 0.13276574 0.05422413 -0.17426857 0.10802566 -0.16285217 0.10598112 0.046213917
0.0046724724 0.16647558 0.16832504 0.08980163 -0.20099714 -0.08914866 0.1306835 0.14726014
00000000: d396 363d 315c 253e 7fde 133e 517c 063e
00000010: b8f0 6f3d 49be 0d3e e927 61bd baf3 8c3d
00000020: 0411 133e b4d9 de3d 13fa 1fbe a7ce 3dbd
00000030: 0100 10bd 7bd5 3f3c 96ff 493d c361 143e
00000040: 427c c53d 0cf0 503e 8de0 523d 18bf 20be
00000050: 8e99 363e 044a 2c3e b1f8 8b3d 375e 20be
00000060: 0258 94bd fcf0 193e 083a 0a3e 4473 36be
00000070: 423f e83c dbc0 f13d 647c 85bd 7e5a 753c
00000080: 6462 a83d fce1 9e3d 2b0e f13d d859 56bd
00000090: 6f20 dcbd 712f 0abe 871d 02be 391c 953d
000000a0: e13b 093e b998 43bd 94d3 893d 9719 41be
000000b0: ffd1 073d 9f60 35be 4833 0b3d faef 47be
000000c0: 186b 103d ddb3 7abd 6138 3c3e d1c4 743e
000000d0: 36d7 8b3d 7d3f c7bc 656c 883d cfb3 993d
000000e0: 01af 8cbd df81 56bd 1bbc 863d 8cab 6c3e
000000f0: 833d 51be 13d9 95bb 4712 c73d 38b6 8bbd
00000100: d44e f4bc b033 113d 55a7 1a3d 17f1 98bd
00000110: 8bb6 943d 70e6 efba 18c1 6c3d fa0a 5fbe
00000120: 2321 12bd c78f 81bd 8751 213e 4ed9 3c3e
00000130: 72da 8b3d c911 d9bd 6347 03be 2050 453e
00000140: 3f16 87bd e7a6 19bd 754a c23d 99be 23be
00000150: 2e7b 283d 6853 513d 3212 4fbe a981 a0bd
00000160: 8ca8 f6bd f9ea 8f3d 1f73 ea3d b1e1 883c
00000170: 0d43 42bc 532b 23be 70c3 f8bd 941e 183e
00000180: 5a9d e2bc ec13 bc3b 103f 3b3e e01b 6d3d
00000190: ebb1 62bd c387 abbd f098 7fbd 0f50 243c
000001a0: f5e2 6bbd ac89 76bd 5bd2 c93b 2a9b c0bd
000001b0: 6457 97bd 5a0d c53d defd 583d 8682 15be
000001c0: 4a9e 403b 1001 27be 0ddc e13d 2abd 243e
000001d0: be8c 1c3e 9e20 7abd 2d72 683d fdc2 2a3e
000001e0: 167f bfbd 55dc 1d3d 7892 42be b332 cabd
000001f0: 6e98 2a3e 1ed5 de3c a5d1 45bd 7635 2e3e
00000200: 4bb1 c33d 0e8b 2cbe f307 9ebd ef8d a6bd
00000210: efa0 14be d1ad ebbd af38 1abe ce8c e53d
00000220: 725e e43c 74a4 3fbe 9cee 123d 6aaf 3a3e
00000230: 5d30 8abc 2dd5 d03d 4e81 09be e002 883c
00000240: e9e4 763d 3d92 2ebe 829e 9bbd 4e63 45bd
00000250: c29b 12be 44e3 8abd 19a3 83bd 9070 443e
00000260: 1a44 debc 8e92 2ebd 7335 48be c11d 52bd
00000270: 9f02 033e 46da 80bc 3f3f fc3d ec88 a93d
00000280: 3024 173e b541 c1bd 7a62 acbd 194d 3a3d
00000290: 4d25 363e 7ef0 ccbc e03c 733a 1d80 31bd
000002a0: 8ab9 963c ac09 1fbe c5ff e73d 7ba6 f33d
000002b0: 8584 3c3c 320f 243e b722 573e a10a 173e
000002c0: 18a9 5b3d 2745 b93d b683 33bd 9689 01bd
000002d0: ef4b ce3d bfeb 0e3e 1023 51bd c2ca eb3d
000002e0: 6643 3bbe fcc2 f83d 19d7 4e3d f4b0 d5ba
000002f0: 39ef 21be adcb 08be 709f 183e 743a 1c3e
00000300: b806 3e3e 0ca7 a7bd cbbf c0bb a49b fdbd
00000310: de98 16be 01e8 843d 154f 1b3d 2955 39be
00000320: b345 093e 337a eabd e9ff c73d f0c7 2b3e
00000330: a868 923c fb9c 0e3e b2a8 d23c afe0 6abe
00000340: c535 3a3e 4673 423d a276 383e d952 ee3d
00000350: 44b4 4a3e 315b b4bd 1d6a 86bd c68a aabc
00000360: 28b0 c63d 280f 943d 6b4e 2d3d 5800 393d
00000370: 1bdf 203e 56b7 23be 6acb 183e a3c6 053e
00000380: c778 953d fe41 32be 99bb 0ebe 8515 243e
00000390: 5b94 a2bd 5a53 1e3e 2548 a03d e683 453e
000003a0: f62f dd3d 03f2 debd 8d78 9c3d 27c0 e03d
000003b0: 8425 d0bc 6e5f 0a3c 40a2 b53c 64ed dabd
000003c0: 6fb5 093e bef3 073e 1f1a 5e3d 7673 32be
000003d0: 8f3c dd3d b8c2 26be a10c d93d ce4a 3d3d
000003e0: 8a1b 993b 9378 2a3e 665d 2c3e ebe9 b73d
000003f0: 32d2 4dbe 9393 b6bd e5d1 053e 5dcb 163e

psi.0.bias f4 [128]
0.15565088 0.13958964 -0.021463763 0.076492324 0.15218309 -0.18692087 0.14778104 -0.015629001
0.0671308 0.17609726 0.12917764 0.15604888 0.10928269 0.14907055 -0.028567621 0.13494922
0.013317337 0.15672597 0.18147615 -0.055504635 -0.17328176 -0.07379747 0.08085053 0.017928423
0.1103778 -0.10131403 0.068607114 0.008125693 0.11702872 -0.009295946 0.18588422 0.11162969
0.1019452 -0.031755645 0.18796583 -0.09532047 0.030872045 -0.16763322 -0.13262185 0.13441582
0.119109534 -0.032287713 -0.011091759 -0.03683943 0.1373283 0.18179104 0.015977606 0.00902589
0.10258176 -0.16044524 0.15552391 -0.06837656 -0.06917888 0.090113275 -0.07437976 0.05362219
-0.1388503 -0.12188089 -0.11359595 0.15070486 0.05379717 0.035783883 -0.093079686 0.1679223
-0.13668303 -0.10786249 0.042251155 0.097148225 0.13561615 0.045606513 0.068869136 0.06661796
-0.031923827 0.056633048 -0.13868748 -0.10180773 0.14834812 -0.16444133 0.121440575 -0.2023403
-0.08098679 0.04236074 -0.011368744 0.16213152 0.024134161 -0.10371026 -0.13729191 -0.018845495
0.15517335 0.21532665 0.01750705 0.16920973 0.01914614 -0.12097449 -0.023987811 0.09870937
0.053177424 0.09667772 -0.1269209 -0.016982704 0.10708245 0.10345846 0.101187564 0.11120504
0.062906176 0.06469452 0.13255516 -0.08993505 -0.027413933 0.07457661 -0.08155524 -0.045409102
-0.09888387 0.09512279 0.14753704 0.13907836 -0.116438404 0.14430073 0.06735972 -0.03031021
0.002412828 0.15302408 -0.14267746 -0.14191145 0.10053945 0.014739382 0.11842231 0.07957633
00000000: f262 1f3e 96f0 0e3e c6d4 afbc 02a8 9c3d
00000010: e2d5 1b3e 2f68 3fbe ea53 173e 6408 80bc
00000020: df7b 893d d752 343e 2547 043e 47cb 1f3e
00000030: 9acf df3d f3a5 183e a506 eabc 2130 0a3e
00000040: f630 5a3c c67c 203e e2d4 393e d458 63bd
00000050: c670 31be 2123 97bd f694 a53d a1de 923c
00000060: c20d e23d bb7d cfbd e381 8c3d a021 053c
00000070: c1ac ef3d 064e 18bc 6f58 3e3e 1b9e e43d
00000080: a5c8 d03d 3512 02bd 1d7a 403e 6137 c3bd
00000090: 5fe7 fc3c 0ba8 2bbe 06ce 07be 4da4 093e
000000a0: b3ef f33d 1f40 04bd 36ba 35bc f1e4 16bd
000000b0: ca9f 0c3e 6e27 3a3e 78e3 823c 54e1 133c
000000c0: 6316 d23d c24b 24be a941 1f3e 0309 8cbd
000000d0: a8ad 8dbd 4f8d b83d 6a54 98bd f1a2 5b3d
000000e0: c62e 0ebe b09c f9bd fea4 e8bd 6052 1a3e
000000f0: 6c5a 5c3d 1f92 123d 90a0 bebd d3f3 2b3e
00000100: a3f6 0bbe 02e7 dcbd 8c0f 2d3d a6f5 c63d
00000110: f6de 0a3e e5cd 3a3d 430b 8d3d ff6e 883d
00000120: 8fc2 02bd 0ef8 673d 1704 0ebe 9280 d0bd
00000130: 92e8 173e 4f63 28be d6b5 f83d 4c32 4fbe
00000140: 67dc a5bd 7582 2d3d f843 3abc ce05 263e
00000150: 01b5 c53c 0b66 d4bd 4096 0cbe de61 9abc
00000160: c3e5 1e3e 977e 5c3e f26a 8f3c 5145 2d3e
00000170: 5ed8 9c3c 79c1 f7bd 1682 c4bc 2328 ca3d
00000180: 92d0 593d f8fe c53d 8df7 01be 501f 8bbc
00000190: 0b4e db3d 07e2 d33d 6d3b cf3d 78bf e33d
000001a0: f4d4 803d 8f7e 843d 8abc 073e de2f b8bd
000001b0: 2f93 e0bc 9fbb 983d 6f06 a7bd e5fe 39bd
000001c0: a083 cabd bdcf c23d f313 173e 8f6a 0e3e
000001d0: 4277 eebd 92c3 133e e5f3 893d 1e4d f8bc
000001e0: 8920 1e3b 58b2 1c3e 0a1a 12be 3c51 11be
000001f0: a1e7 cd3d 737d 713c 6587 f23d eaf8 a23d

psi.2.weight f4 [128, 128]
0.015118267 0.12373381 -0.011862533 -0.03801204 -0.05217193 -0.04491445 -0.011812954 -0.11415258
-0.067837276 0.09326346 -0.084404714 0.03478164 -0.13517037 -0.09115895 0.01740184 -0.11882177
-0.07616911 0.043849483 -0.004651904 0.0047900146 0.052447807 0.08127294 0.09929269 -0.007454296
0.071992815 0.011464126 -0.038078822 -0.058845896 -0.017481167 -0.041454792 0.031145167 -0.0036500876
0.064507335 0.10643484 -0.015012328 0.024048863 -0.0391379 0.052095603 0.043798387 0.11896022
0.10794404 -0.09883217 0.07236657 -0.023273254 -0.009270547 0.11308611 -0.073916174 0.05379974
-0.069791555 -0.07705974 0.01516507 -0.11062231 -0.09793221 0.11535229 0.016528193 0.10745769
0.04800236 -0.024418613 0.051093414 0.08812725 0.028440353 -0.11726677 0.05143374 -0.04400346
-0.100466095 -0.015479377 0.048624042 -0.04190042 -0.039191447 0.04246844 0.022560107 0.0022127116
-0.04814255 0.015570411 -0.007916384 -0.04849054 -0.0045545786 -0.050634865 -0.056998767 -0.05632526
-0.07351234 -0.10771114 -0.0070847236 0.035966303 -0.03256366 0.04273744 -0.015238529 0.037774824
-0.050920952 -0.056715183 0.05719447 0.09302779 -0.094800726 0.14098382 -0.046533763 -0.121687934
-0.09736604 0.095340535 -0.08485155 -0.023413256 0.00044798088 -0.02619214 0.040224005 -0.06725792
0.039264232 0.048731863 -0.08379437 0.023299959 0.03254359 0.019375144 -0.08078791 -0.05202701
0.049529176 -0.09217414 0.08147155 0.02238084 -0.036207102 -0.06569706 0.028851397 -0.027545614
0.051248565 -0.1014238 -0.024130238 -0.05569845 0.117116936 0.027881159 0.056366242 -0.07309953
-0.021449693 0.014620191 -0.006555387 0.05170861 0.0035174226 -0.01899134 0.047618326 -0.007857278
-0.054544345 -0.11722459 0.004617185 0.09851892 0.1210312 0.035697743 0.10427488 0.0030559136
-0.07245209 -0.021924738 -0.0033506288 0.024330188 0.008236609 -0.077273756 -0.050445918 0.075380936
0.02892309 0.08136755 0.033678837 0.06467445 -0.029506376 -0.009396233 -0.05146771 -0.03484288
-0.0574912 -0.04597422 -0.0025081595 -0.041687977 -0.09811226 -0.051379584 -0.083856486 -0.0226465
-0.114937656 0.023260659 -0.062374517 -0.10443407 0.0009786393 0.04683929 0.075528786 0.060611904
-0.04432125 -0.05415831 -0.069323026 -0.007710855 0.07138679 -0.03810182 -0.089157246 -0.119261995
-0.061134182 -0.120678894 -0.056469303 -0.048028696 0.1105149 0.088685654 0.028925616 0.011333472
-0.04733889 -0.027045347 0.022804499 0.008907614 -0.061096054 0.033935852 -0.005033473 -0.046291284
0.086657554 -0.10537696 0.0029570642 0.021841545 0.0044462043 0.015707364 -0.09725638 -0.074841715
0.013039592 -0.012883421 -0.06505598 -0.008937994 -0.08322329 0.0422131 0.033561286 -0.055635616
-0.06380738 0.088448435 -0.0015087365 -0.097521335 -0.014141975 -0.0407413 0.12304758 0.01805529
0.09882994 -0.10433431 0.06532768 0.04817614 0.09453203 -0.02413833 0.040444437 -0.0071275043
-0.03324981 0.022583803 -0.01784421 0.018083405 0.07516952 0.08000753 -0.03697816 -0.012179396
-0.071482226 -0.015191489 0.07464255 -0.09684695 -0.10127943 0.019369986 0.030311314 -0.066143736
0.011057614 0.12198812 -0.07063784 -0.014505674 -0.005265838 -0.048240837 0.058740616 -0.024793075
00000000: 9cb2 773c 2768 fd3d 125b 42bc 83b2 1bbd
00000010: 3cb2 55bd 37f8 37bd 1f8b 41bc d4c8 e9bd
00000020: 45ee 8abd ea00 bf3d 61dc acbd 3177 0e3d
00000030: 1a6a 0abe 8bb1 babd 4e8e 8e3c d458 f3bd
00000040: 8dfe 9bbd 849b 333d 006f 98bb 8ef5 9c3b
00000050: 83d3 563d 6d72 a63d f759 cb3d 2b43 f4bb
00000060: f870 933d 08d4 3b3c 8af8 1bbd 6508 71bd
00000070: aa34 8fbc 80cc 29bd 2624 ff3c 4f36 6fbb
00000080: 6c1c 843d 82fa d93d 44f6 75bc 1f02 c53c
00000090: 104f 20bd 3362 553d f065 333d 6aa1 f33d
000000a0: c411 dd3d 8568 cabd ed34 943d 8da7 bebc
000000b0: 7ee3 17bc b199 e73d 5d61 97bd 1e5d 5c3d
000000c0: e0ee 8ebd 7fd1 9dbd ea76 783c f38d e2bd
000000d0: af90 c8bd d23d ec3d 2266 873c c712 dc3d
000000e0: 1f9e 443d 8b09 c8bc 5447 513d 0f7c b43d
000000f0: befb e83c 8f29 f0bd 2fac 523d f93c 34bd
00000100: 2bc1 cdbd 369d 7dbc 012a 473d c69f 2bbd
00000110: 3687 20bd 63f3 2d3d f9cf b83c 2403 113b
00000120: 1f31 45bd 0a1b 7f3c b9b3 01bc 049e 46bd
00000130: 933e 95bb 8166 4fbd 8a77 69bd 51b5 66bd
00000140: a38d 96bd a897 dcbd f826 e8bb 6751 133d
00000150: 7961 05bd 740d 2f3d 06ab 79bc c6b9 1a3d
00000160: 7d92 50bd 2e4e 68bd c044 6a3d 5b85 be3d
00000170: e226 c2bd 105e 103e 309a 3ebd 8637 f9bd
00000180: d967 c7bd e641 c33d a6c6 adbd 28cd bfbc
00000190: fade ea39 e690 d6bc edc1 243d 85be 89bd
000001a0: 88d3 203d 109b 473d 629c abbd 8edf be3c
000001b0: 6d4c 053d 9fb8 9e3c 2274 a5bd 461a 55bd
000001c0: 1bdf 4a3d ccc5 bcbd 8eda a63d 0658 b73c
000001d0: e64d 14bd 2e8c 86bd c459 ec3c 57a7 e1bc
000001e0: 04ea 513d 48b7 cfbd c7ac c5bc 0f24 64bd
000001f0: 01db ef3d 0767 e43c 4ae0 663d 35b5 95bd
00000200: 44b7 afbc 8789 6f3c 92ce d6bb 68cc 533d
00000210: 8f84 663b ba93 9bbc 6f0b 433d d0bb 00bc
00000220: e469 5fbd 7213 f0bd c14b 973b 4ac4 c93d
00000230: 35df f73d cc37 123d 118e d53d b945 483b
00000240: c361 94bd 829b b3bc 3996 5bbb 1a50 c73c
00000250: d8f2 063c b441 9ebd 61a0 4ebd 5261 9a3d
00000260: 1ef0 ec3c 08a4 a63d d2f2 093d 0a74 843d
00000270: 5bb7 f1bc a8f2 19bc cecf 52bd 68b7 0ebd
00000280: e47b 6bbd 774f 3cbd ef5f 24bb 03c1 2abd
00000290: 15ef c8bd 6673 52bd f3bc abbd 2785 b9bc
000002a0: 6f64 ebbd 238d be3c 6c7c 7fbd 88e1 d5bd
000002b0: b045 803a 8eda 3f3d d6ae 9a3d 3044 783d
000002c0: 338a 35bd 1bd5 5dbd 3bf9 8dbd 57ab fcbb
000002d0: 3d33 923d a710 1cbd 1398 b6bd a23f f4bd
000002e0: d667 7abd 7f26 f7bd 5b4c 67bd bdb9 44bd
000002f0: a355 e23d d3a0 b53d 6af5 ec3c 07b0 393c
00000300: 6de6 41bd 348e ddbc 80d0 ba3c 3ef1 113c
00000310: db3f 7abd 5200 0b3d d5ef a4bb ee9b 3dbd
00000320: 8479 b13d e0cf d7bd 4ecb 413b 0aed b23c
00000330: 77b1 913b bbac 803c 5a2e c7bd 9d46 99bd
00000340: 03a4 553c fc14 53bc 123c 85bd aa70 12bc
00000350: f970 aabd a5e7 2c3d 8f77 093d 2ce2 63bd
00000360: 72ad 82bd 7424 b53d ccc0 c5ba 44b9 c7bd
00000370: beb3 67bc 59e0 26bd 5f00 fc3d b0e8 933c
00000380: 5a67 ca3d 3aad d5bd 85ca 853d 5854 453d
00000390: 029a c13d bfbd c5bc 11a9 253d d78d e9bb
000003a0: f430 08bd ab01 b93c 052e 92bc a623 943c
000003b0: 7af2 993d fdda a33d 6976 17bd 178c 47bc
000003c0: 4665 92bd b9e5 78bc 31de 983d b257 c6bd
000003d0: 976b cfbd cead 9e3c 6f4f f83c 5e76 87bd
000003e0: ff2a 353c e8d4 f93d 92aa 90bd 35a9 6dbc
000003f0: 0d8d acbb 2f98 45bd 009a 703d d91a cbbc

psi.2.bias f4 [128]
-0.0030162511 0.03109917 0.0396676 0.028497614 -0.026363254 -0.078537546 0.01682133 0.00667172
-0.03099675 0.09657072 -0.0092120245 0.011912923 -0.03276964 -0.07093646 0.08508849 -0.0063258028
0.06010327 0.05324868 -0.017830791 0.088211924 0.02490008 0.09870686 0.09862406 0.012010154
-0.061744876 0.06695685 -0.072255775 -0.008547214 -0.041461557 0.0983182 0.024197293 -0.051873192
-0.084095806 -0.09960593 -0.00963706 0.070104085 0.092638865 -0.008411023 0.011567235 -0.09477847
0.04891486 -0.014742781 0.052385412 -0.059363157 0.0027778794 0.056131378 -0.030435113 0.07982111
0.024958024 -0.09837051 -0.06530316 0.015162652 -0.03678368 -0.020436319 0.061314404 0.007184557
-0.047768693 -0.09387261 0.02916348 0.05121925 0.06699608 -0.014398076 -0.07932959 -0.07067275
-0.022235228 0.031466015 0.061501347 -0.0007382093 0.028652497 -0.03159264 -0.036979813 0.089145415
-0.055599894 0.067024134 -0.050697166 0.056429446 -0.09385002 -0.099754006 -0.0063910075 0.063804805
0.07247032 0.014475317 -0.058365967 0.025094587 -0.024422828 0.009806708 0.07642844 0.03273813
-0.013690227 0.066185005 -0.007535821 -0.013920043 -0.07696664 -0.01628158 0.020237211 0.07477841
0.092515625 0.06623133 -0.034105703 0.0016329134 0.01731909 -0.038662314 0.03875909 0.041340742
0.06268613 0.02984327 -0.046121214 -0.04873964 0.08813197 0.05740322 -0.06286753 -0.01879339
0.02863424 0.002269916 0.005161925 -0.06787671 -0.05173508 0.07186928 0.09661308 0.06749454
0.047123622 -0.00798145 0.05306614 -0.04796016 -0.06004701 -0.064947695 -0.07353404 0.03528365
00000000: 4cac 45bb b0c3 fe3c 7e7a 223d d473 e93c
00000010: c0f7 d7bc 4bd8 a0bd e3cc 893c 729e da3b
00000020: e5ec fdbc dfc6 c53d 08ee 16bc 6c2e 433c
00000030: 7539 06bd 2247 91bd e042 ae3d ae48 cfbb
00000040: d92e 763d 4a1b 5a3d e111 92bc 74a8 b43d
00000050: 41fb cb3c d226 ca3d 69fb c93d 3dc6 443c
00000060: 32e8 7cbd ac20 893d d6fa 93bd 9d09 0cbc
00000070: 98d3 29bd 0d5b c93d 6739 c63c fc78 54bd
00000080: 6c3a acbd 32fe cbbd c2e4 1dbc bb92 8f3d
00000090: 72b9 bd3d 63ce 09bc 8084 3d3c 371b c2bd
000000a0: f35a 483d b58b 71bc 1692 563d c826 73bd
000000b0: 150d 363b 04ea 653d 0f53 f9bc 4079 a33d
000000c0: c574 cc3c 7a76 c9bd aabd 85bd c66c 783c
000000d0: 7caa 16bd 116a a7bc d024 7b3d 6f6c eb3b
000000e0: 1ba9 43bd 4840 c0bd 40e8 ee3c 47cb 513d
000000f0: 3e35 893d e8e5 6bbc 8d77 a2bd e0bc 90bd
00000100: a726 b6bc 82e2 003d d6e8 7b3d 6384 41ba
00000110: a4b8 ea3c 4967 01bd 2578 17bd df91 b63d
00000120: b7bc 63bd f343 893d d5a7 4fbd 9022 673d
00000130: 7034 c0bd d44b ccbd a86b d1bb 18ac 823d
00000140: 526b 943d e129 6d3c 2711 6fbd 2a93 cd3c
00000150: 6212 c8bc 51ac 203c 8486 9c3d 6b18 063d
00000160: f94c 60bc 018c 873d 0cef f6bb e410 64bc
00000170: b0a0 9dbd f360 85bc 82c8 a53c 6c25 993d
00000180: d578 bd3d 4ba4 873d 6cb2 0bbd 7b07 d63a
00000190: c4e0 8d3c 605c 1ebd dac1 1e3d e954 293d
000001a0: 9661 803d e079 f43c 99e9 3cbd 37a3 47bd
000001b0: 897e b43d a41f 6b3d b1c0 80bd 98f4 99bc
000001c0: 5b92 ea3c dfc2 143b 5e25 a93b f202 8bbd
000001d0: 2ae8 53bd 3330 933d 14dd c53d 943a 8a3d
000001e0: b304 413d a1c4 02bc e15b 593d df71 44bd
000001f0: dbf3 75bd 4c03 85bd 0499 96bd 9785 103d
