classcaus/weight_checkpoint_2022-4-12_1-48-47_zB7YlFGW0gYshGY96jH9.pt (torch, 125375 bytes, 15 tensors)

phi.0.weight f4 [32, 25]
000000 96 d8 3d be 6a 19 b2 bd 6a dd 02 3d 83 70 ed 3d
       -0.18539652 -0.086962536 0.03194944 0.115937255
000010 87 db 43 be d9 c2 b6 3d 30 32 0b 3d 90 7f 54 3d
       -0.19126712 0.08923883 0.03398341 0.051879466
000020 79 ce 8b 3d ee dd cf 3c ed db c3 bc 71 89 3e be
       0.06826491 0.025374379 -0.02390858 -0.18607117
000030 32 4e a6 bb 9c 30 ef bd 24 24 8a 3d 58 eb 04 bd
       -0.0050752396 -0.116791934 0.067451745 -0.032451004
000040 3f b7 b3 bd 87 86 57 be 1e 09 28 be 72 b9 3b 3e
       -0.08775186 -0.21047412 -0.16409728 0.1833246
000050 ca 45 92 bd 51 11 2c 3e de 68 f9 3d e5 f4 4b be
       -0.071422175 0.1680348 0.12178205 -0.19917639
000060 22 0b 16 bd 67 de f0 3d 24 7b 4a 3e 2e 35 b1 bd
       -0.03663171 0.1176117 0.19773537 -0.08652721
000070 ae f4 68 bc d9 fc 51 bd d9 60 0a 3e ee 31 ca 3c
       -0.014218492 -0.051266525 0.13513507 0.024682011
000080 ef 76 3d 3d af e4 30 3e 90 5e 0f be 52 17 12 bd
       0.046256002 0.17274736 -0.14000916 -0.03566677
000090 0b 43 e6 3d 80 ff 87 3d 53 5a 4b be 49 1e c1 3c
       0.11243256 0.0664053 -0.19858675 0.023574011
0000a0 4d 97 48 be 55 b5 5c bb 55 d7 b0 bd b1 7f ef bc
       -0.19588967 -0.0033677418 -0.08634821 -0.029235693
0000b0 d4 aa ed bd a3 0d 11 be c1 01 ba 3b d9 18 dc bd
       -0.116048485 -0.14165358 0.0056764786 -0.10746927
0000c0 13 5d 08 be 26 4d 5c 3d ea 2c 89 3d 89 d9 d8 3d
       -0.13316755 0.053784512 0.0669802 0.105883665
0000d0 5a aa 37 3e 0d 4a 3e bd b5 a6 2b be b9 71 fc bc
       0.17936078 -0.04645734 -0.16762812 -0.030815946
0000e0 f5 8c 03 be 52 12 2d bd c7 30 cc 3b cd 4d 3d bc
       -0.1284674 -0.0422538 0.0062314006 -0.011554194
0000f0 c9 32 4d 3d dd 43 17 3e c0 17 33 3d 5e f6 34 be
       0.05009726 0.14771982 0.04372382 -0.17672107
000100 52 7e 84 bd d1 e9 fe 3c c3 ea cf 3d a5 b0 1d bd
       -0.06469406 0.031117352 0.10152199 -0.03849854
000110 00 d4 49 3e 9a 6a f2 3d e2 95 d4 bd 3c 71 09 be
       0.19709778 0.11836739 -0.103801504 -0.13422102
000120 dc 48 71 3d 70 79 1b be 0c fa 0a 3e dc 9f 0a be
       0.058907375 -0.15183043 0.13571948 -0.13537544
000130 f3 3d 99 bc fd ff 2f be 2b ed 19 be 50 3c c0 bc
       -0.018706298 -0.17187496 -0.15031879 -0.02346626
000140 9b a4 89 3d 6c f9 be bd 41 78 75 3d 09 98 36 bd
       0.06720849 -0.09324917 0.059929136 -0.044578586
000150 30 05 40 be d2 e6 da bd 93 8a 9c 3d 69 b5 f8 3c
       -0.18751979 -0.10688557 0.076436184 0.03035994
000160 5e 7c 04 3e 02 37 98 3d 31 56 83 3d a2 2a d7 bc
       0.12938067 0.07432367 0.06412924 -0.026265446
000170 dc c9 bb bd 62 53 26 3d b1 71 c3 3c 43 d6 6e 3d
       -0.09169361 0.040606864 0.023857923 0.058309805
000180 6e e7 03 bd c2 8e 9e 3c 04 b5 1b 3e 07 fb 8a 3d
       -0.03220313 0.019355182 0.1520577 0.06786161
000190 cf 49 34 be 68 51 1a 3d c9 5a f7 bd 8d a7 30 3e
       -0.1760628 0.03767529 -0.12077863 0.17251416
0001a0 19 75 7d 3d bd 9f db 3b e1 99 10 be aa 5c 20 3d
       0.06187925 0.006702392 -0.141212 0.03915087
0001b0 41 0d 13 be bd 3a a0 bd ea 44 9f 3d 86 f1 ac bd
       -0.14360525 -0.078237034 0.07776816 -0.084445044
0001c0 58 1a e3 3b 6e fc 7e 3d ed fe 5f 3d 85 cd 34 3e
       0.0069306307 0.062252454 0.054686476 0.17656524
0001d0 c9 b3 23 bc e3 4c cf bd 3a f9 38 3e cc 66 af bd
       -0.009991595 -0.10122087 0.18063822 -0.08564529
0001e0 e5 66 2d 3d 4c 94 3a 3d 3b 79 dc bd 26 d5 c7 bd
       0.042334456 0.045551583 -0.107653104 -0.09757452
0001f0 9f 16 48 3e 4d ff 58 3d ea 4e b1 bd f3 07 25 ba
       0.1953988 0.05297785 -0.0865763 -0.0006295435
000200 8a e4 ca bd 97 08 f7 3a f4 49 c0 3d fb 4a 43 3b
       -0.099068716 0.0018847164 0.093891054 0.002979933
000210 80 a1 0c be 63 81 92 bd 2e b2 11 3e b8 02 10 3e
       -0.13733482 -0.07153585 0.14228126 0.14063537
000220 a8 65 2b 3e 3c 42 48 3d 04 54 40 be 38 05 41 be
       0.16737998 0.04889129 -0.1878205 -0.18849647
000230 f1 51 41 be b6 a1 a3 3c 7e 6a 0b be 48 db 3b 3e
       -0.18878914 0.01997457 -0.13614842 0.18345368
000240 4c 6e f0 bd e6 29 b8 3d 5b 8c ca bd 13 e0 6a 3c
       -0.117397875 0.089923665 -0.09890052 0.01433565
000250 ce 9e 16 3d 9d e6 f2 bc ce ac 39 be 9c d4 4e 3d
       0.03677254 -0.02965098 -0.18132326 0.05049573
000260 e8 21 25 bd 86 b9 82 3b c4 48 32 3e 71 d2 37 bd
       -0.04031554 0.0039894013 0.1741057 -0.044878427
000270 f6 07 32 3e 14 b1 97 3d 45 5b b3 bd 8c eb bf bd
       0.1738585 0.07406822 -0.08757643 -0.09371099
000280 eb 5e 38 be f6 77 02 3e ec b6 40 3c 44 e8 de bc
       -0.18004958 0.12741074 0.011762362 -0.027210362
000290 f6 23 f8 bd 7d 2e 09 3d cb eb f7 3c 33 64 02 bd
       -0.12116234 0.0334916 0.030263802 -0.03183384
0002a0 f3 12 36 bc 85 01 a0 bd 1a 5c 2a be f2 8a 3a bd
       -0.011112916 -0.0781279 -0.16636696 -0.045542665
0002b0 94 0a bc 3c 55 d7 28 be 13 34 14 3d ab a8 10 be
       0.022954263 -0.16488393 0.036182474 -0.14126842
0002c0 3e f9 df 3d c4 7a 23 bd e9 66 41 3e 7e 83 fd bd
       0.10936211 -0.039912 0.18886913 -0.12378596
0002d0 9e 8b 6e 3e b3 6a cd bd 05 65 bf 3d 8f dd ba 3c
       0.23295447 -0.10030117 0.0934544 0.022810725
0002e0 e6 63 a0 3d 5e b9 bb bd 51 d2 9e bd a7 98 be 3d
       0.07831554 -0.09166215 -0.077549584 0.0930646
0002f0 db da e8 bc 4c 31 33 be ea 88 1d 3e dd f5 26 3e
       -0.02842467 -0.17499274 0.1538426 0.16304727
000300 a2 ab d2 bc 04 a0 90 3d a5 10 95 bd 33 91 0d 3c
       -0.025716607 0.070617706 -0.07278565 0.008640575
000310 66 76 d9 bd 65 ed 08 bd e5 1b a4 3d 73 85 08 3e
       -0.10618286 -0.033429522 0.08013133 0.13332157
000320 52 cb e3 bd 75 b9 2d be ae 78 14 be f2 78 2d be
       -0.11122765 -0.16965277 -0.1449916 -0.16940668
000330 7e 2b 21 3e 65 d6 5b 3c 03 c7 08 3d 6a 5d ae 3d
       0.15739247 0.013417815 0.033392917 0.08513911
000340 df 4f 10 bd 5e 99 ca bd 53 7d 42 3e 2c 2b 10 3e
       -0.03523242 -0.09892534 0.1899312 0.14078969
000350 5e fe 24 3e 2b 57 a4 bd 34 49 6c bc 8e 72 d1 bc
       0.16112658 -0.080244385 -0.01442175 -0.02556732
000360 19 52 2e be 42 22 f3 bd 3e ec f4 3c e7 ce 5d 3d
       -0.17023505 -0.118717685 0.029897805 0.054152396
000370 9a ff 07 3d 2a 9d ab 3d b0 14 f5 bd 83 e0 32 be
       0.033202745 0.08379586 -0.119668365 -0.17468457
000380 04 b3 1f 3e 62 c2 4e 3e fb 05 f7 3d 2b 65 cb bd
       0.15595633 0.20191339 0.120616876 -0.09931406
000390 7c c6 13 3e 8b 1f 3d 3e 5e 7a f9 bd 03 46 0b 3e
       0.14431185 0.18469064 -0.12181543 0.13600926
0003a0 fe 15 26 3d 73 98 d2 bd 8d 95 80 bc 5a 7d 0f 3e
       0.040548317 -0.10282984 -0.015696311 0.14012662
0003b0 48 f3 bf bc 37 5b ab 3d 82 c4 d7 bc 48 2c 3c be
       -0.023431435 0.08367007 -0.02633882 -0.18376267
0003c0 3f 9a de bd f5 36 48 3e 58 9f 3a be 0e 6c b7 3d
       -0.10869264 0.19552214 -0.18224847 0.08956157
0003d0 62 80 f0 3d 2e a6 da bb 2d 1f 20 3e 30 13 0e bd
       0.11743237 -0.006672642 0.15636893 -0.034686267
0003e0 e2 eb f2 bd 27 43 1a 3e 85 c3 25 be d7 a2 ec bc
       -0.11861397 0.15064679 -0.16187866 -0.028886242
0003f0 01 50 81 3c 9c 82 65 3d 59 13 81 3d bd 5b 2b 3e
       0.01578522 0.056032762 0.063025184 0.16734214

phi.0.bias f4 [32]
000000 5a 0f 69 bd 21 cd 7e bd ae 7a db 3d dc d7 11 be
       -0.056899406 -0.062207345 0.10716759 -0.142425
000010 aa db 1d 3e dd 3b 34 3e d2 ea 20 be d4 5d 08 3e
       0.15415826 0.17600961 -0.15714577 0.13317043
000020 3e 9c 09 3d 71 f3 c0 bd be 54 0f 3e 0a 35 0e 3e
       0.03359627 -0.09421433 0.1399717 0.1388742
000030 a1 9b 4f 3d 01 72 82 bd 5f 37 e8 bd 05 9c ac bd
       0.05068553 -0.06369401 -0.11338686 -0.08428196
000040 ad 4b ff bd 9f c0 17 bd 35 c8 27 be 76 11 e5 3d
       -0.12465606 -0.037048932 -0.16384967 0.11184971
000050 e3 bf 42 3e 56 70 d8 3d 15 c6 39 bd ec cf fa 3d
       0.19018511 0.105683014 -0.04535492 0.12246689
000060 7e 76 b2 3d e6 e4 90 3d 2a 8d 9f bd 62 d8 4f bd
       0.08714007 0.07074909 -0.07790597 -0.050743468
000070 45 98 f2 bd 9f 13 34 3e ff 53 1c 3c 93 8c 9f bd
       -0.11845449 0.1758561 0.009541511 -0.07790484

phi.2.weight f4 [32, 32]
000000 23 7f 2b 3d 09 fe 06 3e 39 a0 92 3d 68 cf 3c 3c
       0.041869294 0.13182844 0.07159466 0.011524059
000010 a5 42 32 be 46 d6 97 3d 43 cd f8 bd 3d 63 ef 3c
       -0.17408235 0.07413916 -0.121485256 0.029222125
000020 7c d0 19 3e 80 41 90 3c b1 59 0a bd 09 19 07 3e
       0.15020937 0.017609358 -0.033776943 0.13193144
000030 1a dd 06 be fe 7f 3b 3e 9e 15 20 3e a0 8f 33 3d
       -0.13170281 0.18310544 0.15633246 0.043838143
000040 5e 75 1d bb 84 55 30 bb 09 ff 27 be cd fb 3b be
       -0.0024026255 -0.002690644 -0.16405882 -0.18357773
000050 32 4f 16 3e 7c c6 23 3e f1 4d 2e bd c6 0b b6 3d
       0.14678648 0.15993685 -0.0425548 0.08888964
000060 5c 48 14 be 2b 2e 05 be 35 72 3f be 3f 83 1a 3e
       -0.14480728 -0.13005893 -0.1869591 0.15089129
000070 95 8a e9 bd 67 2d 7c 3d fa 78 08 be 77 29 de 3c
       -0.114033855 0.061566737 -0.13327399 0.027119381
000080 e5 62 29 bd 4b 19 bd 3d a0 d0 21 3e 26 0e bd 3d
       -0.04135408 0.0923334 0.1580224 0.09231214
000090 69 9c 8e bc 33 04 57 3b 32 1b 89 bd 31 51 35 3e
       -0.017408567 0.00328089 -0.0669464 0.17706753
0000a0 c6 17 a1 3d fb 06 30 bd 12 18 c4 3d 84 15 a4 3d
       0.078658625 -0.042975407 0.095749035 0.08011916
0000b0 f0 48 89 bd 62 fe 09 be 87 09 20 3e 75 f5 13 3c
       -0.06703365 -0.13475946 0.15628634 0.0090306895
0000c0 58 3b 01 bb ef f6 3e bd 51 be 07 be a8 9e 26 3e
       -0.001971921 -0.046622213 -0.13256194 0.1627146
0000d0 87 60 d2 bd a0 d7 0d be f1 97 35 be 46 d9 2b 3e
       -0.102723174 -0.13851786 -0.17733742 0.16782102
0000e0 18 01 82 bd 1f b1 2c 3e 63 d9 1b 3e ba 24 06 be
       -0.06347865 0.16864441 0.15219645 -0.13099948
0000f0 e1 e2 06 bd 5f 86 35 be f9 89 2b 3e e6 93 b1 3d
       -0.032931212 -0.1772704 0.16751851 0.086707875
000100 6b 10 20 be 6e b1 bd 3c a3 5e c3 3d 0e e7 31 3d
       -0.15631263 0.023155894 0.09539535 0.04343324
000110 46 68 14 3d 54 51 a8 3d 40 40 29 3e 66 45 07 be
       0.036232255 0.08218637 0.16528416 -0.13210067
000120 72 c7 9d 3d 27 fe a0 bc 8b 98 07 3a d6 a4 96 bd
       0.07704057 -0.01965244 0.0005172572 -0.07355659
000130 61 f9 e9 bc 96 e1 44 bd 55 22 ec bd 5f b5 3e 3d
       -0.028561296 -0.048066698 -0.11529986 0.046559688
000140 21 45 94 3d eb c5 4d bd 77 83 f4 3d 22 36 a0 3c
       0.07239748 -0.050237577 0.119391374 0.019557063
000150 96 2b e4 bd da c7 ba bd ab 4d 61 bc 9a 03 8e 3c
       -0.11141126 -0.0912015 -0.013751428 0.017335702
000160 2e 0c 16 3e 95 bf 8c 3d 83 37 eb bd 66 e2 f0 3d
       0.14653084 0.06872479 -0.114851974 0.11761932
000170 35 63 05 3e 32 81 43 3d 60 3b 04 3e 49 50 e1 3d
       0.13026126 0.047730632 0.12913275 0.11001641
000180 d4 02 df bc ad f2 24 3e c3 95 8d bc 00 20 41 bd
       -0.027223028 0.16108198 -0.017283326 -0.04714966
000190 05 92 c3 bd 96 3a e6 bd 7f 45 0c be 5d 86 e5 3c
       -0.095493354 -0.11241643 -0.13698386 0.028018171
0001a0 13 4e 8e bd 3e 32 2e 3e 62 8d fb 3d 8f f8 1a be
       -0.06948485 0.17011353 0.12282826 -0.1513388
0001b0 f9 d6 04 bd cf 83 33 3e 16 c2 85 bd ab 44 b9 3d
       -0.032431576 0.1753075 -0.065311596 0.090463005
0001c0 28 d0 a4 3d 51 f9 29 3e 8e 5e ce bc e9 b7 c4 bd
       0.08047515 0.16599013 -0.025191572 -0.096053906
0001d0 45 e3 7c 3d 7d d3 b1 bd 57 9c 1a 3e d7 35 0d 3e
       0.06174018 -0.08682916 0.15098701 0.1379007
0001e0 6c 33 ed 3d da df 18 be e5 b5 e9 3c 3a ea d7 bd
       0.115820736 -0.14929143 0.028529117 -0.10542722
0001f0 d2 a2 2c 3e 96 3d f4 bd 46 7f 90 3d 94 df f0 bd
       0.16858986 -0.11925809 0.070555255 -0.11761394
000200 5e 60 c3 3d 5e ce 17 3e c7 62 09 3e 17 e1 dc 3d
       0.09539865 0.14824817 0.13416587 0.1078512
000210 95 f7 1b 3e 23 ea b4 3d 8f 9e 08 3e 19 d5 c2 bc
       0.15231164 0.088337205 0.13341735 -0.023783254
000220 71 cc ac bd e5 9e 3d bd 9f 65 0a 3e 86 a8 98 b9
       -0.084374316 -0.04629411 0.13515328 -0.0002911726
000230 ad 2d 40 bd 43 4c 62 bd 4a 74 6b bc cf d3 9e bd
       -0.04691856 -0.05524851 -0.014370987 -0.07755243
000240 86 04 12 bd 9e ec fc 3d c2 f0 ad 3c 93 e5 8e 3d
       -0.035648845 0.12349819 0.021232966 0.069773816
000250 7a 3c 31 be fa 8f f8 bd b3 05 00 3d 85 5d ee bc
       -0.17308226 -0.12136836 0.031255435 -0.029097328
000260 f7 e3 3f 3e a6 09 f3 3d f0 0e 7e bc ca e3 c5 bd
       0.18739305 0.11867075 -0.015506491 -0.09662588
000270 2a 1d 44 be fa 6c 86 3d 1c 4c 12 3d da 88 6f 3d
       -0.1915175 0.065637544 0.035717115 0.05848012
000280 e6 f1 cd bd 1c db 36 be 1a 7e af 3d 39 3c 29 3e
       -0.10055904 -0.17857021 0.08568974 0.1652688
000290 7f f2 63 3d b5 d9 81 bc 4d 26 23 be 45 81 13 be
       0.055651184 -0.015850881 -0.1593258 -0.14404781
0002a0 a3 30 ad 3d ac c0 c9 3d e1 13 2d bd 31 ca ea bd
       0.08456542 0.09851202 -0.042255286 -0.11464346
0002b0 96 5d ab 3d 82 f0 da bd 32 26 64 bd aa 31 2d be
       0.083674595 -0.106904045 -0.05570049 -0.16913477
0002c0 81 26 a8 3d 86 42 ad 3c 03 53 b8 3c 58 1d 21 be
       0.08210469 0.021149885 0.02250052 -0.1573385
0002d0 83 81 aa 3d 34 31 0a be 11 8d 4a bd b1 09 6b bd
       0.08325484 -0.13495332 -0.049450938 -0.05738229
0002e0 6c bc b3 bd ad b3 f2 3d 49 75 92 bd 26 ab 78 bd
       -0.08776173 0.11850677 -0.071512766 -0.060710095
0002f0 b3 cd b7 bc 7b bd 0c be 38 fe 21 be f1 49 20 3e
       -0.022436952 -0.13744156 -0.15819633 0.15653206
000300 8a 62 9e bd 99 b7 e0 3d 04 88 01 3e d9 c5 f3 3d
       -0.077336386 0.109725185 0.12649542 0.11902971
000310 45 94 04 be 07 86 24 be 58 73 f2 bb dc 61 0d 3d
       -0.12947185 -0.16066752 -0.007399004 0.034517154
000320 c9 4d 8d bd 3b 4b 03 3e 13 f7 80 3c df d9 07 3e
       -0.06899602 0.12821667 0.015742814 0.13266705
000330 61 ff 67 3e 4d 37 88 3d a1 f0 94 bd 4a 58 0d be
       0.22656013 0.06651173 -0.07272459 -0.13803211
000340 22 4a a7 3d 7d 07 3f 3d 43 65 d5 3d e3 97 00 3e
       0.081684366 0.046638 0.10419705 0.1255794
000350 cd 66 bd 3d 1b b2 cd bd c1 54 12 be 7d da 7d bd
       0.09248123 -0.100437365 -0.14290144 -0.061975945
000360 43 ea 10 3e 66 46 7c bc 3c e1 37 3e a4 09 dd bd
       0.14151864 -0.015397644 0.17957014 -0.107928544
000370 22 b6 58 3e 16 c0 97 bd 96 33 23 ba c1 d4 d2 bd
       0.21163228 -0.07409684 -0.00062256434 -0.10294486
000380 07 8a b2 3d 18 14 1f bd 35 17 45 bd 04 69 e5 bd
       0.08717733 -0.038837522 -0.048117835 -0.11201671
000390 74 69 c9 bd 4a cb c6 bc 35 58 1b 3e 00 13 7c bd
       -0.09834567 -0.024266858 0.15170367 -0.061541557
0003a0 09 e1 98 bd ca 80 9c 3d df e0 16 3e 45 0d 0f 3e
       -0.07464797 0.07641752 0.14734219 0.13969906
0003b0 76 b7 1b 3e f8 ca f3 3d ac 6b 9f bd af 1b 1a 3b
       0.15206704 0.119039476 -0.07784209 0.0023515036
0003c0 cf 28 85 3d 09 4a 9b 3d b2 59 08 bd 3d 53 87 3d
       0.06501924 0.075824805 -0.033288665 0.06607673
0003d0 fa ca 80 3c 08 68 03 be 8e fc 55 bd 21 05 b4 3d
       0.015721787 -0.12832654 -0.052242808 0.08790041
0003e0 c1 ec 3d bd fd 0e 3a 3e 8d bf ab 3d a0 0d 72 bd
       -0.046368364 0.1816978 0.08386145 -0.059095025
0003f0 09 09 d1 3d 94 96 d1 bd 7d 67 b6 3c e1 80 5d 3d
       0.102068014 -0.102337986 0.022266144 0.054077987

phi.2.bias f4 [32]
000000 af cc bd bc f1 94 b7 3d 1d 83 25 3e 99 d5 ad bd
       -0.02316889 0.08963955 0.16163297 -0.08488006
000010 f8 6e f0 3d d3 b6 f5 bb 5c 26 13 3e f6 5d e0 bb
       0.117399156 -0.007498601 0.14370102 -0.0068471385
000020 de 27 c1 3d 59 08 bd 3d 00 89 a9 3d c9 c2 8d bd
       0.09431432 0.09230108 0.08278084 -0.06921918
000030 cd 32 06 be e0 f1 1a 3e 07 bb 95 bd 63 3d 39 bd
       -0.13105316 0.1513133 -0.07311063 -0.04522456
000040 e0 e3 14 be 1a b3 c2 3d a9 e7 28 be 92 7f 44 3c
       -0.14540052 0.09506817 -0.16494621 0.011993306
000050 42 ee 22 3e 9f 6a a0 bc 4c f0 f3 bd 3e 42 13 3e
       0.159112 -0.01958209 -0.11911067 0.14380738
000060 04 4d 26 3e 59 34 d5 bd e2 10 71 3d 01 55 98 3d
       0.16240317 -0.10410375 0.05885399 0.07438088
000070 be ca fd 3d a6 d7 d8 bc c5 2e c0 bc 8e 4a 26 be
       0.12392186 -0.026470017 -0.023459801 -0.16239378

phi.4.weight f4 [28, 32]
000000 8b a0 17 3e f3 f6 7c bb 59 a9 a8 bd 10 af 59 3d
       0.14807336 -0.0038599342 -0.082354255 0.05314547
000010 87 37 f1 bd 4b 97 6c bc 9a ab 97 bd 5d 90 88 3d
       -0.11778169 -0.014440368 -0.07405777 0.0666816
000020 9a ea 85 bd e1 94 90 bd e5 5d 53 bd 97 7b 34 bd
       -0.06538887 -0.070596464 -0.051603217 -0.044063177
000030 40 01 82 bd b4 ec 03 be b4 22 34 bc c4 38 0b ba
       -0.06347895 -0.12883264 -0.010994602 -0.0005310888
000040 fe 85 9f bd 45 fa d5 bb 02 53 8d 3d 61 a8 97 3d
       -0.07789229 -0.0065300786 0.06900598 0.074051626
000050 98 41 27 3e 86 a8 aa 3c d0 89 c8 3c 61 3f 84 3d
       0.16333616 0.020832311 0.024479777 0.06457401
000060 65 6e ed 3d 33 7a 11 be 39 ad 88 3d 01 68 f6 3d
       0.11593322 -0.14206772 0.066736646 0.12031556
000070 a8 80 2e 3d 6f 93 96 3d 0c 4c 87 bd 1a 55 4d 3d
       0.042603165 0.073523395 -0.06606302 0.050129987
000080 9b 24 49 3d a3 98 9f 3d 0a c4 f7 3d 11 82 fc 3d
       0.049107175 0.07792785 0.12097938 0.12329496
000090 a1 13 6f bd 80 8d 5e bd 01 8a 06 be 3d 79 02 be
       -0.05836833 -0.054334164 -0.13138582 -0.12741561
0000a0 fa 4e 5a 3d af b4 6b 3e e9 48 cb bd b1 5e 9e 3d
       0.053297974 0.23018144 -0.09926016 0.07732905
0000b0 f2 0d bb 3d 2e 54 af 3d b9 79 60 be 8f 1d f6 3b
       0.09133519 0.08560978 -0.21921434 0.007510848
0000c0 ce e5 fb bd 88 05 32 be f6 c6 ec 3b bc 4b 26 3e
       -0.12299691 -0.17384923 0.0072258664 0.16239828
0000d0 e5 1e 19 3e 71 e5 06 3e ed 30 dc 3d b4 38 04 3e
       0.14953192 0.13173462 0.10751519 0.12912256
0000e0 46 7a 72 3d e2 b2 20 3e 46 8e 01 be 3b db f1 bd
       0.05919864 0.15693238 -0.1265193 -0.11809393
0000f0 b0 e7 2b be 2f 00 1b 3e a3 ad dd bc 11 a0 b8 bd
       -0.167876 0.15136789 -0.027060336 -0.09014905
000100 24 8e 32 3e b1 e7 1e be b3 fa c6 3c c8 4a 6f 3c
       0.17437035 -0.15518071 0.024289465 0.014605232
000110 f8 ca 29 3d 8a ff 58 bd e0 2d 18 be 57 33 fb 3c
       0.04145333 -0.052978076 -0.1486125 0.03066413
000120 ee 77 4b 3d ec f2 0b be 09 20 88 bd 49 b3 69 3d
       0.04967492 -0.13666886 -0.06646735 0.057055745
000130 f8 57 82 bc e4 2e 20 be bd 6a e7 3b 43 75 fe bd
       -0.015911087 -0.15642887 0.0070622847 -0.1242471
000140 b9 38 2d 3e 94 86 06 be 8e 7d 0f 3e 13 ea 22 3e
       0.16916169 -0.13137275 0.14012739 0.15909605
000150 ea 65 2b be 7a bc 0d be 6e 26 9f bd 6a 96 a0 3d
       -0.16738096 -0.1384143 -0.07771002 0.07841189
000160 1f 9c b6 3d 28 ab f0 bd 69 19 d5 3d 2b 43 6b bc
       0.089164965 -0.117513955 0.10405237 -0.014359276
000170 53 fb ad bd 50 1f 03 3e 60 20 f9 bd c6 70 bd bd
       -0.08495202 0.12804914 -0.12164378 -0.092500255
000180 d5 3d 66 3c bd a5 30 be 2b 8e b6 bd a7 6d 0e be
       0.014052828 -0.17250724 -0.08913835 -0.13909017
000190 c0 de 5d 3d 77 2e 0b be 0b 2b a8 3c 9e b0 20 bd
       0.05416751 -0.13591944 0.020528337 -0.039230935
0001a0 ca 32 a9 3d fd 65 13 3d 86 39 60 3e c9 a6 97 3c
       0.0826164 0.035985935 0.21896943 0.018512147
0001b0 39 43 84 bd 06 e6 31 3a a1 c2 45 be 21 a6 5b 3e
       -0.06458134 0.00067862903 -0.19312526 0.21450092
0001c0 31 65 bb 3d 11 6c d9 bd 03 43 11 3e b3 7e ed bd
       0.0915016 -0.10616315 0.14185719 -0.115964316
0001d0 09 c9 33 3d d0 da 29 be d4 c5 e3 bb 31 55 14 3e
       0.043892894 -0.16587377 -0.006951073 0.14485623
0001e0 84 40 e9 3d 2d b0 bc 3d ff 81 2b be 4a 7f 09 3c
       0.113892585 0.0921329 -0.16748808 0.0083921645
0001f0 cf 10 25 be b0 ca a6 3d e7 e6 ac bd 69 d0 37 bd
       -0.16119693 0.08144128 -0.084424786 -0.04487649
000200 f3 08 86 bd ae f3 c2 3d ef f6 0f be 6b fb 3e 3d
       -0.06544676 0.095191345 -0.14059041 0.04662649
000210 66 9c b0 3d bd 93 e7 3d 39 3d 18 be 95 3c 55 3d
       0.08623581 0.11307476 -0.14867105 0.05205973
000220 ab d7 21 3d 56 40 26 bd f6 98 e8 3d bc 5a 30 be
       0.039512318 -0.0405887 0.113573 -0.17222112
000230 5d da 10 3e f8 5f 02 be 92 b7 8e bd b0 05 8c 3d
       0.14145799 -0.12731922 -0.06968607 0.06837022
000240 42 8a d3 bd 44 92 7b bd 53 33 a1 bd 3e 20 27 be
       -0.10329105 -0.061418787 -0.078711174 -0.16320893
000250 84 1f 93 bb c0 e4 08 3c 56 55 0d be b8 3f 94 3c
       -0.004489841 0.0083553195 -0.13802084 0.01809679
000260 a9 16 d4 bd 9a c1 c4 bd 4d ca ed 3c 99 04 07 3d
       -0.103558846 -0.09607239 0.029027129 0.03296337
000270 da 78 14 be 87 46 07 bd 8c 3a 2c 3e 00 72 97 bd
       -0.14499226 -0.033026244 0.16819209 -0.07394791
000280 85 2d 00 ba 98 84 f1 3b 56 7b 39 be 50 46 0a be
       -0.00048895954 0.0073705427 -0.18113455 -0.13503385
000290 c2 64 58 bd a6 05 a2 3d a1 16 0f bc 8b a6 b8 bd
       -0.052830465 0.079112336 -0.0087334225 -0.090161406
0002a0 6b a9 eb bd 3a 0a 3e bc a0 df 1f bd ad 3c 16 3e
       -0.11506923 -0.011599118 -0.039031625 0.14671583
0002b0 62 7e 09 3d 3e fe b0 bd ea 3d 35 bd 42 d4 63 bd
       0.033567794 -0.08642243 -0.0442485 -0.055622347
0002c0 02 81 d1 bd 06 3b 33 3c a7 44 11 3e 40 04 7c bd
       -0.102296844 0.010939365 0.14186345 -0.06152749
0002d0 d0 14 ef 3d 11 41 15 3e 37 21 9e bd 0e 80 19 be
       0.116738915 0.14575602 -0.07721179 -0.14990255
0002e0 bc 4e 3a bc 9b f4 6e 3d 79 19 85 bd b3 a0 54 bd
       -0.011371311 0.058338743 -0.06498999 -0.051911067
0002f0 69 7f 24 3c a1 dc 99 3d 63 22 9f bd 95 76 21 3e
       0.010040143 0.07512785 -0.077702306 0.15767892
000300 e6 d3 8d bd 08 10 d0 3d 5b 36 a2 bb 95 fa 95 bd
       -0.06925182 0.10159308 -0.0049503273 -0.07323185
000310 5a b5 8a bd c3 76 db bd 85 3c d9 bd 42 65 2e be
       -0.06772871 -0.107160114 -0.10607246 -0.17030814
000320 f6 79 da 3b 1e f9 f8 bd 2c c5 20 3e bd d2 43 be
       0.006667371 -0.1215689 0.15700215 -0.19123359
000330 5d 5c f9 3b 9a 62 34 bd 5b 04 f1 bd 3b 54 08 3c
       0.0076098875 -0.044039346 -0.11768409 0.008320863
000340 26 56 39 bc a4 b3 05 3e f3 4d cc bc c8 77 33 be
       -0.011312043 0.13056809 -0.024939513 -0.17526162
000350 d7 86 ef 3d 75 00 d7 3c 7a 9d 23 3e a1 2b 91 bc
       0.116956405 0.026245335 0.15978041 -0.017721
000360 97 7f 15 be 37 15 f0 3c 78 07 ca bd 5b c7 9f 3d
       -0.14599453 0.029306991 -0.09864706 0.07801696
000370 df 75 d8 bc ca 17 c6 bd e7 3e f3 bb 4c 26 d2 bd
       -0.026423393 -0.09672506 -0.00742327 -0.10261211
000380 bf 30 be bd cd f7 17 3e 5d c5 08 bd 29 6a 9f bd
       -0.09286641 0.14840622 -0.033391345 -0.0778392
000390 1d 6c b9 bd 9a 0e 10 3d e2 0e 63 bd 14 7b 97 3b
       -0.09053824 0.035170175 -0.055434115 0.0046228264
0003a0 d3 97 0e 3e b1 85 f8 3d 97 85 fa 3c 26 69 19 bd
       0.13925104 0.121348746 0.030581279 -0.037453793
0003b0 1e 21 8e 3d 53 ba a1 3d 99 1d ff bd e1 45 a8 bc
       0.0693991 0.07896867 -0.12456817 -0.020541133
0003c0 29 0d ff 3d b6 e5 f3 bd c9 cc bb 3d 6b 73 2f 3d
       0.12453682 -0.11909048 0.09169919 0.04283468
0003d0 ea e3 9a 3d 51 93 1c 3c 74 46 8c 3d 54 92 18 be
       0.075630024 0.009556607 0.06849375 -0.1489957
0003e0 f7 2b 1f be 94 74 83 3d dd 3f 9e bd 19 32 d8 3d
       -0.15544115 0.0641872 -0.07727025 0.1055643
0003f0 28 39 1f 3d bd 99 c9 3d 9b 99 b7 3d 87 d6 40 3d
       0.038872868 0.098437764 0.08964845 0.04707959

phi.4.bias f4 [28]
000000 21 50 17 be 9d 0e b0 3d 5e 81 a5 bd 29 4b b8 3d
       -0.1477666 0.08596537 -0.080813155 0.08998711
000010 d1 e9 07 3e f7 c7 43 be 03 7e bc 3d 37 11 83 bd
       0.13272788 -0.1911925 0.09203722 -0.06399768
000020 02 7e 26 3e 46 94 10 be 20 d0 32 3d 18 02 30 be
       0.16259006 -0.14119062 0.043655515 -0.17188299
000030 bf 2f 15 bd e8 e5 b6 3d 41 69 4c 3c 97 5d f7 3d
       -0.036422487 0.0893057 0.012476266 0.12078398
000040 6d 0d 22 bb a5 8f c0 3d ae b1 b1 bd 5b 3d f7 bc
       -0.002472724 0.09402398 -0.08676468 -0.030180624
000050 ee 1c 71 3d 2d b1 c9 3c fe e9 9d bd ff 9c 9b 3d
       0.05886548 0.024620617 -0.07710646 0.07598304
000060 91 60 3b be 5e 21 ba bb 06 57 70 3d 2d 8e 3e be
       -0.18298556 -0.005680247 0.058676742 -0.18608923

phi.6.weight f4 [25, 28]
000000 ae e8 e2 3d 68 56 2a 3e f7 10 0f be 83 b8 fa 3c
       0.110795364 0.16634524 -0.13971315 0.03060556
000010 f4 71 07 3e 4c 18 51 3d 19 87 d3 bd 4c 41 f3 3d
       0.13227063 0.051048562 -0.10328502 0.11877689
000020 7b 87 0d 3e 7b c2 46 be 3c 7f 0d 3d 10 3e ff bd
       0.13821213 -0.19410126 0.03454517 -0.12463009
000030 3e a8 2f bc db 42 c6 bd 66 ed 0f 3e 9f 2d 41 be
       -0.010721264 -0.096807204 0.14055404 -0.1886506
000040 3c 0e 71 bd 3b bd 18 be e4 29 18 3d e6 d7 23 be
       -0.058851466 -0.14915936 0.037149325 -0.16000327
000050 3d 5b 33 3e 51 7c 27 be dd 50 eb 3c 11 4e 9a bd
       0.17515273 -0.16356017 0.028725082 -0.07534421
000060 ce 68 09 3e f0 93 12 be 18 d9 5f 3b 96 d6 29 be
       0.13418886 -0.14314246 0.0034156498 -0.16585764
000070 4d ce 42 bd 4c 8a 2d 3e 22 38 ba bb 1d 3e c2 3d
       -0.047560025 0.16947287 -0.005682961 0.094845034
000080 e4 af 14 3e 7d 11 1f bd a0 69 2a be e2 a2 80 bd
       0.14520222 -0.038835037 -0.16641855 -0.062810674
000090 0b 47 a0 bb e1 5a b8 3c ee f7 40 3e 37 a1 a4 3c
       -0.0048912815 0.022504272 0.18844578 0.020096404
0000a0 d8 e6 3c be 1b 8a 26 bc f2 65 21 be 15 65 bc bd
       -0.18447435 -0.010164763 -0.15761545 -0.09198967
0000b0 5f 72 19 3e ee 7b fd 3d 88 21 f6 bc 4f 66 e4 bd
       0.14985035 0.12377153 -0.030045286 -0.11152326
0000c0 cc 84 ab bd cb 74 62 bd 45 2f 31 3d 8c 8e 10 be
       -0.08374938 -0.055287164 0.04325797 -0.14116877
0000d0 70 35 01 3e f2 61 21 be 1d 0a ef 3d 52 15 b9 3d
       0.12618041 -0.1576002 0.11671851 0.0903727
0000e0 c7 8b 1c 3e ad 3d 9c bd 70 73 25 3d f6 8a a1 3c
       0.15287696 -0.07628951 0.040393293 0.019719582
0000f0 c4 b7 5d bd f1 39 e7 3d 69 ce 58 bd 72 43 bf bd
       -0.05413033 0.11290348 -0.052931223 -0.09339036
000100 b0 c4 39 3e 90 9e 2d be f4 71 21 bc 23 fb c0 3d
       0.18141437 -0.16955018 -0.009853829 0.094229005
000110 a4 d3 ea bd f7 d7 43 3e d7 4f 19 3e c0 85 c6 3c
       -0.114661485 0.19125353 0.14971863 0.024233699
000120 78 82 17 3e b0 da 4b 3d 69 a4 01 3d c0 12 15 3d
       0.14795864 0.049769104 0.031650934 0.036394835
000130 96 cf e7 bd 46 f1 40 3e db 55 db 3d 29 71 5f bd
       -0.11318891 0.18842039 0.10709735 -0.054551277
000140 10 d8 c0 bd da c3 5e 3d 8b e8 30 3e 88 62 04 be
       -0.09416211 0.054385997 0.17276208 -0.12928212
000150 18 f1 19 bd bb 3a 0d bd dd 94 c7 3d d7 61 33 be
       -0.03758344 -0.034479838 0.0974519 -0.17517792
000160 d3 66 1a 3e b2 4b aa 3d 11 df bc bc a1 df ab bd
       0.15078287 0.08315219 -0.023055585 -0.08392263
000170 9f 81 3a 3e 24 65 1e 3b 87 38 24 3e cb 30 0b 3c
       0.18213509 0.0024169171 0.16037188 0.00849552
000180 26 8a b9 bd 0e 10 bf 3b 9a 4c 42 be 5f a6 c9 3b
       -0.09059553 0.0058307713 -0.18974534 0.006153866
000190 e4 98 c7 3c 4a 3c bb 3d 77 23 17 be 63 38 11 3e
       0.024364896 0.091423586 -0.14759623 0.14181666
0001a0 83 04 14 3e 03 da ad bc e1 6d 2d be 16 c7 87 bd
       0.14454846 -0.02122212 -0.16936447 -0.066297695
0001b0 20 54 bd bc 1f 01 05 be 23 80 ef 3d 5b 3c 4b be
       -0.023111403 -0.12988709 0.11694362 -0.19847243
0001c0 eb f3 48 3e b5 4b 8e 3d d7 da 21 be a7 f8 8b 3d
       0.19624297 0.06948034 -0.15806137 0.06834536
0001d0 64 3c 08 be f9 77 16 be 6f 79 22 be 64 41 b2 3d
       -0.13304287 -0.14694203 -0.15866636 0.087038785
0001e0 66 5c c7 3d fb 28 af 3d c1 a6 23 be a7 81 8b 3d
       0.097344205 0.08552738 -0.1598158 0.068118386
0001f0 9a ed 26 3d de 72 54 3d 82 2d 46 3e 7a ee 75 3c
       0.04075394 0.05186736 0.19353297 0.0150104705
000200 91 2e d3 bd 1c 1f 2d bc cf 0c 0e 3e cc 69 ec 3d
       -0.10311616 -0.010566499 0.13872074 0.11543617
000210 2f e9 98 3d bf bf 38 3e fd 86 06 3d ab c0 f5 3c
       0.07466351 0.18041895 0.03284358 0.029999098
000220 6c f2 9f bd bb ab 37 3e ab 59 bb 3d 1e 59 d4 bd
       -0.0780991 0.17936604 0.09147962 -0.1036856
000230 ad fd 84 3d b1 12 3b bd a6 bc e1 bd 0c 15 12 be
       0.06493697 -0.045672122 -0.1102231 -0.14265841
000240 0f 27 cb bd 42 21 9e bd c3 74 e0 bd 16 57 0a be
       -0.09919559 -0.07721187 -0.109597705 -0.13509783
000250 c4 94 11 3d a7 32 80 bd 07 49 30 3d 80 01 95 bc
       0.035542265 -0.06259661 0.043038394 -0.018189192
000260 a9 c2 3d 3d e3 ce 89 3d d3 ec 1f be d4 d0 7c 3d
       0.04632822 0.06728914 -0.15617685 0.06172259
000270 a9 0a eb bd dd 3b ee bd cf 17 e6 3d 9f 64 d2 bd
       -0.11476643 -0.11632512 0.1123501 -0.10273098
000280 b1 66 bc 3d 41 c5 18 be 65 e1 b7 bd c3 a1 db bd
       0.09199274 -0.14918996 -0.089785375 -0.10724213
000290 d5 f7 06 be 6d b5 8f bd c3 00 44 bd e6 79 87 bd
       -0.13180478 -0.07017026 -0.04785229 -0.06615047
0002a0 58 e0 ce bd b2 4d e8 3d b0 56 af 3d 26 14 3d 3e
       -0.10101384 0.11342944 0.08561456 0.18464717
0002b0 c2 6f 26 bd dc bb 34 3e 49 96 3c 3e 04 da 24 bd
       -0.040633924 0.17649788 0.18416704 -0.04024698
0002c0 f8 d8 25 be 98 18 d4 3b a2 a4 c5 3d 1e de 14 be
       -0.16196048 0.0064726584 0.09650542 -0.14537856
0002d0 91 85 48 be af cd a2 bd d8 ec 95 bd a7 7f 81 bd
       -0.19582202 -0.07949387 -0.07320565 -0.06323176
0002e0 fa 8e e0 3c d5 b6 4b be 2e 1a 10 3e 77 5f ce bd
       0.027411927 -0.19893964 0.14072487 -0.10076802
0002f0 7a 8b a2 bc 54 b2 57 3d fd 5f 08 3e e4 ae 1a be
       -0.019841898 0.0526603 0.13317867 -0.15105778
000300 bf 3e d8 bd 57 d2 e2 3b 38 34 82 bd 3b e9 31 3e
       -0.10558843 0.006922047 -0.06357616 0.17374127
000310 0e 23 4d be 7f 6a 72 bc f5 ef 4c 3d 54 bd 16 3b
       -0.20032904 -0.014795898 0.05003353 0.0023001032
000320 18 8e 8c bd d4 3e f4 bd 70 d2 82 3d 94 19 fa 3d
       -0.0686304 -0.11926046 0.06387794 0.1221191
000330 0d c9 df 3d 32 1d e6 bd f8 43 b1 bc c7 69 0e bb
       0.10927019 -0.11236037 -0.021638855 -0.0021730529
000340 83 2c 98 3d 7c 7f d1 3d 81 7b c1 bc 8e c5 f0 ba
       0.07430365 0.10229394 -0.023618462 -0.0018369423
000350 e3 f5 c9 bd 6a 32 0b be 67 59 04 3e af e4 50 be
       -0.09861352 -0.1359345 0.1292473 -0.20399736
000360 43 b9 23 3d 4d d7 21 be 6e 28 0d 3e 76 2d e3 bd
       0.0399716 -0.15804787 0.13784954 -0.11092655
000370 07 8d 8f bd ea 7d 8f bd 69 ae 1a be 19 01 58 be
       -0.07009321 -0.07006438 -0.15105595 -0.21094169
000380 1e 1d 16 be ef d5 87 bd 61 fb e5 bd fc b4 6a be
       -0.14659545 -0.066326015 -0.11229587 -0.22920603
000390 a1 26 0e 3e 0a cf 39 3e bc a4 22 3e 09 bb 67 bd
       0.13881923 0.18145385 0.15883154 -0.056574855
0003a0 22 d4 0d 3e b9 3c 5e 3d 47 54 20 3c 38 1e 41 3c
       0.13850453 0.05425713 0.009785718 0.01178699
0003b0 50 8d f6 bd f8 45 33 be ca 3a ae 3c e4 bc 24 be
       -0.12038672 -0.1750716 0.021268267 -0.16087681
0003c0 ec 8c 22 be fd 8d ec bd 49 50 2f 3e b3 13 56 bd
       -0.1587407 -0.115505196 0.1712047 -0.05226488
0003d0 70 97 4d be 33 3b dc bd 0b c3 e6 bc 0e 16 aa bd
       -0.200773 -0.10753479 -0.028169176 -0.08304988
0003e0 8a d8 c3 3d 03 ef ef 3d fd 5d c6 bd b3 02 07 bb
       0.09562786 0.1171551 -0.096858956 -0.0020600974
0003f0 4a 94 f4 bd fa 23 29 be 4c a3 38 be 7b 46 ad bd
       -0.119423464 -0.1651763 -0.18031043 -0.08460709

phi.6.bias f4 [25]
000000 9e 99 34 3e 87 30 16 3d d0 60 b3 bd 65 5a 02 be
       0.17636725 0.036667373 -0.087587 -0.12729795
000010 9e 0d 98 3d 01 da 6f bd c8 a4 48 3d 5d c7 06 be
       0.07424472 -0.058557514 0.048985273 -0.13161989
000020 7e 22 8d bd 26 24 db 3d 7a 68 c3 3d 9a c8 1f 3e
       -0.068913445 0.10700254 0.09541412 0.15603867
000030 f6 ca 04 3e 8f d8 7f bd b7 4b 22 3e dc 9f 48 3d
       0.12968048 -0.062462386 0.15849195 0.04898058
000040 65 74 b7 bd 68 0d df bd a4 8f 53 be 93 0e c0 3d
       -0.08957747 -0.10891229 -0.20660263 0.0937778
000050 0c e6 2d 3e d2 bf 34 3e e8 c7 5a bd 6b 3b ff bd
       0.16982287 0.17651299 -0.0534133 -0.12462505
000060 6c 95 61 3d
       0.05507414

psi.0.weight f4 [128, 26]
000000 e2 23 5b 3d 0c 15 e7 bd cc 77 10 3e d9 f4 fe 3d
       0.053501017 -0.11283311 0.14108199 0.12449045
000010 4c e1 3e 3d 6f c2 e7 bd 64 ab 1b 3e 37 30 17 bb
       0.04660158 -0.11316382 0.15202099 -0.002306951
000020 00 dd 07 3e cd e3 a4 bd 18 9b a4 3d cc ec 2e be
       0.13267899 -0.08051262 0.08037394 -0.17082518
000030 b9 2a 1a be 65 11 92 3b e8 07 8e 3d fa 3f 29 3e
       -0.1505536 0.00445764 0.06935102 0.16528311
000040 6c 16 24 be 88 66 8f bd f9 83 45 be 40 79 18 3e
       -0.16024178 -0.07001978 -0.19288625 0.14890003
000050 09 fb 1d bb 71 8b c4 bc 8d 86 e4 bd 55 49 8f bd
       -0.0024105927 -0.023992272 -0.11158476 -0.06996409
000060 a7 93 2e be 47 21 1f 3e dc bd c4 3c a9 8d 23 be
       -0.17048512 0.15540038 0.024016313 -0.15972008
000070 6a 93 ad bc 3f 54 4e bd 27 c5 3f be 87 7a 21 be
       -0.021188457 -0.050373312 -0.18727551 -0.15769397
000080 80 e2 ae 3c 90 55 47 bd f0 54 f6 3d ba 44 91 bd
       0.021348238 -0.048665583 0.12027919 -0.07093187
000090 97 7e 2c be ab 1f 0a be 42 e8 90 bc 9b 4d 3f 3d
       -0.16845165 -0.13488643 -0.017688874 0.04670487
0000a0 86 c3 4a be 8e ea 12 3e 9a 10 35 3e e0 60 43 be
       -0.19801149 0.14347288 0.17682114 -0.19079924
0000b0 3b ed f0 bd f0 fc f0 bd bd c5 38 3e 75 38 cb bc
       -0.11763998 -0.11766994 0.18044181 -0.024807194
0000c0 ae a0 c8 3c 49 15 0f be 0a ed 4e bd 1c 51 9b 3d
       0.02449068 -0.13972963 -0.050519027 0.0758383
0000d0 77 10 00 be f1 b7 17 be b4 e1 36 be 34 eb 44 3e
       -0.12506281 -0.14816262 -0.17859536 0.19230348
0000e0 01 42 37 3c 5f 7f 0f 3e 3f 40 c1 3c e5 09 b3 bd
       0.01118517 0.14013432 0.023590205 -0.087421216
0000f0 30 06 2f 3d 1e 82 1e 3e 7c a5 f5 bd e5 6e db 3d
       0.04273051 0.15479323 -0.11994454 0.10714511
000100 7e 04 be 3d 52 7a 8d bd 13 4e 8e bd ae 8d 4a be
       0.092782006 -0.069080964 -0.06948485 -0.19780609
000110 e0 f4 3b 3e d9 0f f9 3d 61 dc af 3d e4 e7 9e bd
       0.18355131 0.12161226 0.08586956 -0.077590734
000120 cf 7d c3 bd 16 af 70 bd 53 52 4c bd e3 83 8e 3d
       -0.095454805 -0.058760725 -0.049883198 0.06958749
000130 2a 79 0a 3e 88 25 01 be 16 4f 3d 3e 01 07 05 bd
       0.13522783 -0.12611973 0.184872 -0.032477383
000140 8b e7 0b be 12 1e df bb 77 c6 86 bd 89 c6 47 bd
       -0.13662545 -0.0068090046 -0.06580823 -0.048773322
000150 89 c3 e4 3d 19 13 8a 3d 1d a0 9f ba be 2a f9 bd
       0.11170108 0.06741924 -0.0012178455 -0.121663556
000160 ad 42 b0 bd 38 ba cc bc 4f 6a 98 bd af d6 d2 bd
       -0.086064674 -0.02499114 -0.07442152 -0.10294854
000170 3d c4 2f 3c f9 f1 13 3d 29 71 aa bd f8 35 2e 3e
       0.010727939 0.036119435 -0.08322365 0.17012775
000180 ea 00 cd bd 2a 90 fa bd a0 6c 09 3d 27 bb be bd
       -0.1000994 -0.12234528 0.03355086 -0.0931304
000190 9f 89 95 3d c0 fb 18 3d 83 81 46 3e 1f f4 30 3e
       0.0730164 0.037349463 0.19385342 0.17280625
0001a0 4e ec 24 be ca 5b 83 3c a8 65 68 3d e0 5b 21 bd
       -0.16105768 0.01603498 0.056737572 -0.03939426
0001b0 25 b3 bb 3d 3c 81 11 bc 4b 6a eb bd ae 54 de 3d
       0.091650285 -0.0088809095 -0.11494883 0.10855995
0001c0 fb e0 71 bc 69 92 2f 3e f8 0f 37 bc 5b 51 d4 bc
       -0.014763112 0.17145695 -0.011173241 -0.0259177
0001d0 1d 07 de bd a9 d4 78 3c 11 eb 6f bd c0 b3 ed bd
       -0.108412005 0.015187421 -0.058573786 -0.1160655
0001e0 0f b5 0b 3e 88 ad fe 3d 2a 22 c8 3b fe 54 af bd
       0.13643287 0.12435442 0.0061075883 -0.08561133
0001f0 dc e5 95 3d ec 08 39 bd 4e 65 68 be 71 33 1d 3e
       0.07319233 -0.045174524 -0.22694895 0.15351655
000200 91 36 56 3e bf d9 09 be ad a2 fa bc 42 81 c9 3d
       0.20919253 -0.1346197 -0.030595148 0.09839107
000210 6a 28 0a 3e c9 0d 6b bc 93 ec d6 3d 18 66 35 be
       0.13491979 -0.014346548 0.10494342 -0.17714727
000220 28 e5 0d be ad 91 1c 3e ba 89 2c be 7d a5 10 3e
       -0.13856947 0.15289946 -0.16849414 0.14125629
000230 bd e7 1f 3e d2 a1 27 3e 38 6b 11 bc be 2c 56 3e
       0.15615745 0.16370323 -0.008875661 0.20915505
000240 e5 87 4a bd 00 76 bd 3d 6f f6 27 3e 94 18 24 3e
       -0.049446005 0.09251022 0.164026 0.16025001
000250 9a a7 4b 3c 9b 64 8e 3c 78 e3 ba bd 95 4a 8d 3d
       0.012430096 0.017381957 -0.091254175 0.06898991
000260 b2 4a bf 3c 8a 01 32 3e c4 6c 2f bd 40 4d 36 be
       0.023351047 0.173834 -0.042828336 -0.17802906
000270 1b 7f 4c be 21 4b 31 3e 7e 5a b1 3d 48 15 b3 bd
       -0.19970362 0.17313816 0.08659838 -0.087442935
000280 b7 e7 0b be 5a 87 d1 3d 78 b9 f6 bd 3b e5 2b 3e
       -0.13662611 0.102308944 -0.12047094 0.16786663
000290 5b 85 f1 bc 49 01 fc 3d 86 3b 04 3e f1 7c f7 3d
       -0.029482534 0.123049326 0.12913331 0.120843776
0002a0 c7 16 23 3e 77 7f ed bd 93 8f 8b bd f9 42 73 3d
       0.15926658 -0.115965776 -0.06814494 0.059390042
0002b0 71 6d 7c 3c c3 38 dc 3d b2 9d 17 bd 3c c0 80 39
       0.015406952 0.10753014 -0.037015624 0.00024557288
0002c0 8d 69 97 3d ce fb 88 bd 42 88 39 bd 13 d3 e2 3d
       0.07393179 -0.06688653 -0.04529596 0.110754155
0002d0 f8 2e 90 bd 41 32 4e be 2f 5d c3 bd b7 55 6b 3d
       -0.070402086 -0.20136358 -0.09539258 0.05745479
0002e0 21 60 46 be d9 22 d5 3c f3 e3 3a 3d a5 db 0d be
       -0.19372608 0.026017593 0.045627546 -0.13853319
0002f0 4f d1 22 bd 5d 91 06 be 97 47 35 ba 8f 66 4c 3c
       -0.039750393 -0.13141389 -0.000691527 0.012475624
000300 1d 2a 07 3e 2a 97 9a 3d 20 53 4b 3e 6c 67 15 3e
       0.13199659 0.075483635 0.19855928 0.14590234
000310 e3 94 d4 bd 09 af 22 be 9c 1b 10 be da 7d ba bd
       -0.103799604 -0.15887083 -0.14073032 -0.091060355
000320 c7 b6 0c 3d 3d 82 75 ba 5c 06 9c 3d f3 e4 1f 3e
       0.034353998 -0.00093654153 0.076184005 0.15614681
000330 e1 fb 56 be 88 40 fe 3d 6b 9d 05 3e d3 31 28 be
       -0.20994522 0.12414652 0.13048331 -0.16425256
000340 ee 24 d3 3b 04 4c 98 bc c2 6e ee 3d a7 32 36 3e
       0.0064436113 -0.018590935 0.11642219 0.1779276
000350 f2 c6 8e 3d 28 4b 3a bc a2 4b 5c bd f3 09 2f be
       0.069715396 -0.011370458 -0.053783067 -0.17093639
000360 75 7a e4 3d 4e 8f 6f 3d 3e 3f 27 bd 4d 41 19 be
       0.11156169 0.058486275 -0.040831797 -0.14966317
000370 af d1 8e 3d 8d ec 07 be 42 c3 e9 3d 84 ce 5e bd
       0.06973588 -0.1327383 0.114141956 -0.054396167
000380 81 ab f6 bd 62 01 21 3d e2 cc 22 be 3b 4e fd 3b
       -0.120444305 0.03930796 -0.15898469 0.007730273
000390 18 73 88 3d e0 62 af bc c2 df 27 be fe 53 e3 bd
       0.066625774 -0.021409452 -0.1639395 -0.111000046
0003a0 45 9b 4b be ea b8 94 bc 81 7f ad 3d 29 16 b2 3c
       -0.1988345 -0.01815458 0.08471585 0.021739082
0003b0 24 42 c5 3d 76 3d 2e 3d 15 cc a5 3d c1 97 96 bc
       0.09631756 0.042539082 0.08095566 -0.018382909
0003c0 c6 32 b2 3d f0 1b 01 3d 63 29 01 bc 5d 25 a3 bd
       0.087010905 0.031520784 -0.0078834025 -0.07966111
0003d0 ed d7 df bd 38 7b 28 be 03 ff be 3d 3f d8 f3 bc
       -0.109298564 -0.16453254 0.093259834 -0.0297662
0003e0 98 18 c0 3b c3 e3 b5 bc 40 1e 41 be 2b 0a 2c bb
       0.005862307 -0.022203332 -0.18859196 -0.0026251178
0003f0 fc 29 11 be a5 71 21 3e 68 f0 3f be 9b e9 d6 bd
       -0.14176172 0.15766008 -0.18744051 -0.104937755

psi.0.bias f4 [128]
000000 03 69 41 3d 3c 54 b5 3c 88 3f 96 bd b5 27 12 3d
       0.047219288 0.022134893 -0.073363364 0.0356824
000010 33 4d 5c 3e 80 df 03 be 2e 55 87 bc 33 3d 74 3d
       0.21513824 -0.12878227 -0.016520109 0.059628677
000020 f1 6c 42 bd b3 31 fc 3d 30 db 0a 3c a8 3a 17 be
       -0.047467176 0.12314167 0.00847511 -0.1476847
000030 f5 2d 2a 3e 38 57 fc bc eb 05 1b 3d 03 30 92 3d
       0.16619094 -0.030803308 0.03784744 0.07138064
000040 25 40 45 be 53 bc f7 3d 46 c8 1b be 96 ea 1d 3e
       -0.1926275 0.12096467 -0.15213117 0.15421519
000050 ca 60 2e be 2d 04 2e 3e 37 b8 c5 bd 13 0f b0 bc
       -0.1702911 0.1699378 -0.09654277 -0.021491563
000060 d9 fc a7 bd 04 ac 2c be 94 02 1e be 4b ea f1 bd
       -0.08202524 -0.16862494 -0.15430671 -0.11812266
000070 6a ff 23 be 2c 5a 2c 3d 75 9f 01 3d fc 7e 49 3d
       -0.16015401 0.042078182 0.03164621 0.049193367
000080 80 a6 ae bb 9c 7f 96 3d d9 96 20 bd 89 dd e5 3d
       -0.005329907 0.07348558 -0.03920636 0.11223895
000090 d3 e1 20 be 94 fd 52 3d 21 45 ed bd e2 bd 38 3d
       -0.15711145 0.051511362 -0.11585451 0.04510296
0000a0 c7 54 ad bd db 7f 17 3e 44 6b ac 3d 20 64 d1 ba
       -0.084634356 0.14794867 0.08418897 -0.0015975274
0000b0 07 2f fd bd 8d 98 c1 bd 4b d3 0c 3e 6c 71 2b 3d
       -0.123624854 -0.09452925 0.13752477 0.041856214
0000c0 64 e2 99 bd fc 7f b7 3d ac 66 e1 3c 89 97 1f 3e
       -0.07513884 0.08959958 0.027514778 0.1558515
0000d0 17 06 85 bd c7 14 b4 3d 2a b0 71 bd 5e bd 2b be
       -0.06495302 0.087930255 -0.059005894 -0.16771457
0000e0 6f fd fa bc ca c7 8c bd f4 b4 c8 3d 12 e5 4c 3d
       -0.030638425 -0.06874044 0.09800139 0.050023146
0000f0 90 0b fc 3c ca aa 13 be bb c3 0a be bb 95 3e be
       0.030767232 -0.1442062 -0.13551228 -0.18611805
000100 07 1a 50 bd 2d f7 05 3e a2 38 ad bc 13 61 d3 3d
       -0.05080607 0.13082571 -0.021145169 0.1032125
000110 51 38 aa 3d 66 b8 20 3e 6c 3a 08 3e fd 91 23 3e
       0.08311523 0.15695342 0.13303536 0.15973659
000120 46 09 33 3e 77 97 ce 3c 13 92 55 3e 65 1b c4 bc
       0.17484006 0.025218708 0.20856504 -0.023938844
000130 a8 fa 44 bd 21 6a f6 bd ef 21 08 be 18 fa 32 3e
       -0.048090607 -0.12031961 -0.13294195 0.17478216
000140 9a c1 1b bd eb 1b 69 3d 08 13 d3 bb af 7d 3b bd
       -0.03802643 0.05691139 -0.0064414777 -0.045774158
000150 3c d9 68 ba d9 d4 18 bd 22 41 ad bd 14 f5 21 3e
       -0.0008882468 -0.037312362 -0.08459689 0.15816146
000160 70 e9 5e 3c 94 c2 1d be 2d ae 66 3d 31 9f e1 bd
       0.0136054605 -0.15406257 0.05631845 -0.110166915
000170 b4 a4 36 3e 3c 20 3a be 72 ff b5 3c 79 9a a1 bd
       0.17836267 -0.18176359 0.022216532 -0.078907914
000180 33 8f 47 3d 51 dd 4f 3d 89 55 8a bc ec 0b b8 3d
       0.04872055 0.050748173 -0.01688649 0.08986649
000190 1b 4d 8f bc 80 b4 95 bd c7 bf f3 bd 0b 13 0a 3d
       -0.017492821 -0.07309818 -0.11901813 0.033709567
0001a0 d5 d0 74 3b 3c 91 04 be 18 0f 95 3c 6f ae 0b be
       0.003735592 -0.12946028 0.018195674 -0.1364076
0001b0 18 5e 4e 3e b5 7a 03 3e b2 8c 60 3d 88 f1 93 3d
       0.20153081 0.12839778 0.054821678 0.07223803
0001c0 3f f2 b2 bc ee 75 c4 3d db 6d 1f bc 7b 33 25 bd
       -0.021844028 0.09592806 -0.009730781 -0.0403323
0001d0 f8 ec eb bd e8 45 05 be f1 52 83 3d 9e ab f5 bc
       -0.115198076 -0.13014948 0.06412304 -0.02998906
0001e0 8d 0e 3d 3d c1 07 45 be 5a 20 ee 3d 66 ea 66 3e
       0.046156455 -0.19241239 0.11627264 0.22550353
0001f0 dd 21 23 be 8f 27 8b 3d 0d 94 29 be bd 3e a0 3d
       -0.15930887 0.067946546 -0.16560383 0.078244664

psi.2.weight f4 [128, 128]
000000 4f 41 71 bd bf b1 e8 bc 01 68 93 bd c6 ae c2 3d
       -0.058900174 -0.028405068 -0.071975715 0.09505992
000010 60 be d9 bc 75 0c c2 3c 19 72 24 bd 23 11 cc bd
       -0.026580036 0.02368758 -0.040147875 -0.09964206
000020 34 18 de bd 07 77 06 3c 1c 63 b0 bd a3 26 cc 3c
       -0.1084446 0.008207089 -0.086126536 0.024920767
000030 d9 74 cc 3c d1 b8 bf 3d 1b b1 2c 3d c0 b0 63 bc
       0.024958061 0.09361423 0.04216109 -0.013897121
000040 d4 57 61 bd ce 46 2d 3c 5b 80 01 3d 74 7e 91 3d
       -0.0550154 0.010575963 0.03161655 0.07104197
000050 5d 17 52 3b 21 f2 44 bd 5e c2 e4 3c 6c ef a0 bd
       0.0032057383 -0.048082475 0.027924713 -0.07858166
000060 80 30 9c bd 07 01 5b bc 76 28 7a bd 8f 42 b4 3d
       -0.07626438 -0.013366944 -0.061073743 0.088017575
000070 e3 ae 67 3d 80 f5 ec 3d 1e b8 28 3d ad f2 b8 bd
       0.05656327 0.11570263 0.041191213 -0.09030662
000080 50 66 27 bd a5 e9 85 3d 98 ba 51 3d f5 15 69 3c
       -0.040869057 0.06538705 0.05120334 0.014226426
000090 d6 51 aa bd f1 83 e0 3d 9d ab 80 bd 83 62 25 3d
       -0.0831639 0.10962666 -0.06282733 0.04037715
0000a0 a1 63 a8 bd 9f 6c be 3d b2 63 51 3d b6 f3 bc bb
       -0.08222128 0.092980616 0.051120467 -0.0057663573
0000b0 e5 cc b0 3c c0 6a d0 bd bd ea 87 bd cf 7e ea 3c
       0.021582076 -0.10176611 -0.0663657 0.02862492
0000c0 b8 b0 ac bd 24 6c 75 bd ff 1c d6 bd 67 9e 2c bc
       -0.08432144 -0.059917584 -0.10454749 -0.010535813
0000d0 d0 a7 05 3c 6c 97 ce 3d 1b 1a b0 3d a9 da cb bc
       0.008157685 0.10087475 0.08598729 -0.024884539
0000e0 46 76 ad 3d d9 84 e9 3c 1b 0a 79 3d b1 97 68 bd
       0.084698245 0.02850573 0.060800653 -0.05678529
0000f0 33 a7 a5 bd c7 7b be bd b6 75 6e 3d cf 8b aa bc
       -0.08088531 -0.093009524 0.058217727 -0.020818619
000100 8e 12 5f bd 48 cd 66 bd 0d 8f ad bc 6d fb e4 3c
       -0.054461055 -0.056348115 -0.021186376 0.02795192
000110 e8 31 0a 39 5d 65 8b 3d bc cd 54 3d 2a 45 0f 3d
       0.00013179297 0.06806443 0.051954016 0.03497807
000120 14 15 cf 3d ee 5e 2d 3c 0c 31 9f 3b 74 97 80 bd
       0.10111442 0.010581715 0.0048581418 -0.062788874
000130 2f 5c b2 3d fb 66 59 3d 13 19 9d bd 41 38 94 bd
       0.08708989 0.053076725 -0.07670798 -0.07237292
000140 b5 22 89 3d 24 70 53 bd 15 10 06 3d 18 08 94 3c
       0.06696073 -0.051620618 0.03273018 0.018070266
000150 ae 88 42 3a 73 d1 90 3c 82 60 b5 bc 3e 49 d5 bb
       0.00074208796 0.017677998 -0.022140745 -0.0065089753
000160 70 ff bf bd 59 3e b7 bd be 77 8b 3c 4d d9 43 3d
       -0.09374893 -0.08947439 0.017024871 0.047814656
000170 6e da 15 bc 54 39 23 3c 23 f2 ca bd ca d7 a2 bd
       -0.009146316 0.009962399 -0.09909465 -0.07951315
000180 ab 14 94 bd 6c bb 8b bd 35 27 6e 3d 31 0c 06 bd
       -0.072305046 -0.06822857 0.05814286 -0.03272647
000190 62 3a 1a bb 33 29 d9 3d 31 1e 3a bd e5 a7 be 3d
       -0.0023533334 0.10603561 -0.04543895 0.09309367
0001a0 9f ee bd 3d e9 4b 68 bd c1 de a0 bd 02 96 0d bd
       0.09274029 -0.05671302 -0.07854987 -0.034566887
0001b0 27 44 85 3c a0 f6 0f bd e8 74 c2 3b 65 23 a2 bd
       0.01626785 -0.03514731 0.0059343465 -0.07916907
0001c0 9b a4 14 bc 67 67 96 bd 13 f0 c0 3c 32 9d 0d bd
       -0.009072448 -0.07343941 0.023551976 -0.03457374
0001d0 ba 47 89 3d c8 d1 8e bd ff 17 77 bd 73 d1 26 bd
       0.06703134 -0.06973606 -0.06032562 -0.04072709
0001e0 b3 50 0b 3d 8d 2a 04 3d 66 45 78 3d bc b5 85 3d
       0.034012508 0.032267142 0.06061306 0.06528804
0001f0 03 41 a0 3d ff 50 3b 3d ac 1b 77 bd 4f 52 0f bd
       0.078249 0.04573154 -0.060329124 -0.034990605
000200 69 6a 8e bd 87 81 0f bd 51 54 7a 3c d6 18 b9 bd
       -0.0695389 -0.035035636 0.015278892 -0.0903794
000210 25 0f 26 3d 2c ba 97 bd 65 2d 5f 3d c0 29 8e 3b
       0.040541787 -0.07408556 0.05448665 0.004338473
000220 f8 b7 96 bd b2 a0 6b 3d 96 26 3b bd a0 5d 15 3c
       -0.07359308 0.057526298 -0.045691095 0.00911656
000230 e2 e6 01 3d 17 49 04 bd 3f b3 0a bd b7 01 b0 bd
       0.031714328 -0.032296266 -0.03386235 -0.08594077
000240 9c cc 22 3d c8 6a a8 3b a5 db 32 3d 7d d3 50 bd
       0.039745912 0.0051396824 0.0436665 -0.05098294
000250 21 89 26 bd d8 f1 2a 3d b9 44 fb ba 64 fe ae 3b
       -0.04065812 0.041734546 -0.0019170261 0.0053403843
000260 9a f2 2f 3d 7d 8f 92 bd 73 4f 0b 3d e9 17 33 3d
       0.042955972 -0.071562745 0.034011316 0.043723974
000270 90 14 28 bc 00 20 47 bd 44 bf aa 3d 52 89 55 3d
       -0.010258809 -0.048614502 0.08337262 0.052132912
000280 a6 a8 11 3d 10 81 85 bd 10 24 a7 bd 89 eb 4b 3c
       0.035561226 -0.06518757 -0.08161175 0.012446293
000290 90 ca 80 bc a4 ad 1c 3d 17 98 75 bd 12 9a b1 3c
       -0.01572159 0.038251534 -0.059959497 0.021679912
0002a0 b0 ce c6 3d 60 10 8f 3d 88 37 03 3d c9 b4 6d 3d
       0.09707391 0.06985545 0.03203538 0.05803374
0002b0 cc fd 82 3c 27 b0 7e bd 59 af 9b bb 7e 11 3b 3d
       0.01599016 -0.06217971 -0.0047511277 0.04567098
0002c0 27 30 bf bc 5b 3c 41 bd 37 ac 88 bd a4 46 07 3d
       -0.02333839 -0.0471767 -0.066734724 0.033026353
0002d0 1b 52 27 bc 2b 52 7d bd 10 b9 2e bb 5e c5 44 3d
       -0.010212447 -0.06184594 -0.0026660599 0.048039787
0002e0 15 4a 20 bd a4 29 27 bd 2a 1f b2 bd e1 92 42 3d
       -0.03913315 -0.040811196 -0.0869735 0.047503356
0002f0 0c b5 9d bd 7d ae 65 3b 4b ad 0e 3d 6a a6 13 3d
       -0.077005476 0.003504663 0.034833234 0.036047377
000300 b0 c0 ad bd 19 25 6c bc 7a e0 7a bd 94 1c e2 3c
       -0.08484018 -0.014413142 -0.061249234 0.027601518
000310 62 82 8b 3d df 5d db bc 1c 56 7c 3d 73 20 6c bd
       0.06811978 -0.02677816 0.061605558 -0.057648133
000320 f9 2b 44 bc 83 b2 97 3d c6 50 24 3d c5 aa 97 bd
       -0.0119733745 0.07407095 0.040116094 -0.074056186
000330 9e 59 fe 3c 41 8d 9e 3c 07 17 37 bb de 11 8a bd
       0.031048592 0.019354464 -0.002793731 -0.06741689
000340 ba 35 90 3d e6 f7 ef 3c 8c 87 30 3d 75 d4 27 3d
       0.070414975 0.029293012 0.043098018 0.0409741
000350 6a 7f 4f bc 3f cb 15 bd 5e a0 94 bd da f1 b1 bd
       -0.012664655 -0.036570784 -0.0725715 -0.08688708
000360 e0 69 85 3d 5a 66 95 bd 10 91 58 bb 05 27 5a 3d
       0.06514335 -0.07294913 -0.0033045448 0.05325987
000370 cd f1 70 3c b2 8f ae 3d 19 af ed 3b ea 6f f0 ba
       0.014706087 0.085235015 0.0072535393 -0.00183439
000380 c1 7a 87 3d 8e 64 d6 ba 2e a5 cc bc dd ae 4d bc
       0.0661521 -0.0016356872 -0.024981108 -0.012553898
000390 91 45 6d 3d fb 96 0f bc a1 21 98 bd 78 52 bc bd
       0.05792767 -0.008764024 -0.07428289 -0.09195417
0003a0 92 e2 9e bd 7d cc 61 3c 6b 18 8c 3d 4e 00 38 bc
       -0.077580586 0.013781664 0.06840595 -0.011230541
0003b0 a3 70 98 bd 5c 46 61 3d 23 69 9f bb ed 28 e7 3c
       -0.07443359 0.05499874 -0.004864828 0.028217757
0003c0 17 e4 7e 3d e8 02 e2 bc 1e d1 02 3d a1 9c c9 3d
       0.062229242 -0.027589276 0.03193771 0.09844328
0003d0 99 a9 87 3b aa ca b7 3c de 3c 44 3d 9b dd 9b 3d
       0.0041400907 0.022435505 0.04790961 0.07610627
0003e0 16 39 b2 bd 56 88 43 bd af 9a 1b 3d 1a c1 52 bd
       -0.087022945 -0.047737442 0.037989315 -0.051453687
0003f0 54 e0 a7 3d 96 99 86 3c 10 a9 09 bc 49 55 5f 3d
       0.08197084 0.016430657 -0.008402124 0.054524694
