streamlitApp/multi/weight_checkpoint_2022-3-7_22-53-26_9FNWR6a8Jd8QCzYQMsS2.pt (torch, 125391 bytes, 15 tensors)

phi.0.weight f4 [32, 25]
0	0x3dff5afd	0.124685265
1	0xbd77ce1a	-0.06049929
2	0xbdf1f757	-0.118147545
3	0x3dc576a7	0.09641772
4	0x3e1694ab	0.1470515
5	0x3e3c14fd	0.18367381
6	0x3da45af0	0.080251575
7	0x3e08f750	0.13375592
8	0x3e0f1ff5	0.13977034
9	0x3dba8407	0.091072135
10	0x3e2bfdd8	0.16796052
11	0xbe03ae27	-0.12859403
12	0x3e3d44c0	0.18483257
13	0xbe488673	-0.19582538
14	0xbdbe83b0	-0.09302461
15	0x3d5eefa7	0.05442777
16	0xbe38f640	-0.18062687
17	0x3d07985a	0.03310428
18	0x3d1a3ced	0.03765576
19	0x3def6ebd	0.116910435
20	0x3e4c7252	0.19965485
21	0xbd1e7620	-0.03868687
22	0x3d773160	0.060349822
23	0x3e04b82f	0.12960885
24	0x3e4617c0	0.19344997
25	0xbe29e81b	-0.16592447
26	0xbd05dd93	-0.032682013
27	0x3db549da	0.08851977
28	0xbd63617a	-0.055512883
29	0x3d99833a	0.074957326
30	0x3e4b3ea0	0.19848108
31	0xbdc214e0	-0.09476638
32	0x3d8d35d0	0.068950295
33	0x3d0d85da	0.03455148
34	0x3e3b7045	0.18304546
35	0x3d10d7c0	0.035362005
36	0x3e1d4ebb	0.15362065
37	0x3df0628a	0.11737545
38	0x3c94708d	0.018120075
39	0xbdfd8067	-0.123780064
40	0x3e0367ab	0.12832515
41	0xbe05954a	-0.1304523
42	0xbca8a880	-0.02058816
43	0xbe20407d	-0.156496
44	0xbdd14b57	-0.10219448
45	0x3e0cbdf2	0.13744333
46	0xbd64a627	-0.055822518
47	0xbdbff647	-0.093731456
48	0x3e1c9f42	0.15295127
49	0xbe1f9117	-0.15582691
50	0xbe4538a3	-0.19259886
51	0xbe1e7f10	-0.15478158
52	0xbdc9fd4a	-0.09862764
53	0x3e349f47	0.17638884
54	0x3d920ada	0.07130976
55	0xbd9c58f3	-0.07634153
56	0x3cf2831a	0.02960353
57	0x3e0b35c7	0.13594733
58	0xbdafe657	-0.08588856
59	0xbe195cb3	-0.14976768
60	0xbbcb3a00	-0.0062019825
61	0xbd22347a	-0.039600827
62	0x3e27a828	0.1637274
63	0xbde790d7	-0.11306923
64	0xbe051db8	-0.12999618
65	0x3cc459f3	0.023968672
66	0xbda4c180	-0.0804472
67	0xbd16fef3	-0.036864232
68	0xbe1eea77	-0.15519129
69	0x3d8e97ed	0.06962571
70	0x3e1b55d3	0.15169458
71	0x3e0827f7	0.13296495
72	0xbe469cab	-0.19395702
73	0x3e3d614d	0.18494149
74	0x3e1103c3	0.14161591
75	0x3e44c04a	0.19213977
76	0x3e28ea05	0.16495521
77	0x3dadebd0	0.08492243
78	0xbe018efd	-0.12652202
79	0x3de52d60	0.11190295
80	0x3e1aab27	0.15104352
81	0xbe129a0f	-0.14316581
82	0xbe0a3958	-0.13498437
83	0x3e32ab1f	0.1744809
84	0x3b0fcf9a	0.0021943809
85	0x3e1d325f	0.15351246
86	0x3e1ecaf8	0.15507114
87	0xbe4224dd	-0.18959375
88	0xbdba72ba	-0.091039136
89	0x3e0d393f	0.13791369
90	0xbe15874a	-0.1460239
91	0xbc984767	-0.018588735
92	0x3e02bcdf	0.12767361
93	0x3d8ac5a3	0.067759775
94	0x3e28d707	0.16488276
95	0xbdf7827a	-0.12085433
96	0x3e4b09e8	0.19827998
97	0x3e0cba6a	0.13742986
98	0xbdeb413a	-0.1148705
99	0xbdcaae03	-0.09896471
100	0x3d2f00f3	0.042725515
101	0x3d85610a	0.06512649
102	0x3e38196d	0.17978449
103	0xbe2a8ae7	-0.1665455
104	0x3dea3af3	0.11437025
105	0xbd2aa1e0	-0.041658282
106	0xbdb80343	-0.08984997
107	0xbbccf133	-0.006254339
108	0x3dbf971d	0.093549944
109	0x3daf5933	0.08561935
110	0x3e0254fa	0.12727728
111	0xbdf1a570	-0.11799133
112	0x3db22f00	0.08700371
113	0x3dfed00a	0.12442024
114	0xbd9d2077	-0.07672208
115	0x3dce4147	0.100710444
116	0xbd8b15a7	-0.06791239
117	0xbd991790	-0.07475197
118	0xbe431410	-0.19050622
119	0x3bf38a67	0.0074322703
120	0xbe3c3c58	-0.18382394
121	0x3c748ab3	0.014925647
122	0x3e2cc7ed	0.1687314
123	0xbe37ec93	-0.1796134
124	0x3cebbc67	0.02877636
125	0x3e03b470	0.128618
126	0x3da26550	0.0792948
127	0x3dba6643	0.09101536
128	0x3e47ce1d	0.1951222
129	0xbdaa4cba	-0.08315416
130	0xbd84897a	-0.06471534
131	0xbe226dfa	-0.15862265
132	0x3d8d72a0	0.069066286
133	0x3d830c07	0.063987784
134	0x3d7b2ac0	0.061320066
135	0xbe0dd8d3	-0.13852243
136	0xbd506067	-0.050873186
137	0xbd6aa853	-0.057289433
138	0xbd0006ed	-0.031256605
139	0xbe034e5a	-0.12822857
140	0x3d1a4973	0.037667703
141	0xbdf24bb3	-0.11830845
142	0xbe29af37	-0.16570745
143	0x3e300395	0.17188866
144	0xbe3b3ad3	-0.18284158
145	0xbde389d0	-0.1111027
146	0x3e3788b0	0.17923236
147	0x3d49b360	0.04924333
148	0x3e0edbd7	0.1395105
149	0x3e2c19fd	0.16806789
150	0x3c97ef73	0.018546795
151	0xbd02d633	-0.031942558
152	0xbd627773	-0.055289697
153	0x3e495c5a	0.19664136
154	0xbe45f943	-0.19333367
155	0xbd4ec273	-0.05047841
156	0xbe3ccdbb	-0.18437855
157	0x3c8d8f0d	0.017280126
158	0x3d45660d	0.048193026
159	0x3e410820	0.18850756
160	0x3ae2ee67	0.0017313481
161	0x3c21544d	0.009846759
162	0x3bf33f67	0.0074233296
163	0x3e295cca	0.16539302
164	0x3e414b33	0.18876342
165	0x3e2d3dc0	0.16918087
166	0x3e099727	0.13436566
167	0xbd78d0ed	-0.060746122
168	0xbd97bc00	-0.07408905
169	0xbd6295cd	-0.055318642
170	0x3e2cfe4d	0.16893883
171	0xbdf197c7	-0.11796527
172	0xbe1cc32a	-0.15308824
173	0xbcb468e7	-0.022022678
174	0x3db70d60	0.08938098
175	0x3d058227	0.032594826
176	0xbe118875	-0.1421221
177	0x3e33c190	0.17554307
178	0xbe0937b0	-0.1340015
179	0x3db5f277	0.08884137
180	0xbccd3f0d	-0.025054479
181	0x3ddf32cd	0.10898361
182	0xbe44de70	-0.19225478
183	0xbe2d86c0	-0.16945934
184	0x3da3894a	0.0798517
185	0xbe42ccc0	-0.19023418
186	0x3df4e153	0.1195704
187	0xbd790b6d	-0.060801912
188	0x3e1c90aa	0.1528956
189	0xbe03fd2a	-0.12889543
190	0x3e37178d	0.17880078
191	0xbd8115f3	-0.063030146
192	0x3e08a1af	0.13342927
193	0x3e12eadd	0.14347406
194	0x3dd6f49a	0.10495873
195	0xbdaa59c3	-0.08317902
196	0x3e19f40b	0.15034501
197	0xbdd8085a	-0.10548468
198	0xbdee2653	-0.116284035
199	0x3b0b959a	0.0021298886
200	0x3e3e84f5	0.18605407
201	0x3dd5d1aa	0.10440381
202	0x3e1564ab	0.14589183
203	0xbe11267f	-0.14174841
204	0x3e12c78f	0.14333938
205	0xbcce2cf3	-0.025167918
206	0x3e1af068	0.1513077
207	0x3e3471a3	0.17621474
208	0x3e2297e5	0.15878256
209	0xbd2f6060	-0.04281652
210	0x3e0dcd7a	0.13847914
211	0xbe3ef0e8	-0.18646586
212	0xbdaba52d	-0.08381114
213	0x3de0cba7	0.109763436
214	0x3d4b5653	0.049642872
215	0x3e034d30	0.12822413
216	0x3e265a88	0.16245472
217	0xbd887600	-0.06663132
218	0xbe11acdb	-0.14226095
219	0x3d75f45a	0.060047485
220	0xbcad00b3	-0.021118497
221	0xbb5672cd	-0.0032722235
222	0xbe0d3348	-0.13789093
223	0xbd7c1afa	-0.061549164
224	0x3e30bd5a	0.17259732
225	0xbd36fe9a	-0.0446764
226	0xbdaf192d	-0.08549724
227	0xbc74cdcd	-0.014941645
228	0xb9b53ccd	-0.0003456831
229	0x3df8c087	0.12146097
230	0xbe405195	-0.18781121
231	0x3d434a0d	0.047678042
232	0x3e2afe9b	0.16698687
233	0xbde1444d	-0.109993555
234	0xbcf144a7	-0.029451681
235	0x3e382c00	0.17985535
236	0xbe458a43	-0.19291024
237	0xbe34e113	-0.17663984
238	0x3a32e99a	0.00068249705
239	0xbd98f910	-0.0746938
240	0x3de4b7b0	0.11167848
241	0xbd038e40	-0.032118082
242	0xbe48ac0b	-0.19596879
243	0xbdd78f47	-0.10525375
244	0x3d32630d	0.043551493
245	0xbe129a68	-0.14316714
246	0x3d6418f3	0.055687856
247	0xbc51b5b3	-0.012799668
248	0x3e479b47	0.19492827
249	0xbd0ed9ed	-0.0348758
250	0xbe3b775d	-0.18307252
251	0x3de9e82a	0.11421235
252	0xbe492877	-0.19644342
253	0x3e09070a	0.13381591
254	0x3d82c263	0.063847326
255	0xbdc96377	-0.098334245

phi.0.bias f4 [32]
0	0x3d9fa46a	0.07795031
1	0xbddfa547	-0.10920196
2	0xbe33af20	-0.17547274
3	0x3c32ae9a	0.010905886
4	0x3e308950	0.1723988
5	0x3e23ae4f	0.15984462
6	0xbcf585c0	-0.029971004
7	0x3c0fc400	0.008774757
8	0xbe076223	-0.1322103
9	0xbe00972b	-0.12557666
10	0xbbea3200	-0.0071470737
11	0xbc92251a	-0.017839957
12	0x3e2244b5	0.15846522
13	0x3da0b4d3	0.078469895
14	0xbe09a512	-0.13441876
15	0xbe25268b	-0.16127984
16	0x3daee2ea	0.08539374
17	0x3bda24cd	0.006657219
18	0xbdaf3af0	-0.08556163
19	0x3e431df8	0.19054401
20	0x3e3ef02f	0.1864631
21	0xbda037bd	-0.07823131
22	0xbdbadffa	-0.091247514
23	0xbdd4987a	-0.10380645
24	0x3d673773	0.056449365
25	0xbca9149a	-0.020639706
26	0x3cebfa40	0.028805852
27	0x3dbc92ad	0.09207664
28	0x3dc7d083	0.09756567
29	0x3df85b80	0.12126827
30	0xbe26a8df	-0.16275357
31	0x3c424b80	0.011858821

phi.2.weight f4 [32, 32]
0	0x3ddb9089	0.10720927
1	0xbd88c59e	-0.066783175
2	0xbb624fbc	-0.0034532389
3	0x3d24847f	0.04016542
4	0x3d6bb845	0.05754878
5	0xbd7f322b	-0.062303703
6	0x3dbc0604	0.09180835
7	0x3df58e17	0.11989992
8	0xbe16d573	-0.14729862
9	0x3e0b71ac	0.13617581
10	0x3e32be43	0.17455392
11	0x3d2baee2	0.041914828
12	0x3e070342	0.13184837
13	0xbc1b44f2	-0.009476887
14	0x3e0d3052	0.13787964
15	0xbe179edd	-0.14806695
16	0x3df40a55	0.11916033
17	0x3e15bd8d	0.14623089
18	0xbe0c3323	-0.13691382
19	0xbde0c6ea	-0.1097544
20	0xbd8913b3	-0.066932105
21	0xbd21d815	-0.039512713
22	0xbe033a9b	-0.12815325
23	0xbd41c083	-0.047302734
24	0x3e079175	0.13239081
25	0xbdc6458f	-0.09681236
26	0x3e2125c3	0.15737061
27	0x3d03a32f	0.032138046
28	0xbe010cdd	-0.12602563
29	0xbe0a0504	-0.13478476
30	0x3de9f479	0.114235826
31	0xbe15f9f3	-0.1464613
32	0xbd757374	-0.059924558
33	0xbe06ff5e	-0.13183352
34	0xbe0a03fe	-0.13478085
35	0x3c72a21d	0.014809159
36	0x3e20dcc8	0.15709221
37	0xbe299be7	-0.16563378
38	0x3e27847c	0.16359133
39	0xbde7e26e	-0.11322485
40	0x3da7fa80	0.08202076
41	0xbd9b409e	-0.07580684
42	0xbd6eb18a	-0.058274783
43	0xbe20e7cf	-0.15713428
44	0x3e2a8b12	0.16654614
45	0x3ca2e895	0.019886294
46	0x3dc74739	0.097303815
47	0xbe34facc	-0.17673796
48	0x3dd50cbc	0.104028195
49	0x3df02810	0.11726391
50	0x3e24a08d	0.1607687
51	0xbc2d4aff	-0.0105769625
52	0xbd2161ee	-0.039400034
53	0x3e2d6615	0.16933472
54	0xbd3b0b86	-0.045665286
55	0xbcc099f0	-0.023510903
56	0xbd8ff65c	-0.07029411
57	0x3d76fb2b	0.060298126
58	0xbcd0aa07	-0.0254717
59	0xbc80e63e	-0.015734788
60	0x3dabe68f	0.08393585
61	0xbcda10c1	-0.026619317
62	0x3e307881	0.17233469
63	0x3e33ea02	0.17569736
64	0x3da773a7	0.08176356
65	0xbd18c268	-0.037294775
66	0xbd81cf36	-0.063383505
67	0xbd92523b	-0.071445905
68	0xbda8714b	-0.08224734
69	0x3d935475	0.07193843
70	0xbd816588	-0.06318194
71	0xbd15a667	-0.036535647
72	0x3db572ea	0.08859809
73	0xbda72e5e	-0.08163141
74	0x3d39bd0b	0.0453463
75	0x3e04a7d6	0.1295465
76	0x3d2fa7ae	0.04288452
77	0x3e315021	0.17315723
78	0xbdad8804	-0.084732085
79	0xbe1b660c	-0.15175647
80	0x3d92276e	0.07136427
81	0xbdeacf0f	-0.114652745
82	0xbe1f5330	-0.15559077
83	0x3c233542	0.009961428
84	0x3c808bbc	0.01569163
85	0xbc65fb4d	-0.014036966
86	0xbd9da9f4	-0.076984316
87	0x3d8ff799	0.070296474
88	0x3cc235d3	0.023707306
89	0x3d87e0d0	0.066346765
90	0x3db65136	0.089022085
91	0xbddef1b4	-0.10885945
92	0x3d17abb8	0.037028998
93	0xbe2d1ac5	-0.16904743
94	0xbd2c4abc	-0.04206346
95	0x3c1e5630	0.009664103
96	0x3dc8eeba	0.098111585
97	0xbe33a2fa	-0.1754264
98	0x3e078d85	0.13237579
99	0xbd55ece4	-0.05222787
100	0xbcf16cab	-0.029470762
101	0x3e301f89	0.1719953
102	0xbdd83564	-0.105570585
103	0xbe2d5748	-0.16927826
104	0x3c96a557	0.018389387
105	0xbd9d2a79	-0.07674117
106	0xbc98c794	-0.018649854
107	0xbe326bf8	-0.17424
108	0xbda09467	-0.078408055
109	0x3c90eec7	0.017691983
110	0x3e0a92a5	0.13532503
111	0xbc044f36	-0.008075526
112	0xbe06824b	-0.1313564
113	0x3deda8df	0.11604475
114	0x3d2354d0	0.039875805
115	0xbcfcd609	-0.030863779
116	0xbd9152b0	-0.070958495
117	0x3e2495e8	0.1607281
118	0x3d6007af	0.054694828
119	0x3dac4574	0.08411685
120	0xbdaed9ea	-0.085376576
121	0x3dd4fc3b	0.10399672
122	0x3dc670a1	0.09689451
123	0xbd28299c	-0.041055307
124	0x3d7e3b31	0.062068168
125	0xbdf69706	-0.12040524
126	0x3d85479a	0.065077975
127	0x3e072464	0.13197476
128	0x3de8a877	0.11360257
129	0xbe31572f	-0.17318414
130	0x3da0b5a3	0.078471445
131	0xbdcc2ddd	-0.09969685
132	0xbcd11467	-0.025522424
133	0xbe2cdb5c	-0.16880554
134	0xbddbb4b0	-0.10727823
135	0x3e006ee1	0.12542297
136	0xbd5f191a	-0.054467298
137	0x3e1d4214	0.15357238
138	0xbdbbd68b	-0.0917178
139	0x3ce51a2d	0.027966583
140	0xbd38998f	-0.04506832
141	0x3dd65b5a	0.10466643
142	0xbe2345c4	-0.15944582
143	0xbdb331da	-0.08749743
144	0xbd7ad513	-0.06123836
145	0x3ccc6055	0.024948278
146	0x3e113e8a	0.14184013
147	0x3da7505d	0.08169625
148	0xbb97cb0d	-0.00463236
149	0x3c4539cf	0.012037708
150	0x3d9c685a	0.07637091
151	0x3cd71070	0.026252955
152	0xbe0e8aba	-0.13920107
153	0xbdd655dc	-0.10465595
154	0xbce5efc4	-0.02806843
155	0xbd4ee383	-0.05050994
156	0x3e0aa98e	0.13541242
157	0x3e292280	0.16517067
158	0xbc14c7b0	-0.009080812
159	0xbdff4406	-0.12464146
160	0x3d859256	0.06522052
161	0xbde55ca8	-0.111993134
162	0xbdc8dd34	-0.09807816
163	0xbda3a62a	-0.07990678
164	0xbd36c8e1	-0.044625167
165	0x3e1289aa	0.14310327
166	0xbe1d0bea	-0.15336576
167	0x3e27efc4	0.16400057
168	0xbdf7e1e5	-0.12103633
169	0x3bcd5e73	0.0062673627
170	0x3e26c354	0.1628545
171	0x3de659e0	0.11247611
172	0x3e03c6e7	0.12868844
173	0xbcd49a68	-0.025952533
174	0x3d89759c	0.06711885
175	0xbcb2e57e	-0.021837946
176	0x3d4eb8c7	0.050469186
177	0xbe2c0155	-0.16797383
178	0x3e0ff79f	0.14059304
179	0xbe0b6d9b	-0.1361603
180	0x3d204267	0.039125826
181	0x3d8dd4b2	0.06925334
182	0xbe17eec4	-0.14837176
183	0xbce11ec0	-0.027480483
184	0x3d1fbc62	0.038998015
185	0x3e2cd766	0.16879043
186	0x3e06e30a	0.13172546
187	0x38c701a1	9.489363e-05
188	0x3ddb190c	0.10698137
189	0xbd44c01f	-0.048034783
190	0x3d8d60e5	0.06903247
191	0xbbc10d48	-0.005891476
192	0xbd90f581	-0.07078076
193	0x3e211287	0.15729724
194	0xbd66bf64	-0.056334868
195	0x3e0df06a	0.13861242
196	0xbe23d6a0	-0.15999842
197	0xbd288ed1	-0.041151825
198	0x3c9a71c9	0.018853085
199	0xbde13fda	-0.10998507
200	0xbda40f64	-0.08010748
201	0x3da927ba	0.0825953
202	0xbe10af5b	-0.14129393
203	0x3e253c7a	0.16136351
204	0xbce4bf17	-0.02792315
205	0xbd39c641	-0.045355085
206	0xbde76675	-0.11298839
207	0x3c3a4dbc	0.011371072
208	0xbd9874c8	-0.07444149
209	0x3db3b30d	0.087743856
210	0x3cb38e45	0.021918425
211	0x3dd37dc3	0.103267215
212	0x3e0bf17b	0.13666336
213	0x3e2cce0b	0.16875474
214	0x3de5b056	0.11215274
215	0x3dd61cd7	0.104547195
216	0x3d82e704	0.06391719
217	0xbd41df24	-0.047331944
218	0x3ddf4185	0.10901169
219	0x3b640c81	0.0034797492
220	0x3da81d3c	0.08208701
221	0xbd91727a	-0.07101913
222	0xbe245f00	-0.16051865
223	0xbe2007df	-0.15628003
224	0xbdbeabc7	-0.09310108
225	0x3df2884b	0.11842402
226	0xbe0227f1	-0.12710549
227	0x3d12cc18	0.03583917
228	0xbd5af3cd	-0.053455163
229	0xbdeb3580	-0.11484814
230	0xbd565b87	-0.05233338
231	0x3da07b94	0.07836071
232	0x3da5ba3b	0.08092161
233	0xbd99d1c0	-0.0751071
234	0x3e32c972	0.17459658
235	0x3dae700c	0.08517465
236	0xbc7aede9	-0.015315511
237	0x3e1c0519	0.1523632
238	0x3d46e4ed	0.048558164
239	0xbdf2433b	-0.118292294
240	0x3dabb89e	0.08384822
241	0x3e30a406	0.1725007
242	0xbda31143	-0.07962277
243	0xbd85e7b2	-0.06538333
244	0xbdea297c	-0.11433694
245	0xbe0bcca2	-0.1365228
246	0xbd4c388f	-0.049858626
247	0x3e2335bd	0.15938468
248	0x3d489037	0.04896566
249	0x3e08f05c	0.1337294
250	0xbe13a808	-0.14419568
251	0xbd8b3d49	-0.067987986
252	0xbe1f5e45	-0.15563305
253	0x3d2ea39f	0.04263651
254	0xbda4d70f	-0.08048832
255	0x3e0a727d	0.13520236

phi.2.bias f4 [32]
0	0xbdab3631	-0.083599456
1	0x3bd78ae6	0.0065778373
2	0xbd4ab006	-0.049484275
3	0xbe260356	-0.1621221
4	0x3da94241	0.0826459
5	0xbbb7d331	-0.005609893
6	0xbe2b31b4	-0.16718179
7	0x3b8089be	0.00392267
8	0x3cc0d451	0.02353874
9	0x3e2b5420	0.1673131
10	0x3e3365ba	0.17519274
11	0xbd14287a	-0.036171414
12	0xbe11ece9	-0.1425053
13	0xbb3e70e4	-0.0029058987
14	0xbd41ec22	-0.047344334
15	0x3e1de277	0.1541842
16	0x3dc13f4d	0.09435902
17	0xbc6af7ce	-0.014341308
18	0x3db09501	0.0862217
19	0xbd70eb50	-0.05881816
20	0xbdf056b2	-0.11735286
21	0xbd4de702	-0.050269134
22	0xbde33ca0	-0.11095548
23	0x3d9e6ce2	0.077356115
24	0xbdd8ffc1	-0.10595656
25	0x3d09edf3	0.03367419
26	0xbd9703b7	-0.073737554
27	0x3e03d874	0.12875539
28	0x3e324e4e	0.17412683
29	0x3c897e7e	0.016783949
30	0xbda2d567	-0.079508595
31	0xbdd09dff	-0.10186385

phi.4.weight f4 [28, 32]
0	0xbe15feac	-0.14647931
1	0xbc09aa34	-0.008402396
2	0x3d87b82d	0.066269256
3	0xbdc6dd2b	-0.09710153
4	0x3d06c72a	0.03290478
5	0xbdabd974	-0.08391085
6	0xbd33982c	-0.043846294
7	0x3e347243	0.17621712
8	0x3cbe75ee	0.023249593
9	0x3c88c23a	0.016694177
10	0xbb14649b	-0.0022642973
11	0xbe222e26	-0.15837917
12	0x3d073765	0.033011813
13	0xbd0fe77d	-0.035132874
14	0xbd360fd6	-0.044448696
15	0x3ce3cf9a	0.027808953
16	0xbd98d06b	-0.074616276
17	0x3dd09563	0.10184743
18	0x3e1cf29d	0.15326925
19	0xbc9c66fe	-0.01909208
20	0xbe299aa2	-0.16562894
21	0xbdacebe9	-0.08443434
22	0x3dd3c60e	0.1034051
23	0xbd651f31	-0.05593795
24	0x3cf8e05a	0.030380417
25	0x3c8f2333	0.017472839
26	0xbe0759d3	-0.13217859
27	0x3d6126ba	0.054968573
28	0xbd7d9b40	-0.061915636
29	0x3e1c376b	0.15255515
30	0xbe1248d4	-0.14285594
31	0xbdfd7c51	-0.12377227
32	0x3dcf5542	0.101236835
33	0x3dae005b	0.084961616
34	0xbe259bf3	-0.16172771
35	0xbdec480c	-0.11537179
36	0xbd7cf548	-0.061757356
37	0xbe16451e	-0.14674804
38	0x3dd91b39	0.106008954
39	0x3bbf9ea6	0.00584777
40	0x3e338dda	0.17534581
41	0x3b4d3c27	0.0031316371
42	0x3e013d3e	0.12621018
43	0x3da403bc	0.08008525
44	0x3c7cd3b1	0.015431331
45	0xbdbdafe5	-0.09262065
46	0x3dfc5ad5	0.12322012
47	0x3e20bbd2	0.15696648
48	0x3ddb181b	0.10697957
49	0x3ddd8dc3	0.108180545
50	0x3ce5011e	0.027954634
51	0x3db2ff18	0.087400615
52	0x3e2d6567	0.16933213
53	0xbe11b730	-0.14230037
54	0xbe271f5a	-0.16320553
55	0xbe224367	-0.15846024
56	0xbd89e3f4	-0.06732932
57	0xbc9f26c9	-0.019427674
58	0xbd33aceb	-0.04386608
59	0x3dab328b	0.0835925
60	0xbdffb512	-0.12485708
61	0xba49977b	-0.0007690114
62	0xbc2ceee5	-0.010555004
63	0x3dff5ee8	0.12469274
64	0xbd1ec7d5	-0.038764793
65	0xbe2afffe	-0.16699216
66	0x3df3d19b	0.119052134
67	0x3e060b62	0.1309028
68	0xbd9a574b	-0.07536181
69	0xbd18fe94	-0.03735216
70	0xbdd156f6	-0.102216646
71	0x3e2314d5	0.15925916
72	0x3e12013a	0.1425828
73	0x3be2cba7	0.00692125
74	0x3e34fac7	0.17673789
75	0x3e24f2ad	0.16108198
76	0x3dc6aa25	0.09700421
77	0x3e322611	0.17397334
78	0xbd92178d	-0.07133398
79	0x3d2208c9	0.03955916
80	0x3cdaabbe	0.026693221
81	0x3d72d5b0	0.05928582
82	0xbd8003de	-0.062507376
83	0x3e12a36c	0.14320153
84	0xbe25719b	-0.16156618
85	0xbd1dcefa	-0.038527466
86	0x3d70fbdd	0.058833946
87	0xbd95b70e	-0.073103055
88	0xbcede4ad	-0.029039705
89	0xbe1e96b9	-0.15487184
90	0xbe27764e	-0.16353723
91	0xbd320e45	-0.04347064
92	0xbd65a2a0	-0.056063294
93	0x3de6c421	0.11267877
94	0x3b38f6b3	0.0028223216
95	0xbcf07e32	-0.02935705
96	0xbc3cf7ea	-0.011533717
97	0xbdad111d	-0.0845053
98	0x3e026ac4	0.1273604
99	0x3e1f8c78	0.15580928
100	0xbdc7ecaa	-0.09761937
101	0xbb520866	-0.0032048463
102	0x3e1a34a5	0.15059145
103	0x3dd935ed	0.10605989
104	0xbd315529	-0.043294106
105	0x3da71752	0.08158745
106	0x3cffa09c	0.031204514
107	0xbd9739da	-0.07384081
108	0x3d371eed	0.044707227
109	0xbda60759	-0.0810687
110	0x3e24ff09	0.16112913
111	0x3af927dc	0.0019009071
112	0xbd86c2fd	-0.0658016
113	0xbd0b40ec	-0.03399746
114	0x3d5f702a	0.054550327
115	0xbd98cb9c	-0.074607104
116	0xbe1d5af9	-0.15366735
117	0x3e02c67a	0.12771025
118	0x3dc50f1e	0.09622024
119	0xbd6b92b5	-0.057512958
120	0x3e07fb98	0.13279569
121	0x3e244d6c	0.16045159
122	0x3d51d303	0.051226627
123	0xbcdfb03f	-0.02730572
124	0xbc824d0e	-0.015905883
125	0x3de9ff3c	0.11425635
126	0xbdecf4c7	-0.11570125
127	0xbe0a93dd	-0.13532968
128	0xbd956a33	-0.072956465
129	0xbe1ceb37	-0.15324102
130	0x3de9c9bd	0.11415432
131	0x3d6130c8	0.054978162
132	0x3d7aee93	0.06126268
133	0x3e124a6b	0.142862
134	0x3d0cf0d4	0.03440936
135	0x3e024e64	0.12725216
136	0xbdeebe85	-0.116574325
137	0xbe0d11c7	-0.13776313
138	0xbdef9096	-0.116974995
139	0x3e04ba89	0.12961783
140	0xbe006681	-0.12539102
141	0xbb606ff6	-0.0034246421
142	0x3dafab76	0.085776255
143	0x3d2e2304	0.042513862
144	0xbdf49432	-0.119423285
145	0xbda2c740	-0.0794816
146	0x3d8ab61e	0.06773017
147	0xbcef81ef	-0.029236762
148	0xbd07b1d6	-0.033128582
149	0xbdd4fa57	-0.10399311
150	0xbc1d9772	-0.009618627
151	0x3d5a9d89	0.053372893
152	0xbe0b343d	-0.13594146
153	0x3dd7b701	0.10532952
154	0x3d0147c7	0.031562593
155	0xbcb996db	-0.022654941
156	0x3e0e603c	0.13903898
157	0x3dafaec9	0.085782595
158	0x3d8673fb	0.0656509
159	0xbe2f992a	-0.17148271
160	0x3e15b3a4	0.14619309
161	0xbdc36bac	-0.09542021
162	0xbc76a738	-0.0150545165
163	0xbd96e541	-0.073679455
164	0x3e34dc60	0.17662191
165	0xbde091bc	-0.109652966
166	0x3e0125ac	0.12612027
167	0xbdee72ba	-0.11642976
168	0xbe0f5642	-0.13997748
169	0xbe1ea11f	-0.1549115
170	0xbde65e7c	-0.1124849
171	0x3e030cf6	0.12797913
172	0x3d2a0ceb	0.041516226
173	0x3e329677	0.1744021
174	0xbdb504fb	-0.088388406
175	0x3db520b7	0.088441305
176	0x3e202f59	0.15643062
177	0xbdb1ca6b	-0.08681186
178	0x3d847ce5	0.06469134
179	0xbd4a5682	-0.049398907
180	0xbd6ae9a4	-0.057351723
181	0xbcdf256f	-0.02723953
182	0xbd44a08b	-0.04800467
183	0x3d862b56	0.065512344
184	0x3ab88e0c	0.0014080419
185	0x3dde83f8	0.10865015
186	0x3cc13c43	0.023588305
187	0xbdaa1638	-0.08305019
188	0xbd7b96b0	-0.061423004
189	0x3dbff969	0.09373743
190	0x3e1f8629	0.15578522
191	0xbe0746b1	-0.1321056
192	0x3e2924f4	0.16518003
193	0xbdd02b3f	-0.101644985
194	0xbd4456b2	-0.04793424
195	0x3e33fb90	0.17576432
196	0x3e271522	0.16316655
197	0xbe287fc3	-0.16454987
198	0xbdb1dc9b	-0.08684655
199	0xbe27e305	-0.16395195
200	0x3d19da77	0.03756186
201	0xbdeff983	-0.117175125
202	0xbd8950f1	-0.067048915
203	0x3e02a626	0.12758693
204	0x3e20da42	0.15708259
205	0x3c0da716	0.008645793
206	0x3e0c5088	0.13702595
207	0x3de8d59f	0.1136887
208	0xbe15b515	-0.14619859
209	0xbd87af95	-0.066252865
210	0xbe19d4a5	-0.15022524
211	0xbdeb5c0c	-0.11492166
212	0xbc2738dd	-0.010206428
213	0xbe2b3fc6	-0.16723546
214	0xbd9d901c	-0.07693502
215	0x3dc3ae0d	0.09554682
216	0x3d3c661e	0.045995824
217	0x3dd3e54f	0.103464715
218	0xbe25df52	-0.16198471
219	0xbe215dfd	-0.1575851
220	0x3b168cdb	0.002297214
221	0x3d8423d5	0.06452147
222	0xbdcb3da5	-0.09923867
223	0xbd958326	-0.07300405
224	0xbe054d74	-0.13017827
225	0xbdcbee55	-0.099575676
226	0xbe050584	-0.12990385
227	0x3d9fc774	0.078017145
228	0xbc97f1fd	-0.018548006
229	0xbc3bf8ea	-0.01147292
230	0xbd4a8c79	-0.04945037
231	0x3bab84db	0.0052343435
232	0x3d1f9fdb	0.03897081
233	0xbe2a21ab	-0.16614406
234	0xbe124e05	-0.14287575
235	0xbddb2d49	-0.10701997
236	0x3e0a7531	0.13521267
237	0x3e13f49e	0.14448783
238	0x3c182f1c	0.0092885755
239	0x3e2fa95c	0.17154449
240	0x3ca72ea7	0.020407988
241	0x3e10d3cd	0.14143296
242	0x3e283f2a	0.16430345
243	0x3e20b7be	0.15695092
244	0x3d98a568	0.07453424
245	0x3e31de94	0.17370063
246	0xbe05b7fa	-0.13058463
247	0xbda60bd8	-0.08107728
248	0x3d4b28e5	0.049599547
249	0x3dcf4c19	0.10121936
250	0x3e14049d	0.14454885
251	0x3de4aab2	0.1116537
252	0xbc2c1c44	-0.010504786
253	0x3da6109b	0.08108636
254	0xbe02b8c3	-0.12765794
255	0xbde40baa	-0.11135037

phi.4.bias f4 [28]
0	0x3e21484d	0.15750237
1	0xbdea4cda	-0.114404395
2	0x3d5f469a	0.05451069
3	0x3db22f3f	0.08700418
4	0xbd3a72c4	-0.045519605
5	0x3e194d47	0.14970885
6	0xbdec25cb	-0.11530646
7	0xbbd4a306	-0.0064891605
8	0x3d15d239	0.036577437
9	0xbe00b278	-0.1256808
10	0xbd9fbeea	-0.07800086
11	0xbd9982ce	-0.07495652
12	0xbe0dfac6	-0.13865194
13	0x3e0cc8d0	0.13748479
14	0xbd962cb9	-0.07332749
15	0xbd51df6e	-0.05123847
16	0xbd43e92f	-0.047829803
17	0x3ddf1241	0.108921535
18	0xbe0dc21f	-0.13843583
19	0x3e30dd6b	0.17271964
20	0xbd15f1ab	-0.036607426
21	0xbdbb8c5a	-0.09157629
22	0x3e34f641	0.17672063
23	0xbdc8cf01	-0.09805108
24	0x3ca9dae9	0.020734267
25	0x3e16f96c	0.14743584
26	0x3c882dc7	0.01662339
27	0x3d36ab6c	0.044597074

phi.6.weight f4 [25, 28]
0	0x3e272ef4	0.16326505
1	0xbd1a23ba	-0.037631728
2	0x3dbcb29c	0.092137545
3	0xbb689e92	-0.0035494906
4	0xbda48b3b	-0.080343686
5	0xbc4038cd	-0.011732292
6	0x3ded8a99	0.11598701
7	0xbdb95a6d	-0.090504505
8	0xbe31ddc6	-0.17369756
9	0x3dadb2a5	0.08481339
10	0x3d907b3a	0.070547536
11	0x3c866627	0.016406132
12	0xbda46f2e	-0.08029018
13	0xbd5ee809	-0.054420505
14	0x3e09102a	0.13385072
15	0xbb34b251	-0.0027572105
16	0x3e04e661	0.12978508
17	0x3c8643fe	0.016389843
18	0x3e16f0c3	0.14740281
19	0x3dfd6f96	0.12374799
20	0x3e0d8747	0.13821135
21	0xbe1eb9b7	-0.15500532
22	0x3d40e086	0.047089122
23	0x3d81f2ef	0.06345164
24	0xbdb64e0c	-0.08901605
25	0x3e15e56d	0.146383
26	0x3e23254b	0.15932195
27	0x3d46a39f	0.048495885
28	0x3e1fe2c1	0.15613844
29	0xbdf423a6	-0.11920862
30	0xbc38df33	-0.011283684
31	0xbe304fb1	-0.172179
32	0xbe19e31a	-0.15028039
33	0xbc6da70d	-0.01450516
34	0x3df6c648	0.12049538
35	0x3ca7bdad	0.020476187
36	0xbe05ff5a	-0.1308569
37	0xbe1841eb	-0.14868896
38	0x3cac5de3	0.021040862
39	0x3d5cd07c	0.053909764
40	0xbdea68b3	-0.11445751
41	0x3dd6775b	0.10471984
42	0x3d31ef6d	0.043441225
43	0xbe332bfa	-0.17497244
44	0x3e0244a0	0.12721491
45	0x3dd36f1c	0.10323927
46	0x3e05bb5e	0.13059756
47	0xbdefd031	-0.11709631
48	0xbd3f86a9	-0.04675928
49	0x3e1b25e9	0.1515118
50	0xbe1825bc	-0.14858145
51	0xbe0f67b6	-0.14004406
52	0xbe056dc5	-0.13030155
53	0xbe18b2ef	-0.14912008
54	0x3d8858ea	0.06657584
55	0x3e0382a0	0.12842798
56	0x3e0762f4	0.13221341
57	0x3e0a341d	0.13496442
58	0xbe3e390c	-0.18576449
59	0xbde77311	-0.11301244
60	0xbe0a3b81	-0.13499261
61	0xbe306f0e	-0.17229864
62	0x3c02961b	0.007970358
63	0xbe23e3b1	-0.16004826
64	0x3dd7d214	0.10538116
65	0xbda03b2f	-0.078237884
66	0x3bd6a74f	0.0065507065
67	0xbe0de878	-0.13858211
68	0xbd1b3cb2	-0.03789968
69	0x3d7cc87a	0.061714627
70	0x3de8c8cf	0.11366426
71	0xbe15ad9b	-0.14617006
72	0x3dff97b2	0.124801055
73	0xbd8d7e1e	-0.069088206
74	0x3dbb5299	0.09146614
75	0x3e0382fa	0.12842932
76	0x3da80321	0.08203722
77	0xbe3fa2df	-0.18714474
78	0xbd97fc01	-0.07421113
79	0x3e20e381	0.15711786
80	0x3d1f6878	0.03891799
81	0x3dec1840	0.11528063
82	0x3d92280d	0.07136545
83	0xbe0dd101	-0.1384926
84	0xbe3db6a0	-0.18526697
85	0xbc765489	-0.015034803
86	0xbe18cc51	-0.1492169
87	0x3d0a0d18	0.033703893
88	0x3e193e75	0.14965232
89	0x3c261080	0.01013577
90	0xbd316701	-0.043311123
91	0xbc79db7e	-0.015250085
92	0x3dd2bdae	0.10290085
93	0xbe0195df	-0.12654828
94	0x3b8e91f3	0.0043508946
95	0x3e27eb24	0.16398293
96	0xbd6b214c	-0.0574048
97	0x3e27c8e3	0.16385226
98	0x3bfe2dfc	0.0077569466
99	0x3ca23df3	0.01980493
100	0x3e13850d	0.14406224
101	0x3e091372	0.13386324
102	0x3e21f985	0.1581784
103	0xbd569a81	-0.05239344
104	0xbd372e37	-0.04472181
105	0xbe0655e6	-0.13118705
106	0x3e16c803	0.14724736
107	0xbe16eadb	-0.14738028
108	0xbd872b88	-0.066001
109	0x3dd12f94	0.10214153
110	0xbe0bf35a	-0.1366705
111	0xbe196fcb	-0.14984052
112	0x3e33ca93	0.17557745
113	0xbde92abf	-0.11385106
114	0x3dea169c	0.11430094
115	0xbe2bb3b2	-0.16767767
116	0x3d47a363	0.048739802
117	0x3e3dd950	0.1853993
118	0x3e02c987	0.12772189
119	0x3e040c52	0.12895325
120	0x3dd3c09f	0.10339474
121	0xbdb3efb9	-0.08785958
122	0x3c842a57	0.01613347
123	0x3d9332a8	0.07187396
124	0x3df31a76	0.118702814
125	0xbdfdd07f	-0.12393283
126	0xbd9c80f4	-0.07641783
127	0x3d429dab	0.047513645
128	0x3d9b9477	0.07596677
129	0x3ca69860	0.02033633
130	0x3daa9bc1	0.08330489
131	0xbd621944	-0.055199876
132	0x3e2abd88	0.16673863
133	0x3d809508	0.062784255
134	0x3e198a1f	0.14994095
135	0x3dd8efd5	0.10592619
136	0xbd5970d0	-0.053086102
137	0x3cca5624	0.024699278
138	0xbe3839a9	-0.17990746
139	0x3c40054d	0.011720014
140	0x3e1ff561	0.15620948
141	0xbe1f5184	-0.1555844
142	0x3d3c5305	0.04597761
143	0xbdfac1c5	-0.1224399
144	0x3da2b887	0.07945352
145	0x3db4c68c	0.08826932
146	0x3e10a96b	0.14127128
147	0xbbe73873	-0.00705629
148	0xb9f12128	-0.00045991805
149	0x3de3d940	0.111254215
150	0xbcc2816b	-0.023743352
151	0x3dd8f50d	0.10593615
152	0xbe0e4c90	-0.13896394
153	0x3e26d377	0.16291605
154	0xbcf92985	-0.030415306
155	0xbd871c91	-0.065972455
156	0x3e06070f	0.1308863
157	0x3dd3a6e5	0.10334567
158	0xbe212754	-0.15737659
159	0xbc9ed9ab	-0.019390902
160	0xbe2de85a	-0.16983166
161	0xbdbefa3f	-0.093250744
162	0xbdeb2dbf	-0.11483335
163	0x3e270009	0.16308607
164	0x3cabcce4	0.020971723
165	0x3d0e6945	0.03476836
166	0xbcd6a93f	-0.02620375
167	0xbb98cd3e	-0.0046631387
168	0xbc9983b5	-0.01873956
169	0x3e362d71	0.17790772
170	0xbc896621	-0.016772332
171	0x3dd209b6	0.102557585
172	0xbe08cf46	-0.13360319
173	0xbe2195b5	-0.15779765
174	0x3dc069b3	0.093951605
175	0xbd11e2e2	-0.035616763
176	0x3e0c521c	0.13703197
177	0x3d393058	0.04521212
178	0xbe216c0c	-0.15763873
179	0xbd46ea17	-0.04856309
180	0xbe32bc40	-0.17454624
181	0x3dac1f04	0.08404353
182	0x3dd1f436	0.10251658
183	0x3e179bb9	0.14805497
184	0x3c58ad67	0.013224936
185	0x3e0a2d51	0.1349385
186	0x3e0241da	0.12720433
187	0x3d2f8f36	0.042861186
188	0xbe3f94f4	-0.18709165
189	0xbda2a36f	-0.07941329
190	0x3e01a3f8	0.12660205
191	0x3d8cc54e	0.068735704
192	0xbe3137b3	-0.17306404
193	0x3e1c040b	0.15235917
194	0xba84cc64	-0.0010131714
195	0x3d756617	0.059911814
196	0xba9be300	-0.0011893213
197	0xbbe795ff	-0.0070674415
198	0xbd7ba5c1	-0.061437372
199	0xbe3605e3	-0.17775683
200	0xbd85bfbe	-0.065307125
201	0xbe320cdf	-0.17387722
202	0x3d891049	0.06692559
203	0x3d423480	0.04741335
204	0xbdeb00ad	-0.11474738
205	0xbe24cf51	-0.1609471
206	0x3e0ac9ee	0.13553593
207	0x3dc797e2	0.09745766
208	0xbcfe86c2	-0.031070117
209	0xbd8a16a0	-0.067425966
210	0xbcc2269c	-0.023700051
211	0x3dbf3508	0.09336287
212	0x3daafe10	0.0834924
213	0xbda291c6	-0.0793796
214	0xbe263b69	-0.162336
215	0x3e002f85	0.12518127
216	0x3e1475a6	0.14498004
217	0x3cda1111	0.026619466
218	0x3d3f4c8d	0.046703864
219	0xbdf584ae	-0.11988197
220	0xbb9dc5da	-0.0048148455
221	0xbe00976c	-0.12557763
222	0x3cedb1a2	0.029015366
223	0xbdc6e910	-0.09712422
224	0xbdf3a1de	-0.11896108
225	0x3e36b759	0.17843379
226	0x3d112bbc	0.0354421
227	0x3cdb5f55	0.026778856
228	0x3d3b1594	0.045674875
229	0x3e04c7f6	0.12966904
230	0xbc7dd00f	-0.0154915
231	0xbe3260ab	-0.17419688
232	0xbd1c42f5	-0.038149793
233	0xbd74ed5a	-0.05979667
234	0x3e347dcf	0.17626117
235	0x3e21e5af	0.15810274
236	0xbe2819c5	-0.1641608
237	0xbe2a76cb	-0.16646878
238	0xbda00b4a	-0.07814653
239	0x3d35234e	0.044223122
240	0xbe2dd867	-0.16977082
241	0xbd41110b	-0.047135394
242	0xbd444736	-0.047919475
243	0xbe199f31	-0.15002133
244	0xbc919a62	-0.01777381
245	0xbdd3aa19	-0.10335178
246	0x3dfef8fd	0.124498345
247	0x3cb45f36	0.022018056
248	0xbd120c6f	-0.03565639
249	0x3d6b9b37	0.05752107
250	0xbd13ecc8	-0.036114484
251	0xbd9e58e4	-0.07731798
252	0x3dd4b73e	0.10386513
253	0x3daedcfd	0.08538244
254	0x3e316f67	0.17327653
255	0x3e2d7336	0.1693848

phi.6.bias f4 [25]
0	0x3e410677	0.18850122
1	0x3d98e104	0.07464793
2	0xbb481013	-0.003052716
3	0x3e113a61	0.14182426
4	0xbd4a56d9	-0.04939923
5	0xbbab1380	-0.0052208304
6	0xbde877a1	-0.113509424
7	0xbdd5db57	-0.104422264
8	0x3db29120	0.08719087
9	0xbde2fcbb	-0.11083361
10	0x3d93b45e	0.07212137
11	0xbe1b19bf	-0.1514654
12	0x3db70d74	0.08938113
13	0xbdcd145d	-0.100136496
14	0xbad35fa9	-0.0016126531
15	0x3e29a7ff	0.16567992
16	0x3e3783c3	0.17921357
17	0x3810dada	3.4536097e-05
18	0x3d837184	0.06418136
19	0xbe27ba5f	-0.16379689
20	0x3d661118	0.056168646
21	0x3e4123fa	0.1886138
22	0xbc81c310	-0.015840083
23	0xbd879eac	-0.06622061
24	0xbd4eb3fe	-0.050464623

psi.0.weight f4 [128, 26]
0	0xbb984957	-0.0046474147
1	0xbe1f38a8	-0.15548956
2	0xbd0d0978	-0.03443286
3	0xbd2156e4	-0.039389506
4	0x3e2df13c	0.16986555
5	0x3e26f0f1	0.1630285
6	0x3c8c138b	0.017099163
7	0x3d3091a2	0.043107636
8	0x3da772de	0.08176206
9	0x3d446d5b	0.047955852
10	0x3d820124	0.06347874
11	0x3cab7b52	0.020932827
12	0xbe155d37	-0.1458634
13	0xbe35f49a	-0.1776909
14	0xbd6471d5	-0.05577262
15	0xbd57ce7b	-0.05268715
16	0x3dfce05b	0.1234748
17	0xbc292576	-0.010323873
18	0xbcc69f6c	-0.02424594
19	0xbd12158f	-0.03566509
20	0xbce29247	-0.027657641
21	0x3dc6fd8f	0.09716331
22	0xbe0f637e	-0.14002797
23	0x3e244911	0.16043498
24	0x3e435c43	0.19078164
25	0xbe2d2889	-0.16909994
26	0xbdfa0944	-0.122087985
27	0xbd569eb2	-0.052397437
28	0x3e3d8f4f	0.18511699
29	0xbda0825d	-0.07837365
30	0x3e2fe769	0.1717812
31	0x3e19e961	0.15030433
32	0x3e02ed20	0.12785769
33	0x3e45a660	0.19301748
34	0xbd6c101c	-0.05763255
35	0xbcbaef47	-0.022819174
36	0x3d991f5d	0.07476685
37	0x3de12989	0.1099425
38	0xbd07c83d	-0.033149946
39	0x3d2b85be	0.041875593
40	0xbe20c162	-0.1569877
41	0x3b4f3906	0.0031619682
42	0xbe19e8d9	-0.1503023
43	0x3d89a609	0.06721122
44	0x3c4cc332	0.01249771
45	0xbe2d4eee	-0.1692464
46	0xbdeb8b3a	-0.11501165
47	0xbe2783c7	-0.16358863
48	0xbc96cdb5	-0.018408636
49	0xbc3b6c67	-0.011439419
50	0xbd17ad3b	-0.03703044
51	0x3c8b35e1	0.016993465
52	0x3e400ac9	0.18754114
53	0x3d56e59e	0.052465074
54	0x3e2dc998	0.16971433
55	0xbc7e00f4	-0.015503157
56	0xbdd44006	-0.10363774
57	0xbd6075ee	-0.054799967
58	0xbda078cd	-0.07835541
59	0xbe09c1d0	-0.1345284
60	0x3e358476	0.17726311
61	0xbd06b2c8	-0.032885343
62	0x3d108719	0.03528509
63	0x3d7a62f7	0.061129536
64	0x3db30b10	0.087423444
65	0x3e1a1322	0.15046361
66	0x3e061da1	0.1309724
67	0xbe2887b6	-0.1645802
68	0x3e2e5c39	0.17027368
69	0xbcb0ac4e	-0.021566536
70	0x3d3e799b	0.04650269
71	0xbd827e72	-0.06371774
72	0x3d9ba17f	0.07599162
73	0x3dad193d	0.084520794
74	0x3e45736f	0.19282316
75	0x3ceaec6f	0.028677193
76	0x3d9b27fd	0.075759865
77	0xbe324737	-0.17409979
78	0xbe2f805e	-0.17138812
79	0x3e02ccac	0.12773389
80	0x3e2c0975	0.16800483
81	0xbd5333e5	-0.051563162
82	0xbd29b62c	-0.0414335
83	0xbdae9043	-0.085236095
84	0xbe44df89	-0.19225897
85	0x3dc70f06	0.09719662
86	0xbe039e42	-0.1285334
87	0xbe083784	-0.13302428
88	0x3b9ccae5	0.004784929
89	0x3d299bfd	0.041408528
90	0xbe42bb2c	-0.19016713
91	0xbe48a99a	-0.19595948
92	0xbdb04b2a	-0.086080864
93	0x393492ed	0.00017220872
94	0xbe3eec23	-0.18644767
95	0xbdfffaf2	-0.12499036
96	0xbccd323f	-0.025048373
97	0xbe48a2c0	-0.19593334
98	0xbd9fd943	-0.07805111
99	0xbe396f5a	-0.18108884
100	0x3e1f801a	0.1557621
101	0x3d950038	0.07275432
102	0x3deaa62a	0.114574745
103	0xbe2423de	-0.16029307
104	0x3e3a638a	0.18202034
105	0x3e3e3fa4	0.18578964
106	0xbde72fa2	-0.11288382
107	0x3e2f1017	0.17095982
108	0x3d627cfa	0.05529497
109	0x3d837504	0.06418803
110	0x3e2ad758	0.1668371
111	0xbe0cfca9	-0.13768257
112	0x3dee1a67	0.116261296
113	0xbc630d96	-0.01385822
114	0x3a21d201	0.00061729556
115	0xbdbd5789	-0.09245212
116	0x3c9923d0	0.018693835
117	0x3d60f270	0.054918706
118	0x3d9e2ef4	0.07723799
119	0x3e4436be	0.19161507
120	0x3d34037e	0.043948643
121	0x3e1550f9	0.1458167
122	0xbd3d41d4	-0.046205357
123	0xbde4d870	-0.11174095
124	0x3c4626d0	0.012094215
125	0xbe3f9b33	-0.18711548
126	0xbdedbaf8	-0.11607927
127	0xbe2d8da3	-0.16948561
128	0x3e135b22	0.14390233
129	0xbdb39dee	-0.08770357
130	0x3cc3b622	0.023890559
131	0x3d1e3191	0.03862149
132	0x3e3e9f2e	0.1861541
133	0x3e343e0f	0.17601798
134	0xbd82afd5	-0.063811935
135	0xbe2bf503	-0.16792683
136	0x3c912eda	0.017722536
137	0xbdc769d0	-0.09736979
138	0x3e314c6f	0.17314313
139	0xbe380094	-0.1796897
140	0x3d253086	0.04032948
141	0xbb9ec867	-0.004845667
142	0xbe2399ac	-0.1597659
143	0xbe360b07	-0.17777644
144	0x3e2e6f02	0.17034534
145	0x3da29e52	0.079403535
146	0x3d92d200	0.071689606
147	0x3d2ecf92	0.042678423
148	0xbc2b8812	-0.010469453
149	0x3e0efd93	0.13963918
150	0x3e263e2b	0.16234653
151	0x3e1f8b3a	0.15580454
152	0xbcc547ed	-0.024082148
153	0x3de5ca3f	0.11220216
154	0x3db547eb	0.08851608
155	0xbd61a8a1	-0.055092458
156	0x3d60df3e	0.0549004
157	0xbdee0602	-0.1162224
158	0x3cc87a90	0.024472505
159	0x3de07705	0.10960201
160	0xbcd59a86	-0.02607466
161	0xbd7fbd08	-0.062436134
162	0x3dfc545a	0.12320776
163	0xbe0c0302	-0.13673022
164	0x3dd98a3e	0.10622071
165	0xbdd76157	-0.10516613
166	0xbd82ab07	-0.06380277
167	0x3e46c19c	0.19409794
168	0xbe0595f1	-0.1304548
169	0xbb91549b	-0.0044351346
170	0x3d1a3ded	0.037656713
171	0xbcad9ee1	-0.021193923
172	0x3e0d63c4	0.13807589
173	0x3e27be30	0.16381145
174	0x3d8873ca	0.0666271
175	0x3d72aa04	0.05924417
176	0x3e115d61	0.14195777
177	0xbdc936b3	-0.09824886
178	0xbd5d1b6e	-0.053981237
179	0xbe2a2142	-0.1661425
180	0xbd07419a	-0.033021547
181	0x3d9ab82e	0.07554661
182	0xbd113f27	-0.035460617
183	0xbe0e874d	-0.139188
184	0x3d07eb19	0.03318319
185	0x3e21f14c	0.15814704
186	0xbe41d860	-0.18930197
187	0x3d4fdd32	0.050748058
188	0x3dadc55e	0.084849104
189	0xbcabe262	-0.020981971
190	0xbcb77946	-0.022396695
191	0xbe1ad425	-0.15119989
192	0xbe2c7d9d	-0.16844793
193	0x3cb833af	0.022485582
194	0x3e38a714	0.18032485
195	0x3e331cfe	0.17491528
196	0xbe3554df	-0.17708157
197	0xbe0a5a54	-0.1351102
198	0x3d153cac	0.036434814
199	0x3e1bdde3	0.15221362
200	0x3da4ed02	0.08053018
201	0x3e118e1a	0.14214364
202	0xbdfe5339	-0.12418217
203	0xbe047154	-0.12933856
204	0xbc38b4e0	-0.011273593
205	0x3dc83fff	0.09777831
206	0xbc3a3ada	-0.01136657
207	0xbe03ea7d	-0.12882419
208	0x3e3c98e8	0.18417704
209	0x3d5ec7d2	0.054389782
210	0x3e401d1c	0.18761104
211	0x3c9aeb96	0.018911164
212	0xbe30273f	-0.17202471
213	0x3e0ccb8f	0.13749526
214	0xbe184733	-0.1487091
215	0xbaa36f6b	-0.0012469118
216	0xbe0e66fd	-0.13906474
217	0xbd2701bc	-0.04077314
218	0x3d97446b	0.073860966
219	0xbe220355	-0.15821584
220	0x3e212c80	0.15739632
221	0x3de024b6	0.10944502
222	0x3e1f874b	0.15578954
223	0xbdc3eaae	-0.09566246
224	0x3e0b8aea	0.1362721
225	0xbb5e768e	-0.0033945176
226	0xbe0ab753	-0.13546495
227	0xbd7649c5	-0.060128946
228	0xbe094332	-0.13404539
229	0xbce2e3f6	-0.02769659
230	0xbda79588	-0.08182818
231	0x3e197b9e	0.14988562
232	0xbe3e7d1e	-0.18602416
233	0x3dc6c89e	0.097062334
234	0xbe0061da	-0.12537327
235	0xbd9a28a2	-0.07527281
236	0xb99158b9	-0.0002772266
237	0x3e21d293	0.15802984
238	0xbe2f7db1	-0.17137791
239	0xbdc93d0c	-0.09826097
240	0xbe05472d	-0.13015433
241	0x3e1f04a7	0.15529118
242	0xbdf7c0ed	-0.120973445
243	0x3e345d02	0.17613605
244	0xbe3f7bef	-0.1869962
245	0x3dc16ead	0.09444938
246	0x3dd1ee6a	0.10250552
247	0xbe347eb8	-0.17626464
248	0xbc7236ba	-0.014783556
249	0x3e0eb9cf	0.13938068
250	0x3d4ecc14	0.050487593
251	0xbe3c7662	-0.18404534
252	0xbe088de1	-0.13335373
253	0x3e258fe1	0.16168167
254	0xbdd55767	-0.10417061
255	0x3e3d82dc	0.1850695

psi.0.bias f4 [128]
0	0xbe29f658	-0.16597879
1	0x3e15bcc9	0.14622797
2	0x3cc286fc	0.023746006
3	0x3d5ce263	0.053926837
4	0x3d21c6b4	0.03949614
5	0xbe0949a1	-0.13406993
6	0xbde5b508	-0.112161696
7	0x3ddeb4f5	0.108743586
8	0xbd2192af	-0.03944653
9	0x3be90441	0.007111103
10	0x3df6d68b	0.120526396
11	0x3df39891	0.11894334
12	0xbe18c7cf	-0.14919971
13	0x3e13282a	0.1437079
14	0x3e2f4366	0.17115554
15	0xbd11a0a0	-0.035553575
16	0xbd025321	-0.03181756
17	0xbe4071bf	-0.1879339
18	0x3dfd0a2a	0.12355454
19	0xbd0f0f7d	-0.03492688
20	0x3e0cd741	0.13753988
21	0xbda60473	-0.08106317
22	0x3d0f94bf	0.035053965
23	0xbd3714c4	-0.044697538
24	0x3e460c32	0.1934059
25	0x3d549735	0.051902015
26	0xbe0a4a9a	-0.1350502
27	0xbe275c6a	-0.16343847
28	0xbe2679af	-0.16257356
29	0xbca814c3	-0.020517712
30	0xbdecad84	-0.11556533
31	0xbd89863b	-0.067150556
32	0xbd67a592	-0.056554385
33	0xbce7c22e	-0.028290834
34	0xbda2f86c	-0.07957539
35	0x3d0f9942	0.035058267
36	0x3c83cfa5	0.016090224
37	0x3d842ebc	0.064542264
38	0x3cdb9117	0.026802583
39	0xbe2c4d03	-0.16826253
40	0x3e2cc604	0.16872412
41	0x3d6cd0f0	0.057816446
42	0x3dbe6bf3	0.092979334
43	0x3c9594e7	0.018259479
44	0xbdfa183f	-0.12211656
45	0xbe1f8e9d	-0.15581746
46	0x3ce7a123	0.028275078
47	0x3e0b9526	0.13631114
48	0xbcc6f8cd	-0.02428856
49	0xbda0199d	-0.07817385
50	0xbdd4aee0	-0.10384917
51	0x3e33609b	0.17517321
52	0x3db3d4ae	0.087808
53	0x3c2135fe	0.009839533
54	0xbe14f191	-0.14545275
55	0x3e172d10	0.14763284
56	0xbdddbd40	-0.10827112
57	0x3d3bfaee	0.045893602
58	0x3cdb436e	0.026765551
59	0xbb81110f	-0.003938801
60	0x3e356ebf	0.17718028
61	0xbe1b599d	-0.15170904
62	0xbe3c4c78	-0.18388546
63	0xbdcfcb4d	-0.101461984
64	0x3e0e2574	0.13881475
65	0x3e2a760f	0.16646598
66	0x3c0a5129	0.008442202
67	0x3d35eb67	0.04441395
68	0x3c9b41ed	0.018952334
69	0xbd4a6c35	-0.0494196
70	0x3e3a5ae8	0.1819874
71	0x3e14f939	0.14548196
72	0x3dcadced	0.099054195
73	0xbd882ab0	-0.06648767
74	0xbe38edc4	-0.1805945
75	0x3e1b2ff5	0.15155013
76	0x3e098c5f	0.13432454
77	0x3dd4b474	0.10385981
78	0xbdb49b04	-0.088186294
79	0xbd280f91	-0.04103047
80	0xbdcceabd	-0.1000571
81	0x3e181a1c	0.1485371
82	0xbd846fc0	-0.06466627
83	0xbd963e39	-0.07336087
84	0x3e209cc2	0.15684798
85	0x3e35748d	0.17720242
86	0xbe28fe8d	-0.16503353
87	0xbdf4f366	-0.11960487
88	0xbde1fb93	-0.11034312
89	0xbcba192b	-0.02271708
90	0xbdc7df98	-0.09759444
91	0xbdc10d83	-0.09426405
92	0x3dc0ddf4	0.09417334
93	0xbe0709a9	-0.13187279
94	0x3e2b750a	0.16743866
95	0x3e3e6b3d	0.18595596
96	0xbe23807f	-0.15966986
97	0x3dc91d70	0.09820068
98	0x3e31aa35	0.17350085
99	0x3dbd6a93	0.09248843
100	0x3e3ba662	0.18325189
101	0x3da1881e	0.078872904
102	0x3d8d1916	0.068895504
103	0xbdf9f2a4	-0.12204483
104	0x3e330d3a	0.17485514
105	0xbe0c2ba4	-0.13688523
106	0x3dca3d78	0.098750055
107	0x3e0abc2c	0.13548344
108	0x3da62246	0.08112006
109	0xbdb3c883	-0.08778479
110	0x3d65f0c6	0.056137823
111	0xbc5d5d86	-0.013511067
112	0x3d883b81	0.066519745
113	0xbdb3ed7d	-0.08785532
114	0xbe0b1ef6	-0.1358603
115	0x3dfbfedf	0.12304472
116	0x3e0cb34d	0.13740273
117	0xbe2d9266	-0.16950378
118	0x3e434d92	0.1907256
119	0xbe2aaef6	-0.16668305
120	0xbdab449b	-0.08362695
121	0xbe1d8e6f	-0.15386365
122	0x3d589e3d	0.052885283
123	0x3e1a4de1	0.15068771
124	0xbdc4cb45	-0.09609083
125	0xbd06e611	-0.032934252
126	0xbd8c4921	-0.06849886
127	0x3babdcb2	0.005244815

psi.2.weight f4 [128, 128]
0	0x3c59555f	0.013264983
1	0xbd28c7f8	-0.04120633
2	0xbd90f56d	-0.07078061
3	0xbbac34d6	-0.005255322
4	0xbda96c79	-0.08272643
5	0x3d5c7dc8	0.05383089
6	0x3da66d3a	0.08126302
7	0xbc790d7a	-0.015200967
8	0x3cbfecd4	0.023428358
9	0x3c922f29	0.017844753
10	0xbceabb37	-0.028653724
11	0x3c5adaf1	0.013357864
12	0x3d6c6c87	0.057720687
13	0x3ccc6cb5	0.02495418
14	0xbd801f8d	-0.06256018
15	0xbbcc7cf8	-0.0062404834
16	0x3d924faf	0.07144105
17	0xbd962d86	-0.07332902
18	0xbd4722f3	-0.048617315
19	0x3c1190bf	0.008884608
20	0xbd34a3a2	-0.044101365
21	0xbd843a38	-0.06456417
22	0x3ca15c7e	0.019697424
23	0xbd172161	-0.036897067
24	0xbd520411	-0.05127341
25	0xbcc1e8d7	-0.023670597
26	0x3d879a12	0.066211835
27	0xbd65de96	-0.056120478
28	0xbd0d2d0b	-0.034466784
29	0x3dad173d	0.08451698
30	0x3d2bff1e	0.041991346
31	0x3c9560c7	0.018234624
32	0xbce87281	-0.028374912
33	0x3d892374	0.06696215
34	0xbd85aaee	-0.06526743
35	0x3c862170	0.016373366
36	0x3d094181	0.033509735
37	0xbda2a918	-0.07942408
38	0xbb899d08	-0.004199628
39	0xbd6b5c8f	-0.057461318
40	0x3c87e64b	0.016589304
41	0x3d3f741d	0.046741594
42	0xbd852634	-0.06501427
43	0x3d96af82	0.07357694
44	0xbce30f9a	-0.0277174
45	0xbdafceb7	-0.085843496
46	0xbca52e6c	-0.020163737
47	0xbda36795	-0.07978741
48	0xbd9188c2	-0.071061626
49	0xbda38f6a	-0.079863384
50	0xbcaf9787	-0.021434559
51	0x3d3c801d	0.046020616
52	0x3bdb2596	0.00668783
53	0xbd77e86c	-0.06052439
54	0xbcabaa8e	-0.02095535
55	0x3d1116ce	0.03542214
56	0xbda0d71a	-0.07853527
57	0xbcda7a2e	-0.026669588
58	0xbdb39723	-0.087690614
59	0xbd174ae9	-0.036936674
60	0x3d87bc75	0.06627742
61	0xbd94c62b	-0.0726436
62	0xbcb0f794	-0.02160243
63	0xbd803481	-0.06260014
64	0x3d2828d3	0.041054558
65	0x3cc34f25	0.02384145
66	0x3c23c150	0.00999482
67	0xbc969b43	-0.018384581
68	0xbd566db1	-0.052350704
69	0x3d997f32	0.07494964
70	0xbad6e9db	-0.0016396599
71	0xbd8164ac	-0.0631803
72	0x3d8b4efb	0.06802174
73	0xbd332f5a	-0.04374633
74	0x3d790ca5	0.060803074
75	0xbce8a937	-0.028401
76	0x3c97bded	0.01852318
77	0xbd8589af	-0.06520402
78	0xbd9eba76	-0.07750408
79	0x3d97d8ff	0.074144356
80	0x3d418b80	0.04725218
81	0x3d3d6efc	0.04624842
82	0xbd843824	-0.064560205
83	0x3d82105f	0.06350779
84	0xbd761eac	-0.060087845
85	0x3cbb53f5	0.022867182
86	0x3d3cf130	0.04612845
87	0x3af950df	0.0019021294
88	0xbd3cbc95	-0.046078283
89	0xbc81ec45	-0.015859732
90	0x3cf5dcc4	0.030012496
91	0x3d607796	0.054801546
92	0xbd22a4b0	-0.03970784
93	0xbd23bfb5	-0.039977748
94	0xbd09ed11	-0.03367335
95	0x3d1831c0	0.03715682
96	0xbce3e1d0	-0.027817637
97	0xbd23ad15	-0.039959986
98	0xbd363d72	-0.044492193
99	0xbd837105	-0.06418041
100	0x3d20aa89	0.039225135
101	0x3cfbc923	0.030735558
102	0xbd7d877c	-0.061896786
103	0xbd586bb4	-0.05283709
104	0xbd09df7d	-0.0336604
105	0xbd9d9db2	-0.076960936
106	0xbc950524	-0.018190928
107	0x3db172a3	0.08664443
108	0x3a978b0f	0.0011561828
109	0xbd8a9260	-0.067662
110	0xbd995445	-0.07486776
111	0xbb76ae1d	-0.00376404
112	0xbd12edf3	-0.035871457
113	0x3d2e1b92	0.04250676
114	0x3db05cca	0.08611448
115	0x3d19c5d4	0.03754218
116	0xbb5c1c1a	-0.0033586086
117	0xbc99e95c	-0.018788032
118	0x3d9f00e2	0.0776384
119	0x3d7ce545	0.061742086
120	0x3cc68b58	0.024236366
121	0x3d72c68b	0.059271377
122	0xbd101746	-0.035178445
123	0x3d9cab94	0.076499134
124	0x3d9b8f59	0.07595701
125	0x3b96caba	0.0046018036
126	0x3da43013	0.08016982
127	0x3a732dae	0.0009276521
128	0xbd9f04b6	-0.077645704
129	0xbd30fb01	-0.043208126
130	0x3d940582	0.07227613
131	0x3d9e6738	0.07734531
132	0xbc31f09d	-0.010860589
133	0x3d965e54	0.073422104
134	0x3cd6a287	0.026200546
135	0xbc6332c2	-0.013867082
136	0xbd127426	-0.0357553
137	0x3d9ebccd	0.07750855
138	0xba63292b	-0.00086654973
139	0xbcbb0304	-0.022828586
140	0xbd9f17a2	-0.077681795
141	0x3d84c027	0.06481963
142	0x3daa42d1	0.083135255
143	0x3ad6517a	0.0016351186
144	0x3cbfc409	0.023408907
145	0xbc624619	-0.013810658
146	0x3ae02e33	0.0017103612
147	0x3c146265	0.009056662
148	0x3d13926d	0.036028314
149	0x3d90d6a7	0.07072192
150	0x3c611fcf	0.013740494
151	0xbc58fe4f	-0.013244226
152	0xbb8f8f6f	-0.0043811123
153	0xbd9cf925	-0.07664708
154	0xbd808da3	-0.06277015
155	0x3d09461a	0.03351412
156	0xbc5391d1	-0.012913183
157	0xbd7a91b9	-0.06117413
158	0x3c759c11	0.014990822
159	0x3d1825ce	0.03714543
160	0xbba05102	-0.0048924694
161	0x3c19dbb4	0.00939076
162	0x3cfc2c38	0.030782804
163	0x3d61a8b3	0.055092525
164	0x3cc9afb3	0.024619913
165	0x3d90f0c2	0.07077171
166	0x3d60eb65	0.05491199
167	0x3d7b63c9	0.06137446
168	0xbd8d5c71	-0.069023974
169	0x3d91b554	0.07114664
170	0x3d49041b	0.04907618
171	0x3c738cbe	0.0148650985
172	0xbb1144de	-0.0022166292
173	0x3bdd4ff5	0.0067539164
174	0xbaca2213	-0.0015421532
175	0xbd36653e	-0.044530146
176	0xbd1f3dd5	-0.038877327
177	0xbcd32fe2	-0.025779668
178	0x3d7db767	0.061942484
179	0xbb757867	-0.0037455799
180	0x3d6545d1	0.055974785
181	0xbd2507a1	-0.04029048
182	0x3d90e5d5	0.07075087
183	0xbd98883e	-0.07447861
184	0xbda09b7e	-0.07842158
185	0x3c5d9eb6	0.013526609
186	0x3d36eb27	0.044657853
187	0xbd622da6	-0.055219315
188	0xbda1dd64	-0.07903555
189	0x3da4a397	0.08039015
190	0x3ce8be46	0.028411042
191	0xbcd2019d	-0.025635535
192	0x3d153be5	0.036434073
193	0x3d9dc0ec	0.077028126
194	0x3da1a7ab	0.07893308
195	0x3da35068	0.07974321
196	0xbd06c46f	-0.032902177
197	0xbd2915bb	-0.04128049
198	0x3d00350f	0.0313006
199	0x3d410439	0.047123168
200	0x3d89abe4	0.06722239
201	0x3db3620e	0.08758937
202	0xbd8d5efd	-0.06902883
203	0x3d971982	0.07377912
204	0x3d955ab7	0.07292693
205	0xbcac5fba	-0.02104174
206	0xbd0b98cd	-0.03408127
207	0xbd4f20cc	-0.050568387
208	0x3d9f9daf	0.07793748
209	0xbca0598f	-0.019573955
210	0xbc3fa0a3	-0.011696014
211	0xbd4d5f03	-0.05013944
212	0x3c43752c	0.011929791
213	0xbcc675d8	-0.024226114
214	0xbc8c3529	-0.017115192
215	0x3d521345	0.051287908
216	0xbd5d3c0f	-0.054012354
217	0xbc1d9230	-0.009617373
218	0x3d1b2945	0.037881155
219	0x3c05e35e	0.008171884
220	0xbd1dcc26	-0.03852477
221	0xbd0eb109	-0.034836803
222	0xbd8187f9	-0.06324763
223	0xbd595b6d	-0.053065706
224	0xbce62fc8	-0.028098956
225	0x3d536802	0.05161286
226	0x3d89e038	0.067322195
227	0xbc09f1aa	-0.008419434
228	0x3db23516	0.087015316
229	0x3d0c2951	0.03421909
230	0xbd3a9cb0	-0.045559585
231	0x3d8fa3e5	0.07013682
232	0xbd17ba5f	-0.03704297
233	0x3c69ef59	0.014278256
234	0x3d6a73e6	0.057239436
235	0x3d6a9a7d	0.057276238
236	0xbca9f3e2	-0.020746175
237	0xbd883bc3	-0.06652024
238	0x3d19da80	0.037561893
239	0xbd7db7b6	-0.06194278
240	0x3dab728b	0.08371457
241	0xbd14562a	-0.036214985
242	0x3ceeb436	0.029138666
243	0xbc27e023	-0.010246309
244	0x3d62c320	0.055361867
245	0xbd275942	-0.040856607
246	0xbb3d2c27	-0.0028865428
247	0x3cbb47f0	0.02286145
248	0xbd98e712	-0.07465948
249	0xbd889791	-0.06669534
250	0xbd957b17	-0.07298868
251	0xbd1864c5	-0.037205476
252	0xbc820784	-0.015872724
253	0x3d6541c9	0.05597094
254	0xbd59375d	-0.053031314
255	0xbd1edb42	-0.03878332
